BackupModels/ModelosCorrectos/trading_model_GBPAUD.pth (torch, 16650 bytes, 5 tensors)

net.0.weight f4 [64, 20]
000000 cf f5 28 be 6f 9b d1 bd 94 ca 43 be 46 88 c2 ba
       -0.16500019 -0.10234725 -0.19120246 -0.0014841638
000010 13 f2 83 be 08 ac 83 bd a8 41 88 3d 9c c0 b9 bd
       -0.25770625 -0.06429297 0.06653148 -0.090699404
000020 63 84 5f be e2 62 72 be 9d f7 51 be 5f 6a 09 3e
       -0.21827845 -0.23670533 -0.20504613 0.13419484
000030 bd 44 5a be e5 71 53 3d 5b a7 16 3e 11 ba 30 3e
       -0.21315284 0.05162229 0.14712279 0.17258479
000040 a1 82 0b be 52 f5 21 3c f9 f2 96 3d 7b fd 1f 3d
       -0.1362405 0.009885149 0.07370562 0.039060097
000050 cf 42 63 bd de 9d ac bf dc 69 06 3e e1 c5 30 3d
       -0.055483636 -1.3485677 0.1312632 0.043157462
000060 e4 97 06 bc 79 e5 31 bd cf 52 34 be d9 56 10 3e
       -0.0082149245 -0.043431733 -0.17609714 0.1409563
000070 1f 4e c4 3d 81 32 8e 3c 49 2d a9 bd 49 a3 78 bd
       0.09585213 0.017358067 -0.082605906 -0.060702596
000080 54 31 56 bd ed 59 aa be 7c d5 44 be 0e 2c e2 be
       -0.052293137 -0.33271733 -0.19222063 -0.44174236
000090 03 5a c6 3d d3 63 8d bd af 13 95 3d 94 fa 0c bb
       0.09685137 -0.069038056 0.07279145 -0.002151166
0000a0 d8 34 0a be 60 b0 b7 bc cb 4c 2a 3d 80 b0 78 be
       -0.13496721 -0.02242297 0.04157714 -0.2428608
0000b0 2f 4c 9c bd 05 47 a1 bd 3c 82 6c bd 7c a6 ab 3d
       -0.07631718 -0.07874874 -0.05774139 0.08381364
0000c0 5e f7 24 3d 13 34 66 bc 32 d3 0f 3e 90 53 03 3d
       0.04027497 -0.014050501 0.14045408 0.032062113
0000d0 ba 2d 3e 3e 64 02 9b bc 71 e6 10 be 69 20 1d be
       0.18572131 -0.018922038 -0.14150406 -0.15344395
0000e0 59 26 1a bd 66 11 28 be e4 c6 ee 3d 1b 1d 04 be
       -0.037634227 -0.16412887 0.11659029 -0.12901728
0000f0 5f 80 80 3d 86 1e 5e be ea 69 a5 be 07 4f 33 be
       0.06274485 -0.21691331 -0.3230737 -0.17510615
000100 f1 cf 06 3e 1c c5 36 3d 4e 65 87 3d 31 db 8a 3d
       0.13165261 0.044621572 0.06611119 0.06780089
000110 03 6f 0a 3e d2 b4 1d be bf 01 04 3a b6 f7 18 3e
       0.1351891 -0.15401009 0.00050356606 0.14938244
000120 73 74 13 be f3 5e 28 bd 8d 78 58 be 5f 58 72 bc
       -0.1439989 -0.041106176 -0.21139736 -0.014791577
000130 a2 2f 55 be 48 10 82 be d1 31 b4 3d f3 65 7b bd
       -0.20818952 -0.25403047 0.08798564 -0.061376523
000140 07 85 39 bd 33 c7 30 3e 7b f9 70 bc ea b6 62 be
       -0.04529288 0.17263488 -0.014707918 -0.22140089
000150 f5 a5 04 3d 7c 19 7a be 18 05 15 be d8 3e 16 bd
       0.03238483 -0.24423784 -0.14552724 -0.036681026
000160 1e 31 aa 3c 15 b1 83 3c 89 6d 8d be fa da b1 3d
       0.020775374 0.01607565 -0.2762263 0.086843446
000170 ae 7b d4 3d b1 4e ad bd 10 1b 7a bd 86 de 98 3c
       0.103751525 -0.08462275 -0.061060965 0.018660795
000180 47 2f 90 bc 77 41 e4 bd 5a a4 e9 bd de d6 40 be
       -0.017600669 -0.11145299 -0.11408301 -0.18831965
000190 81 d5 ad 3d d9 23 06 bd 00 01 98 bb 5f a0 4d be
       0.08487988 -0.03274903 -0.004638791 -0.20080708
0001a0 6d 1d 8b 3d 21 67 93 bc 13 5c 33 be b5 8d 29 3e
       0.06792722 -0.017993512 -0.17515592 0.16557963
0001b0 4b 39 43 be 5f 1f 07 be ab 15 2b 3e 4d 5d f2 bd
       -0.19064824 -0.13195561 0.16707484 -0.11834202
0001c0 d7 5f 39 3e e6 49 54 3e 9d 3a 0c 3e b9 d2 98 bb
       0.18102966 0.20731315 0.13694234 -0.004663792
0001d0 59 9a 2e 3e de 1e 6a be af 92 59 be fe 47 1f be
       0.17051066 -0.22863337 -0.21247362 -0.15554807
0001e0 59 2b d0 bd 62 14 86 be 42 1f 47 be c7 c6 fc 3c
       -0.10164518 -0.26187426 -0.19445518 0.030856503
0001f0 77 bb 68 be c5 95 48 3e ae 45 5d 3d 37 05 ed bc
       -0.22727762 0.19588383 0.05402153 -0.02893315
000200 4e 88 42 be 8d e2 f1 3d 43 30 70 be f2 38 ad bd
       -0.18997309 0.11810789 -0.2345591 -0.08458127
000210 43 ef 28 3e 54 b3 ef bd 6f 15 8f bd 61 d7 7e be
       0.16497521 -0.11704126 -0.0698651 -0.24886848
000220 52 99 28 be 24 d2 f3 bc 76 02 5b 3d 9e 9e 90 be
       -0.16464737 -0.029763289 0.053469144 -0.28246015
000230 3c 0d 81 3c 2a 4c 63 be e6 87 0f bf af 45 0b be
       0.015753381 -0.22197023 -0.5606674 -0.13600801
000240 46 cd 98 bd b5 8d 0d 3e 7c 1e 62 3d 65 f7 2f 3e
       -0.07461028 0.13823588 0.055204853 0.17184217
000250 ee bd 87 3d 6d e0 2e be 64 86 86 3e c7 8a 43 be
       0.06628023 -0.17077799 0.26274407 -0.19095908
000260 d7 62 76 3e f2 34 84 3e f3 f3 c3 be 28 59 0f 3f
       0.24061142 0.25821644 -0.38272056 0.55995417
000270 a2 44 d5 be 50 94 4c be b2 6d d2 bd 55 2c 98 bd
       -0.41653925 -0.19978452 -0.10274829 -0.07430331
000280 6d e9 bb 3d 64 77 cf bc 56 c7 4d bd 03 e5 bb 3c
       0.09175382 -0.025325485 -0.05023893 0.02293635
000290 b5 2d 0c be d9 92 5d bd 36 d6 26 3d b2 a9 75 3d
       -0.13689311 -0.054095123 0.04073163 0.059976287
0002a0 cb 1b 92 bd 65 91 db bd a1 41 cf 3d ee dd ba bc
       -0.07134207 -0.10721091 0.101199396 -0.022810902
0002b0 94 aa 8b be 12 fc 85 be 78 6d 1b 3c b2 b0 a6 3d
       -0.27278578 -0.26168877 0.009486549 0.08139171
0002c0 b6 9b 39 be c7 49 6c 3c 99 35 31 be c5 a6 10 be
       -0.18125805 0.014421887 -0.17305602 -0.14126118
0002d0 df 53 fc bb 44 1c c3 3c ba e7 5f be a5 6f a2 3d
       -0.007700428 0.023817189 -0.2186574 0.07931451
0002e0 ee 37 72 be 00 65 ec 3d 3d e6 09 ba 8f 83 b8 3c
       -0.23654148 0.11542702 -0.00052604434 0.02252367
0002f0 2f 49 62 bc 8e 34 7c 3d 25 56 e0 bd 0e 4b f1 bb
       -0.013811394 0.061573558 -0.10953931 -0.0073636835
000300 f0 7b 8c be 6b 6c 15 be 69 01 6c bd e7 63 69 bd
       -0.27438307 -0.1459214 -0.057618532 -0.05698004
000310 a5 cb 02 3d 05 a6 45 3d 13 e2 9b 3a 02 11 8e bd
       0.03193249 0.04825403 0.0011892937 -0.06936838
000320 d4 ce 0d be 92 e3 bd bc b9 69 41 be 3d 84 90 be
       -0.1384843 -0.023179803 -0.18887986 -0.2822589
000330 af 98 f2 3d f7 09 bc bd ac 5e ca 3c 52 f3 8d be
       0.11845528 -0.09181588 0.024703346 -0.277247
000340 94 38 3c be 71 81 e8 bd 51 65 98 bd c0 97 eb bc
       -0.18380958 -0.11352814 -0.074411996 -0.028758883
000350 8e 2a 67 be 62 88 c7 be 93 b9 42 bc 5e a4 9e 3c
       -0.22574827 -0.3897124 -0.011885065 0.019365486
000360 03 c0 49 3d 16 f4 0c 3d c9 ed 76 bd 57 29 0a bd
       0.049255382 0.034412466 -0.060285363 -0.03373083
000370 45 2c 54 3d 9a 23 85 bd db 5e 8b bd 82 ec 26 bd
       0.05180003 -0.06500931 -0.068052016 -0.040752895
000380 55 0b bd 3d 01 d7 dc bd df 2f bc bd 95 06 c3 3d
       0.09230677 -0.10783196 -0.09188818 0.0952274
000390 ad dd 07 be 2c 37 f5 3d 16 a8 50 be 8b 15 e9 bd
       -0.13268156 0.11973414 -0.2037662 -0.11381062
0003a0 2b be 6c be ba 5d 01 3e 7e df 95 bd 35 c9 88 bc
       -0.23119418 0.1263341 -0.073180184 -0.016697505
0003b0 e0 bd e8 3a 91 9c 65 bd 8b 2a 76 bd 63 35 63 be
       0.0017756782 -0.056057516 -0.060099166 -0.22188334
0003c0 d0 99 3b bc 06 02 ec bd f4 3f d1 3d f6 c0 c2 bd
       -0.011450246 -0.115238234 0.10217276 -0.09509461
0003d0 88 ad 98 bd 18 e3 ca bd 40 81 ba 3b 78 d5 95 3c
       -0.074549735 -0.09906596 0.0056916773 0.018290266
0003e0 12 d9 58 be 02 9c 10 3e ce 6d 1d be 38 4e f5 3d
       -0.21176556 0.14122012 -0.15373918 0.1197781
0003f0 53 6e 47 be 8c 61 dc bd 4e e4 ab bd fc 1e 40 3e
       -0.19475679 -0.10760793 -0.08393155 0.1876182

net.0.bias f4 [64]
000000 ca 48 1a be 21 76 e4 3d 12 7e ca bb 93 75 1c 3c
       -0.1506683 0.11155344 -0.0061795795 0.009549516
000010 7a b5 8f bd e2 ab 8e bd 0b ea db 3b 47 49 09 be
       -0.07017036 -0.06966378 0.0067112497 -0.1340686
000020 a0 11 30 3d 86 80 2a bc 92 f2 44 3d 60 91 84 3d
       0.04298556 -0.010406619 0.048082896 0.064730406
000030 d8 f4 3c be 07 98 ee bd 42 f0 13 3e a2 28 a3 bd
       -0.18452775 -0.11650091 0.1444712 -0.079667345
000040 9a 78 1c be 4f 37 e4 3e 06 db f4 3d 2f ef 0d bd
       -0.15280381 0.44573447 0.11955838 -0.03465193
000050 07 65 2b 3e 7e 0b 32 be ee 5e 47 be e8 2c 6b 3e
       0.16737758 -0.17387196 -0.19469807 0.22966349
000060 eb 7f cc 3e 90 4d dc bd 5a de 29 be 6c 32 89 be
       0.39941344 -0.107569814 -0.16588727 -0.2679628
000070 6c 0b 41 be bc f2 44 be 74 0a 8d 3e 56 e8 ad 3d
       -0.18852013 -0.19233221 0.27547038 0.0849158
000080 ff d4 22 3e a1 65 d2 bd 63 68 04 3e 09 31 c6 bd
       0.15901564 -0.102732904 0.12930445 -0.096773215
000090 f2 1d 86 bd e7 47 5c 3d 3b d9 db bd a3 ba 4e 3d
       -0.0654868 0.05377951 -0.10734793 0.05047096
0000a0 7a 60 8a bd 69 a8 0e be 66 21 8b bc c7 f0 73 be
       -0.06756683 -0.13931431 -0.016983699 -0.23822318
0000b0 40 dc 89 3d d1 cc e1 bd 34 1b 4b be 73 c3 0b 3d
       0.067314625 -0.11025394 -0.19834596 0.03412194
0000c0 54 2c 3b be 80 a9 54 3d 67 2f 11 bf 54 c1 45 be
       -0.18278629 0.05191946 -0.56712955 -0.1931203
0000d0 71 89 26 be 6b ff 22 3e 57 65 4b be 60 d3 6a 3d
       -0.16263367 0.15917747 -0.19862877 0.05733049
0000e0 0a 2a 71 be 9a bd d2 3c 85 82 03 3e f7 1a 88 bb
       -0.23551193 0.025725175 0.12842758 -0.004153605
0000f0 88 23 eb 3d 4e 83 78 3e 2b ec 5a be 81 e2 64 be
       0.114813864 0.24268839 -0.21379153 -0.2235203

net.2.weight f4 [32, 64]
000000 18 f1 b3 3c cf 84 02 3e 20 5f f4 3d c3 80 5e 3c
       0.021965548 0.12745975 0.11932206 0.013580504
000010 33 38 e6 3d 7a 39 fe 3b dc 5b 4a bc cd 38 1a 3e
       0.11241188 0.0077583166 -0.012351003 0.1506073
000020 90 1b 26 3d c4 93 68 3d 04 6a 5a 3c 50 42 6d 3d
       0.04055363 0.056781545 0.01333094 0.05792457
000030 2c af 09 bd b6 8e e5 3d 6a d0 64 3d 00 f0 f6 38
       -0.033614323 0.112088606 0.05586282 0.000117748976
000040 41 69 eb bd 9f e6 46 3e 7f 46 08 be 3d 75 27 bd
       -0.11494685 0.19423912 -0.13308142 -0.04088329
000050 b6 15 d8 bd 27 60 b2 3b 26 93 af bc 0d d8 f1 3d
       -0.10551016 0.005443591 -0.02143247 0.118087865
000060 f4 98 44 3e 68 0f 70 3d 9a 4d a4 bd 60 62 a1 3b
       0.19198972 0.058608443 -0.08022614 0.0049250573
000070 c6 45 0b bd 73 82 4f bd 6a 5a 73 bd c6 07 8c 3d
       -0.034002088 -0.050661515 -0.059412397 0.0683742
000080 75 74 8b 3d df e3 95 3d 6f db a6 bb 22 dc a2 3d
       0.06809322 0.073188536 -0.0050920765 0.07952143
000090 c8 bf d8 bb 54 91 4d 3c 3d 78 af 3d 41 de b8 bd
       -0.006614659 0.012546856 0.085678555 -0.090267666
0000a0 fa 6c 46 bd 72 8e bb 3d a7 74 70 bd dd 8b c1 3d
       -0.048443772 0.09158029 -0.058705 0.09450505
0000b0 b7 8a c5 3d f8 c2 e2 3c ff 6f 30 3d b1 30 2a 3d
       0.096455984 0.027680859 0.043075558 0.041550342
0000c0 51 ae c2 3d 5a ed 64 bd 90 27 50 3b 95 ac dd bd
       0.095059045 -0.05589042 0.0031761862 -0.10823933
0000d0 6c ad e4 3d 12 ea c0 3c 15 6b f0 3d e2 df 37 bd
       0.1116589 0.023549113 0.11739174 -0.044891246
0000e0 7f 4b 33 bc ee 24 07 bd 56 ac b1 bd af e6 9d bd
       -0.010943293 -0.032994203 -0.086754486 -0.07710015
0000f0 ca cf 4a bd c1 d0 5e 3d 71 77 7a bd 0e 12 f0 3d
       -0.04951457 0.054398302 -0.061149064 0.11722194
000100 5c 5d e7 bd fa dc ff bd 61 ba e9 bd eb 9d 83 bd
       -0.11297104 -0.1249332 -0.11412502 -0.06426605
000110 25 70 00 bd c0 c3 1b 3d 56 3d 9f bd 1e 08 41 3d
       -0.03135695 0.03802848 -0.07775371 0.04712688
000120 43 e1 7a bd ce 66 73 bd 93 b2 7a 3d 13 e2 0a be
       -0.061249983 -0.059424214 0.061205458 -0.13562803
000130 90 c8 91 bc 6e 79 b9 bd 66 01 97 bd b0 78 fc 3c
       -0.017795831 -0.09056364 -0.073733136 0.030819267
000140 1c 96 e2 3c ad 9a d9 bd 0f ca d9 bd a7 8f 05 3c
       0.027659468 -0.10625205 -0.10634243 0.008151925
000150 e4 7f 41 3d f0 34 8f 3d 6f e1 75 bc f3 fa 72 bd
       0.047241107 0.06992519 -0.015007361 -0.059321355
000160 c8 e7 a8 be a8 a3 88 bd 44 7c 60 bd d9 63 86 ba
       -0.32989335 -0.0667184 -0.05480601 -0.0010253146
000170 03 99 99 3d 71 c4 c2 3d a0 df 0e 3d 01 4c 8e 3c
       0.07499888 0.095101245 0.034881234 0.017370226
000180 84 23 3b bd 74 97 36 bd 76 21 d3 bc 9c 7c 46 3d
       -0.045688167 -0.04457803 -0.025772791 0.04845868
000190 76 98 a6 bd d5 df 54 3d 39 38 0d be 46 b3 a2 bd
       -0.08134548 0.051971275 -0.13790978 -0.0794435
0001a0 eb 2f 95 bd fb 90 49 bd b2 86 7b 3d c6 86 04 be
       -0.0728453 -0.04921053 0.061407752 -0.12942037
0001b0 fd 98 23 be 04 19 4a bd c5 8d ac 3d 66 eb f9 bd
       -0.15976329 -0.049340263 0.08425478 -0.12203102
0001c0 de ed 83 3c 09 cf 88 3d 3b a3 21 be e6 3f 0f 3d
       0.016104635 0.06680114 -0.15784924 0.034973048
0001d0 d9 ef b1 3d bc be 95 bc 52 ef 30 3d 97 5b 5b 3d
       0.086883254 -0.018279426 0.043196984 0.053554144
0001e0 58 53 d7 bc ea 29 59 bd 65 7b 2c ba 12 93 8d 3a
       -0.026284859 -0.053018488 -0.00065796665 0.0010801277
0001f0 3a b1 f6 bd 8a 50 bb 3c f0 f0 59 3d 28 aa b8 bc
       -0.12045522 0.022865552 0.05320829 -0.022542074
000200 a0 ed ef 3c 9a 50 a0 bd 68 2b 43 3d c0 df 4f bc
       0.029288113 -0.078278735 0.047648817 -0.0126876235
000210 d6 44 c1 bd 90 dd c3 bc e0 f5 1b bc 3c 78 09 bd
       -0.094369575 -0.02390936 -0.00951907 -0.03356193
000220 54 1b c4 bd 60 55 89 bb 50 c3 26 bc 4c cc 2c 3d
       -0.09575525 -0.0041910857 -0.010178402 0.04218702
000230 e6 71 b9 bd 90 14 61 3c 18 42 c2 bc 50 c0 36 3d
       -0.090549275 0.013737813 -0.023713157 0.044616997
000240 60 74 94 bc a6 88 a2 3d 30 33 2f 3c e0 d7 cb 3c
       -0.018121898 0.0793622 0.010693356 0.02488321
000250 80 32 74 bb e8 f7 92 bc a0 0d 6a bd da 61 ce bd
       -0.0037261546 -0.017940477 -0.0571419 -0.100772575
000260 3c 33 11 bd a2 e7 ae bd 18 1a ab 3c a0 e3 fe bd
       -0.03544925 -0.08540274 0.020886466 -0.1244576
000270 88 6f 91 bd d0 6c ca 3d 00 fb 9b 3c 74 85 cc bd
       -0.07101351 0.098840356 0.019040585 -0.09986392
000280 80 f1 f8 bc ea fe a1 3d 0a cc 89 bd 86 3e c8 bd
       -0.030388594 0.07909949 -0.067283705 -0.097775504
000290 28 cc ba 3d 44 71 a3 3d 94 da 88 3d 9c 90 31 3d
       0.09120971 0.07980588 0.066823155 0.0433508
0002a0 36 e9 a2 bd a0 cf 7d bc e8 81 90 3c 9c 16 ae 3d
       -0.07954638 -0.015491396 0.01764007 0.08500406
0002b0 20 fc 52 3d 10 6f d4 bd 64 58 18 bd 8a f9 c3 bd
       0.051509976 -0.10372746 -0.03719367 -0.0956908
0002c0 58 c9 9b 3d 48 a2 98 bc 40 b6 f0 3b 3a 01 80 3d
       0.07606763 -0.01863207 0.0073459446 0.06250234
0002d0 80 9f f1 bd 74 47 34 3d cc 3c 1a 3d bc b9 bd 3d
       -0.11798 0.044013456 0.037655637 0.09263942
0002e0 f6 88 c8 bd a4 78 30 bd 58 37 91 3c 00 43 ae 3c
       -0.09791748 -0.043083802 0.017726585 0.021272182
0002f0 72 57 88 bd c2 22 eb bd da d3 88 3d 34 b9 d6 bd
       -0.06657304 -0.11481239 0.066810325 -0.104845434
000300 cf 42 76 bd 8d c9 5d bc db df 13 bd 76 33 20 3d
       -0.060122307 -0.013536823 -0.036102157 0.039111577
000310 ab 2c 8f bc b0 45 90 bd a8 31 2f 3d 6e 36 ae 3c
       -0.017477354 -0.07044542 0.042771965 0.021266188
000320 cc 5f a1 3c 54 38 f0 bc 24 f4 3c bd 87 1d 15 bd
       0.019699 -0.029323734 -0.04613127 -0.036405113
000330 e4 e9 e5 bd ac 58 ec bd cd 05 aa 3c 42 26 96 bd
       -0.11226252 -0.1154035 0.02075472 -0.07331516
000340 a0 ab e9 3a 03 b5 db bd de 5e 3c 3d f9 78 99 bd
       0.0017827637 -0.107278846 0.04598891 -0.07493777
000350 84 40 95 3d 04 5b bc bd c4 de 84 bd 1f 38 c8 3c
       0.07287696 -0.09197047 -0.06487802 0.024440823
000360 de fd de 3d 10 c7 75 3d 58 14 43 3d c4 70 68 3c
       0.10888265 0.060004294 0.047626823 0.014187042
000370 b4 3f 82 3d a7 ac 99 3d de 2a 9c 3d 59 19 fa bd
       0.06359807 0.07503634 0.07625364 -0.12211866
000380 a2 5d 21 3d b8 2a 96 bd ee 49 fe bd e3 ce 9e bc
       0.039395936 -0.07332367 -0.12416445 -0.01938576
000390 f0 ef b2 bc 24 84 a6 3d a1 04 3b bd 2f 28 f4 bc
       -0.021842927 0.081306726 -0.04565871 -0.029804317
0003a0 fa f1 14 bd 7f d7 da 3d 2f 72 4c 3c 6e 04 72 bb
       -0.03636358 0.10685634 0.012478395 -0.003692891
0003b0 3b 77 ab bc 82 21 9d bd 54 63 af bb 5d 40 bb bc
       -0.020930877 -0.07672407 -0.005352417 -0.02285784
0003c0 2b 89 62 bd 9a 5f c9 bd 53 60 03 be b9 02 29 3d
       -0.055306595 -0.09832688 -0.12829714 0.041262362
0003d0 a3 ef 54 bd 71 56 6c 3d 8f 52 97 3b 2b 94 ca 3d
       -0.051986348 0.057699624 0.004617996 0.09891542
0003e0 c7 b9 e7 bd 7f e3 0b bd c8 83 f5 bd e3 08 2a bd
       -0.11314731 -0.034152504 -0.11988026 -0.04151238
0003f0 41 cf fb bd ad 52 cb 3d a3 c4 a1 3d 20 f3 45 bd
       -0.1229539 0.099278785 0.078988336 -0.048327565

net.2.bias f4 [32]
000000 cb 5f 9f 3e 86 68 3f 3d ba c4 e8 bd 61 19 f3 bd
       0.31127772 0.04673054 -0.113656476 -0.11870075
000010 6c e1 1e bd ee d6 4f 3c c4 74 03 bd ab 45 97 bd
       -0.038789198 0.012685521 -0.03209378 -0.07386335
000020 5b 4f 1b 3e f5 43 78 bd ba 0c db 3a ac 09 44 bb
       0.1516699 -0.060611684 0.0016712167 -0.0029912991
000030 b2 fc 88 bd 87 77 b1 3e 2b b2 28 bd 41 14 43 3d
       -0.06688823 0.34661505 -0.04118554 0.047626738
000040 ed 4b 8f bd 9d 0e 81 3e 76 33 be bc c9 32 07 bc
       -0.069969036 0.25206462 -0.023217898 -0.008251854
000050 6f a9 03 bd de 3b f9 bc 16 e4 9c 3e be 3b ec 3d
       -0.032144006 -0.030424055 0.30642766 0.115348324
000060 19 84 41 3d 7b da 5d 3e 5e 6d df bd aa e7 07 bd
       0.04724512 0.21665375 -0.10909532 -0.033179916
000070 78 5c 07 be 00 c6 ab bd 65 f3 af bd 45 95 b2 3e
       -0.13218868 -0.08387375 -0.08591346 0.3487951

net.4.weight f4 [1, 32]
000000 77 bf 27 3e 4d e7 77 bd fd a1 81 bd bf fb 23 be
       0.16381632 -0.06052332 -0.06329725 -0.16014002
000010 46 bd f6 bb 9b 4b 9a bc 7b e1 0b bb e0 ca eb bc
       -0.0075298874 -0.01883488 -0.0021344114 -0.028783262
000020 e7 c1 74 3d 74 01 81 3d 5d 16 07 bb 7d bd 46 3c
       0.059755232 0.06299105 -0.0020612695 0.012130138
000030 25 dc 4a bd a4 61 58 3e a3 ac 3b 3d 66 ad b8 bc
       -0.049526352 0.21130997 0.045818936 -0.02254362
000040 c8 6a 04 bd 3a a0 c5 3d f1 80 b4 bd 11 00 59 3b
       -0.032328397 0.096497014 -0.08813656 0.0033111612
000050 cb 13 95 bd d9 5a fa bb 17 48 3e 3e e9 ec 2c 3d
       -0.07279166 -0.0076402244 0.18582188 0.042218123
000060 5e f5 47 3c 05 a3 a9 3d 01 cb 8b bd 6a 03 41 bd
       0.012204496 0.08283047 -0.06825829 -0.047122397
000070 96 93 42 be 94 b1 85 bd 41 a7 76 3a 7c c8 37 3e
       -0.19001612 -0.06528011 0.0009409078 0.17947572
