Trading_Model/trading_model_GBPAUD.pth (torch, 16650 bytes, 5 tensors)

net.0.weight f4 [64, 20]
0.008221644 0.106052086 0.0166761 0.020645102 0.107120715 0.10610489 -0.16483222 0.039548047
-0.2809068 0.11489525 -0.19143708 -0.061626207 -0.20130666 0.04281806 -0.30306995 -0.024919111
-0.55606824 -0.1109509 -0.120690666 0.07737756 0.18836409 -0.08805096 -0.21249719 0.059959594
0.088951245 -0.04184018 -0.17976432 0.07387985 -0.21907507 0.03807516 -0.22754522 -0.054270297
-0.18548463 0.047753155 0.102327496 -0.179081 -0.069181316 -0.1486977 -0.11238533 0.12572858
0.08636091 0.010540892 -0.11102491 0.063409075 0.053504284 -0.07393575 -0.17399685 -0.1838774
0.068479046 0.03227191 0.12707764 0.15736602 -0.12793826 -0.09413952 -0.04334901 -0.13603893
-0.17460147 -0.22024716 -0.13989821 0.092343986 -0.2668692 -0.19956797 -0.007927073 0.05573275
-0.08519689 0.0069518895 -0.004682736 -0.29440674 -0.060535513 0.12033524 0.02604765 -0.2945103
-0.17536467 0.017433153 -0.09333868 0.00010896816 0.03641131 0.0017548945 -0.15798368 -0.10068572
-0.016686909 -0.049910128 -0.29862076 0.19810154 0.12844105 -0.024821961 0.20248707 -0.084944665
0.17126298 -0.20859335 0.13442007 -0.13476436 -0.19068322 0.050584264 -0.0028233752 -0.2566151
-0.24166447 -0.36596352 -0.015977783 -0.14535041 -0.16111866 0.006162092 -0.13043374 -0.13305911
-0.21882708 0.025568128 -0.16542105 -0.18295084 -0.04982704 -0.1265791 0.14827731 0.20462173
-0.05173853 0.08928427 0.03893903 -0.12503006 0.0108513385 -0.18308364 0.07264525 -0.05991292
0.104692504 0.0985547 0.037432227 0.062192746 -0.13011932 -0.060520854 0.09554493 0.13662732
-0.17448781 -0.09260171 -0.21967186 -0.2231979 -0.22633739 0.060875997 0.08791838 -0.22610651
0.12686309 -0.19099759 0.08532995 0.105806865 -0.13985594 -0.028919993 0.06930697 0.08175131
0.018411968 0.16959637 0.17952058 -0.13097131 -0.10481831 -0.24150251 0.17003761 -0.12668608
-0.0740557 0.016111936 -0.08953345 -0.054853994 -0.09339952 0.11907998 0.14056338 -0.27768907
-0.15587488 -0.027301004 -0.12775113 -0.04154591 0.046243887 -0.13152933 -0.19426958 -0.043926448
-0.2730785 0.07000995 -0.015546541 -0.072199345 0.04988721 -0.19643725 -0.21723077 -0.094486415
-0.19835341 -0.04597086 0.064958245 -0.2938586 0.08762379 0.02103785 -0.14408307 -0.2607274
-0.25861138 0.058550898 0.15158483 -0.008232532 -0.12927336 -0.0034787252 -0.09496517 -0.01338412
-0.07534369 0.19738245 -0.118170634 0.1137607 -0.1727507 -0.22783922 -0.104969226 0.008086692
-0.059690062 -0.055448983 -0.09004134 -0.20471929 0.037774626 0.11095635 0.09045989 -0.12816735
0.11284507 -0.13655387 -0.059188247 0.014116462 0.20366265 -0.10713742 0.077832706 -0.22551593
-0.04958275 -0.10241082 -0.0076785143 -0.088345975 -0.15984063 -0.02776024 -0.016682418 -0.26257017
-0.2115327 -0.15348293 0.08756468 0.1130732 -0.20249003 0.02517026 -0.18131816 -0.19321944
0.03586595 0.0026728867 -0.02001904 -0.2520869 0.020641593 0.06393926 -0.2239894 -0.11708242
0.11456597 -0.052467268 -0.07997185 0.14055277 0.042198904 -0.1502378 0.10567141 -0.1888563
-0.14450733 0.04846917 -0.07194367 -0.025328254 0.066674516 -0.14084609 -0.035024323 -0.2443033
00000000: 13b4 063c d631 d93d 519c 883c eb1f a93c
00000010: 1b62 db3d 854d d93d c7c9 28be 22fd 213d
00000020: 04d3 8fbe 334e eb3d 1508 44be c36b 7cbd
00000030: 5523 4ebe fd61 2f3d fc2b 9bbe 2a23 ccbc
00000040: 7d5a 0ebf 3a3a e3bd ab2c f7bd 2078 9e3d
00000050: 84e2 403e 1054 b4bd dd98 59be 3198 753d
00000060: 122c b63d 9c60 2bbd 2314 38be 524e 973d
00000070: 3755 60be b3f4 1b3d 9d01 69be 884a 5ebd
00000080: afef 3dbe d098 433d 1491 d13d 0261 37be
00000090: efae 8dbd 3644 18be 482a e6bd febe 003e
000000a0: fddd b03d b5b3 2c3c 0761 e3bd 9edc 813d
000000b0: 4f27 5b3d a06b 97bd 3b2c 32be 5b4a 3cbe
000000c0: be3e 8c3d 8d2f 043d a420 023e 8f24 213e
000000d0: 3f02 03be 38cc c0bd bb8e 31bd ca4d 0bbe
000000e0: baca 32be 7988 61be 7a41 0fbe d81e bd3d
000000f0: 14a3 88be 8c5b 4cbe 8ee0 01bc 0648 643d
00000100: b57b aebd adcc e33b a371 99bb 7bbc 96be
00000110: 16f4 77bd 5372 f63d e261 d53c 0eca 96be
00000120: cc92 33be f9cf 8e3c 5a28 bfbd d685 e438
00000130: 0724 153d 7d04 e63a 79c6 21be 5134 cebd
00000140: fcb2 88bc 906e 4cbd d2e4 98be 21db 4a3e
00000150: 0d86 033e 6d57 cbbc c558 4f3e 78f7 adbd
00000160: 905f 2f3e 7f99 55be 6aa5 093e abff 09be
00000170: 7642 43be 7231 4f3d 6008 39bb 0e63 83be
00000180: e476 77be 925f bbbe d7e3 82bc bdd6 14be
00000190: 4afc 24be 60eb c93b 6c90 05be a640 08be
000001a0: 3514 60be 4074 d13c 2364 29be 7757 3bbe
000001b0: 7017 4cbd f49d 01be 02d6 173e 5c88 513e
000001c0: c8eb 53bd acda b63d 887e 1f3d e107 00be
000001d0: d0c9 313c 477a 3bbe 08c7 943d 4067 75bd
000001e0: 0669 d63d 0cd7 c93d 8952 193d d2bd 7e3d
000001f0: 003e 05be b7e4 77bd 0fad c33d 08e8 0b3e
00000200: efac 32be f7a5 bdbd a9f1 60be fe8d 64be
00000210: fdc4 67be 1c59 793d 8d0e b43d 7788 67be
00000220: 66e8 013e df94 43be 78c1 ae3d 45b1 d83d
00000230: 6536 0fbe 9fe9 ecbc d0f0 8d3d 3b6d a73d
00000240: b2d4 963c acaa 2d3e 3ed4 373e 581d 06be
00000250: fbaa d6bd 6f4c 77be 571e 2e3e ffb9 01be
00000260: 84aa 97bd 2efd 833c 505d b7bd 95ae 60bd
00000270: 3f48 bfbd 34e0 f33d d9ef 0f3e 432d 8ebe
00000280: aa9d 1fbe 5ba6 dfbc 31d1 02be 0b2c 2abd
00000290: 3b6a 3d3d a0af 06be 9bee 46be 38ec 33bd
000002a0: f2d0 8bbe 6061 8f3d ebb6 7ebc 40dd 93bd
000002b0: 8856 4c3d d926 49be be71 5ebe 1882 c1bd
000002c0: 281d 4bbe f14b 3cbd d408 853d a274 96be
000002d0: 1a74 b33d 9257 ac3c 838a 13be 107e 85be
000002e0: b668 84be 11d3 6f3d 0e39 1b3e bee1 06bc
000002f0: 3c60 04be 53fb 63bb 197d c2bd 1149 5bbc
00000300: cb4d 9abd a01e 4a3e 7203 f2bd 5ffb e83d
00000310: 8fe5 30be af4e 69be 1bfa d6bd 0b7e 043c
00000320: 917d 74bd 791e 63bd 9867 b8bd efa1 51be
00000330: 91b9 1a3d 153d e33d 0943 b93d 4d3e 03be
00000340: 511b e73d c7d4 0bbe 606f 72bd bc48 673c
00000350: f18c 503e dd6a dbbd c166 9f3d a6ed 66be
00000360: 4817 4bbd c4bc d1bd 0c9c fbbb bcee b4bd
00000370: 43ad 23be 7169 e3bc 91a9 88bc 996f 86be
00000380: 079c 58be a12a 1dbe 1c55 b33d ec92 e73d
00000390: 8c59 4fbe dc31 ce3c 78ab 39be 51db 45be
000003a0: 2de8 123d 992b 2f3b f8fe a3bc 8911 81be
000003b0: 8f18 a93c 96f2 823d 7a5d 65be e8c8 efbd
000003c0: 90a1 ea3d ebe7 56bd 48c8 a3bd 11ed 0f3e
000003d0: c2d8 2c3d f0d7 19be 416a d83d 8c63 41be
000003e0: bbf9 13be 9c87 463d 3457 93bd 337d cfbc
000003f0: a68c 883d f539 10be aa75 0fbd a52a 7abe

net.0.bias f4 [64]
0.18509246 -0.06550763 -0.053175412 0.13341287 -0.030573225 -0.1567876 -0.21386172 -0.23117855
0.1567579 -0.045672655 0.052889433 0.098046236 -0.041763533 -0.09094992 -0.41436437 -0.1253691
-0.045614764 -0.14490256 -0.14555742 -0.09909849 0.29196316 -0.17090297 -0.1116061 0.10266403
-0.035601407 -0.2230115 -0.20088172 -0.09347301 -0.09990143 0.05692659 -0.01815163 -0.15128468
0.08327706 -0.27556187 -0.21065646 -0.07423384 -0.04748648 0.03843959 0.06968264 -0.10430648
-0.17919424 0.026080804 0.09472856 0.113502085 -0.11244779 0.11848786 -0.22204505 0.08141826
-0.09973855 0.052555438 -0.08169916 -0.2177599 -0.070499115 0.012542142 -0.15823063 -0.1676507
-0.22642733 -0.25272614 0.07933237 0.020544201 -0.25986928 0.45247522 -0.0727505 0.08913945
00000000: e188 3d3e dd28 86bd 76ce 59bd 629d 083e
00000010: b374 fabc ee8c 20be 91fe 5abe 12ba 6cbe
00000020: 2585 203e 4013 3bbd 97a2 583d 77cc c83d
00000030: 3d10 2bbd f443 babd 9127 d4be c260 00be
00000040: 8cd6 3abd 5661 14be 010d 15be 26f4 cabd
00000050: 327c 953e 3001 2fbe bd91 e4bd 8541 d23d
00000060: c8d2 11bd 205d 64be f0b3 4dbe c76e bfbd
00000070: 1f99 ccbd db2b 693d bab2 94bc 5fea 1abe
00000080: 2a8d aa3d 7216 8dbe 54b6 57be e907 98bd
00000090: 2f81 42bd d572 1d3d c6b5 8e3d a39e d5bd
000000a0: b27e 37be 69a7 d53c 0c01 c23d c873 e83d
000000b0: 074b e6bd c3a9 f23d c75f 63be 9ebe a63d
000000c0: ba43 ccbd 5f44 573d e451 a7bd 74fc 5ebe
000000d0: d761 90bd 8e7d 4d3c 3607 22be a0ac 2bbe
000000e0: 91dc 67be 5265 81be 0279 a23d 504c a83c
000000f0: 960d 85be d5aa e73e 37fe 94bd be8e b63d

net.2.weight f4 [32, 64]
-0.08975282 0.0064922413 -0.011931271 0.08766144 0.07352946 0.0036339164 -0.09092019 -0.094181344
0.0025111 0.034189966 0.07440052 -0.11176842 0.09537655 -0.08414444 0.058993742 0.02406831
-0.09709659 -0.0047315224 0.017579112 0.0066198367 -0.035749502 -0.017774343 -0.022451187 -0.057317313
0.046414472 -0.121558204 0.007128992 0.067638144 -0.0056431605 0.03325928 -0.040835623 0.11777333
-0.07953617 -0.073180616 0.09584912 0.07747491 -0.14296125 0.039100558 -0.009301035 0.110317
0.01693999 0.0765916 0.081619136 -0.24877484 -0.018260758 -0.100077234 0.11060251 -0.21019432
-0.08027046 0.09867799 0.116290316 0.0132474955 -0.007592818 -0.06321265 0.017711597 0.037884295
-0.016905483 0.04573481 -0.16437963 -0.1763209 -0.046511002 -0.0028964132 -0.11202103 0.15469177
0.11284538 0.022888849 -0.03978975 0.031047767 0.12808764 -0.015803143 0.042937256 -0.006131236
-0.043307696 -0.04220279 -0.046367384 -0.044104747 -0.06415331 -0.081894636 -0.06600733 -0.08721717
0.08078524 0.062184054 0.08740309 -0.06526981 0.18154989 -0.023263339 0.026594397 -0.02044203
0.036523018 -0.023196518 0.09990038 0.063431986 -0.10785968 -0.08442718 0.02585455 -0.05645167
-0.12482441 -0.110323094 -0.06248443 0.040914964 -0.07258831 0.010255303 0.013238427 -0.11645023
0.060927972 -0.015763918 -0.124019645 -0.12191783 -0.06792489 -0.013108014 -0.07630333 -0.10454914
-0.0114483535 0.10435594 0.076357186 -0.04848679 0.10199375 -0.07529875 0.06383459 0.013041842
-0.08735337 -0.023184087 -0.058924872 -0.116788745 -0.024631545 -0.016540047 -0.10296945 0.0059262915
0.022578955 -0.029111395 -0.038722876 0.07413723 -0.012236157 -0.123359784 0.009709447 -0.095281176
-0.17596559 -0.059811324 -0.03215277 -0.005507935 -0.12623407 0.044819012 0.015895903 0.04628162
0.07003439 0.09783077 0.009223001 -0.05298153 -0.013214688 -0.12448719 0.069030374 -0.046187356
-0.045233622 0.06610067 0.054649394 0.06173338 -0.070111446 -0.007268297 0.005937693 -0.06384495
0.0349729 -0.14435828 0.09895262 -0.10567954 -0.052157387 -0.06700064 -0.10535726 -0.062397633
-0.07471422 -0.00096078665 0.037852317 -0.08127107 -0.024969801 -0.1952019 0.03923604 0.061609454
-0.10666956 -0.06289787 0.050551113 0.040615898 -0.052961804 0.0069158757 0.04055453 -0.033962887
0.014229471 -0.05507784 -0.1729851 0.032668192 -0.025509674 -0.17505622 -0.10683424 0.07964868
0.07264384 0.050187726 -0.019587839 -0.0025395167 -0.06215767 0.04551822 -0.028829556 -0.0047191023
-0.19363388 0.05276084 -0.13563997 0.06889509 0.08242096 0.040844142 -0.03828067 0.092491776
0.036941063 0.040777307 0.03106001 0.013767847 0.08235646 0.016136203 -0.052659303 -0.0069211777
-0.025204051 -0.1152868 -0.012054605 0.055718716 -0.01436522 0.046963934 -0.044853155 0.07137456
-0.028217506 0.09761717 0.019521587 -0.04501746 0.07815301 0.016377665 0.005473261 0.018663947
0.09550376 0.053696964 0.036858194 -0.053837776 0.09030509 0.038993336 0.117653444 -0.039423894
-0.027271206 0.0759962 -0.03769494 0.0425433 0.07970948 0.015975501 -0.007983299 0.013376434
0.088626206 -0.09453959 -0.15766373 -0.11556781 0.091333225 -0.0507641 0.115789704 0.04770697
00000000: 54d0 b7bd debc d43b 617b 43bc d787 b33d
00000010: 9d96 963d 0027 6e3b 5d34 babd 26e2 c0bd
00000020: 4491 243b c70a 0c3d 4d5f 983d d7e6 e4bd
00000030: c854 c33d ec53 acbd 6ca3 713d e82a c53c
00000040: 94da c6bd e30a 9bbb 1202 903c 37eb d83b
00000050: 126e 12bd 809b 91bc 8deb b7bc 8fc5 6abd
00000060: 1a1d 3e3d 82f3 f8bd 529a e93b de85 8a3d
00000070: 43ea b8bb e23a 083d 4143 27bd 2533 f13d
00000080: dce3 a2bd b8df 95bd 8b4c c43d 2aab 9e3d
00000090: 6f64 12be e827 203d 5e63 18bc e1ed e13d
000000a0: bcc5 8a3c 0fdc 9c3d ef27 a73d d5be 7ebe
000000b0: 9697 95bc 4bf5 ccbd 9283 e23d 2e3d 57be
000000c0: d764 a4bd b017 ca3d 9e29 ee3d 060c 593c
000000d0: 2ccd f8bb a275 81bd e917 913c 902c 1b3d
000000e0: 5e7d 8abc 6d54 3b3d 2253 28be 778d 34be
000000f0: 5282 3ebd c0d1 3dbb 486b e5bd 8567 1e3e
00000100: 7b1b e73d 6581 bb3c 94fa 22bd e357 fe3c
00000110: 6829 033e 9875 81bc fade 2f3d 89e8 c8bb
00000120: 6963 31bd d5dc 2cbd baeb 3dbd 2ea7 34bd
00000130: d062 83bd 60b8 a7bd da2e 87bd ea9e b2bd
00000140: bb72 a53d b5b4 7e3d 6400 b33d 2eac 85bd
00000150: 37e8 393e c292 bebc 7edc d93c 0b76 a7bc
00000160: 2999 153d a006 bebc 9298 cc3d a1e8 813d
00000170: 89e5 dcbd 28e8 acbd eccc d33c de39 67bd
00000180: f1a3 ffbd 13f1 e1bd acef 7fbd 7396 273d
00000190: 2ea9 94bd dc05 283c fde5 583c 757d eebd
000001a0: 9c8f 793d 5523 81bc 03fe fdbd 0eb0 f9bd
000001b0: 341c 8bbd ffc2 56bc ec44 9cbd dc1d d6bd
000001c0: e091 3bbc 91b8 d53d 2861 9c3d 169a 46bd
000001d0: 19e2 d03d 3b36 9abd b6bb 823d 73ad 553c
000001e0: 53e6 b2bd 8eec bdbc 355b 71bd f02e efbd
000001f0: 18c8 c9bc fe7e 87bc a6e1 d2bd 5631 c23b
00000200: 80f7 b83c 057b eebc e19b 1ebd 43d5 973d
00000210: 2a7a 48bc 0ea4 fcbd 5f14 1f3c c722 c3bd
00000220: 5330 34be b8fc 74bd 9fb2 03bd e87b b4bb
00000230: 8143 01be 2494 373d 2038 823c cc91 3d3d
00000240: 316e 8f3d 805b c83d 121c 173c 2903 59bd
00000250: 6b82 58bc 24f3 febd cc5f 8d3d f42e 3dbd
00000260: e446 39bd ca5f 873d 0bd8 5f3d 24dc 7c3d
00000270: 9796 8fbd e52a eebb fb90 c23b 24c1 82bd
00000280: be3f 0f3d a8d2 13be aca7 ca3d 846e d8bd
00000290: fca2 55bd a237 89bd 8cc5 d7bd a994 7fbd
000002a0: c503 99bd 4ddd 7bba 080b 1b3d 7271 a6bd
000002b0: 788d ccbc 02e3 47be f8b5 203d 325a 7c3d
000002c0: 9275 dabd 99d0 80bd af0e 4f3d db5c 263d
000002d0: 7aee 58bd 929e e23b 821c 263d ab1c 0bbd
000002e0: ba22 693c 4d99 61bd 0223 31be 15cf 053d
000002f0: aaf9 d0bc f041 33be e9cb dabd d91e a33d
00000300: 4bc6 943d a591 4d3d ad76 a0bc 056e 26bb
00000310: 0a99 7ebd 5071 3a3d f62b ecbc b3a2 9abb
00000320: f647 46be c01b 583d 34e5 0abe de18 8d3d
00000330: 52cc a83d 304c 273d 31cc 1cbd 546c bd3d
00000340: 834f 173d 1b06 273d 9071 fe3c 8992 613c
00000350: 81aa a83d 1230 843c 48b1 57bd 0ccb e2bb
00000360: ba78 cebc 7c1b ecbd ae80 45bc 4f39 643d
00000370: 1a5c 6bbc 415d 403d f1b7 37bd d32c 923d
00000380: 6628 e7bc 83eb c73d bceb 9f3c 3a64 38bd
00000390: af0e a03d 742a 863c 0a59 b33b 22e5 983c
000003a0: 7a97 c33d 59f1 5b3d 9ef8 163d 0085 5cbd
000003b0: e0f1 b83d 7ab7 1f3d 4af4 f03d f37a 21bd
000003c0: dd67 dfbc e5a3 9b3d 0266 1abd e241 2e3d
000003d0: b93e a33d 0edf 823c 62cc 02bc d528 5b3c
000003e0: a881 b53d f99d c1bd 9a72 21be d1ae ecbd
000003f0: ea0c bb3d 04ee 4fbd 2723 ed3d 6268 433d

net.2.bias f4 [32]
-0.031732317 -0.06180238 -0.002765059 -0.010666953 0.31295145 0.13805087 -0.0065344786 -0.023178304
-0.13349174 -0.069474 -0.05711749 -0.0034426681 0.31840476 -0.12879892 -0.04470336 -0.028379826
0.16981934 -0.028764114 0.1505319 -0.06594353 -0.038510475 -0.103427 -0.0046457276 -0.16407624
-0.079428375 -0.01666269 0.26668525 -0.061701134 0.18279253 -0.15901689 0.2582232 0.10631872
00000000: bff9 01bd 7e24 7dbd fe35 35bb 72c4 2ebc
00000010: 2c3b a03e 355d 0d3e 2e1f d6bb 6de0 bdbc
00000020: 0fb2 08be 6248 8ebd 07f4 69bd 639e 61bb
00000030: f305 a33e dde3 03be df1a 37bd cf7c e8bc
00000040: 1fe5 2d3e b8a2 ebbc 0925 1a3e 670d 87bd
00000050: 29bd 1dbd 89d1 d3bd 303b 98bb 9a03 28be
00000060: 58ab a2bd 3280 88bc f88a 883e 54ba 7cbd
00000070: f72d 3b3e 53d5 22be d535 843e a1bd d93d

net.4.weight f4 [1, 32]
0.011310781 -0.04135563 -0.11324559 -0.0012503656 0.22017811 0.10063856 -0.015830934 -0.121578604
-0.0008822918 -0.06748533 -0.08730024 -0.08000231 0.20673904 -0.0073219044 0.018992778 0.0013899412
0.14832342 -0.028292134 0.10509144 0.004111481 0.0059100976 -0.0009928341 0.0012986332 -0.00072892435
-0.016067391 -0.11472246 0.16307311 -0.15992369 0.10236276 0.033424594 0.117119566 0.0512082
00000000: db50 393c 8564 29bd 4eed e7bd 4fe3 a3ba
00000010: 5f76 613e 971b ce3d e0af 81bc 34fe f8bd
00000020: 9a49 67ba c035 8abd 78ca b2bd 40d8 a3bd
00000030: 66b3 533e 96ec efbb be96 9b3c b02e b63a
00000040: 18e2 173e e8c4 e7bc 2e3a d73d 9ab9 863b
00000050: 7ea9 c13b fc21 82ba e636 aa3a 4915 3fba
00000060: c39f 83bc 9cf3 eabd a3fc 263e 09c3 23be
00000070: 91a3 d13d 3ae8 083d 62dc ef3d b1bf 513d
