Trading_Model/trading_model_US30.pth (torch, 22262 bytes, 5 tensors)

net.0.weight f4 [64, 42]
-0.03457827 -0.07333693 0.03897209 0.11107101 0.049861144 0.03841414 -0.029961934 -0.101552255
-0.10594719 -0.10027002 -0.15688656 0.10647176 0.073006466 0.12412745 -0.030251747 -0.17882201
-0.05017825 -0.031570755 0.048182666 0.06651117 -0.099633574 -0.1670371 -0.14561206 0.032772135
-0.058282092 -0.13049121 0.03818333 0.07979742 -0.08012745 0.06393305 0.064278334 0.091048464
0.001489653 0.12044817 0.057585243 0.114509694 -0.029463144 0.0051931357 -0.09432262 -0.11111803
0.10373832 -0.08547182 -0.19415197 0.039539583 -0.18569984 -0.26321352 -0.09413503 -0.016250588
-0.2455369 -0.01671524 -0.054187123 -0.22100793 0.060149487 -0.035297457 -0.05662011 -0.018440647
-0.22557855 0.058848705 0.030108955 -0.104089074 -0.050106462 -0.053185478 0.069907784 0.04895657
-0.0900878 -0.03773713 0.1341355 -0.06649536 0.09906981 0.17073625 -0.10093551 0.013349546
-0.098742746 -0.005392266 0.013650919 0.08647172 -0.01637073 -0.10993997 -0.04375364 -0.16105336
0.04892174 0.022288546 -0.074023046 0.054857004 0.12310161 -0.037104122 -0.0518943 0.05708182
-0.11233708 -0.12916093 -0.10465764 -0.04306128 -0.057183623 0.030845046 0.061662465 0.0985115
0.08719252 0.060427457 -0.09511058 0.13790376 -0.07473808 -0.04509882 0.14767908 -0.14104068
-0.022019729 0.111068025 0.056374162 -0.049144834 -0.12094849 -0.10400744 0.07817194 -0.11823751
0.015381306 -0.11393911 -0.0021269321 -0.14391558 -0.0686612 -0.1477012 -0.09939136 0.12712602
-0.04855787 0.10394262 -0.124996416 0.14127745 -0.1476377 0.12224911 -0.04735689 0.10488309
-0.06979756 -0.12057986 -0.15434645 -0.18019922 -0.018493718 0.06151821 0.06684359 0.07633186
0.07547534 -0.095045574 -0.11517214 -0.08940203 0.11244933 -0.15816864 0.13978653 -0.083571166
-0.16758919 0.10829119 -0.08900849 -0.15706074 0.06059551 -0.12882291 0.042426847 -0.14345756
-0.045387816 -0.081448734 -0.043230668 0.06491003 0.041857753 -0.1410992 0.09255081 0.050995566
0.08677008 -0.06597535 0.013641334 0.109824196 0.07625584 -0.014234514 -0.04069593 -0.02981386
-0.02838273 0.0154920425 0.013281792 0.12141873 0.016155856 -0.1337339 -0.03785397 -0.059163652
-0.35520744 0.088926844 -0.025037397 -0.12925103 0.019527867 -0.12663037 0.42257252 0.050581343
0.33911246 0.09994542 -0.07800818 -0.098242104 0.08796869 -0.025985675 0.074626476 -0.06936889
-0.10652826 -0.050498657 0.013384829 0.010216806 0.11477419 -0.06534992 -0.1488488 -0.15653484
-0.019911036 0.0031298113 0.060984243 -0.17918362 -0.09524036 0.022653934 -0.13060458 -0.11757752
-0.11460632 0.11472469 0.03460131 -0.13762625 -0.028804181 0.017135158 0.02424745 0.1466331
-0.012735285 0.033360753 0.022533705 0.0035998458 0.13842362 0.10923986 0.15801078 -0.10405536
0.13021907 -0.067340545 0.055314776 0.092521034 0.03925378 0.085180566 0.0792382 0.0071228608
0.08268397 0.21611133 0.19028051 -0.02660648 0.17132677 0.16174266 0.2423038 0.15236007
-0.059333794 0.14412086 0.07712382 0.18949558 0.07719465 0.20622958 -0.0035629377 0.15159386
0.053690337 0.072086215 0.07288484 -0.039368894 -0.107363746 0.13203444 -0.07831046 -0.8561787
00000000: f2a1 0dbd ac31 96bd 33a1 1f3d 3379 e33d
00000010: 333b 4c3d 2558 1d3d bb72 f5bc a1fa cfbd
00000020: d7fa d8bd 5e5a cdbd dfa6 20be de0d da3d
00000030: 6a84 953d 8836 fe3d 83d2 f7bc 1e1d 37be
00000040: b587 4dbd 5650 01bd 305b 453d 0237 883d
00000050: b00c ccbd c60b 2bbe 541b 15be 133c 063d
00000060: 34b9 6ebd 7d9f 05be 2066 1c3d d46c a33d
00000070: dc19 a4bd 55ef 823d 5ca4 833d 9e77 ba3d
00000080: 7640 c33a 88ad f63d 81de 6b3d 0f84 ea3d
00000090: b15c f1bc 2e2b aa3b 382c c1bd da91 e3bd
000000a0: c274 d43d d90b afbd c6cf 46be 42f4 213d
000000b0: 1928 3ebe ecc3 86be dec9 c0bd f41f 85bc
000000c0: 066e 7bbe 66ee 88bc 51f3 5dbd e74f 62be
000000d0: 4f5f 763d 1194 10bd 7dea 67bd d710 97bc
000000e0: 10fe 66be 570b 713d 0ea7 f63c a72c d5bd
000000f0: 6f3c 4dbd 04d9 59bd d02b 8f3d af86 483d
00000100: f47f b8bd 4092 1abd d15a 093e b82e 88bd
00000110: 1de5 ca3d 7cd5 2e3e 47b7 cebd 0eb8 5a3c
00000120: a339 cabd 9bb1 b0bb 1ba8 5f3c 1618 b13d
00000130: e91b 86bc 3528 e1bd 0437 33bd 2ceb 24be
00000140: 2a62 483d 7896 b63c 6599 97bd bdb1 603d
00000150: b21c fc3d 7efa 17bd 1e8f 54bd a0ce 693d
00000160: fc10 e6bd c342 04be bf56 d6bd 0661 30bd
00000170: 6039 6abd c0ae fc3c c891 7c3d 66c0 c93d
00000180: fe91 b23d c882 773d 56c9 c2bd a536 0d3e
00000190: 4710 99bd 8ab9 38bd 2f39 173e f86c 10be
000001a0: b862 b4bc a277 e33d 98e8 663d 184c 49bd
000001b0: d8b3 f7bd da01 d5bd 9c18 a03d 8226 f2bd
000001c0: e001 7c3c e858 e9bd 0064 0bbb 9b5e 13be
000001d0: 3e9e 8cbd fc3e 17be b38d cbbd 532d 023e
000001e0: 9ee4 46bd dedf d43d 1ffe ffbd 09ab 103e
000001f0: 562e 17be be5d fa3d 4cf9 41bd f2cc d63d
00000200: 06f2 8ebd 93f2 f6bd ff0c 1ebe 2586 38be
00000210: 2380 97bc 85fa 7b3d 4be5 883d e153 9c3d
00000220: d192 9a3d 41a7 c2bd 5fdf ebbd 6918 b7bd
00000230: d64b e63d f6f6 21be 3324 0f3e 5c27 abbd
00000240: 809c 2bbe c5c7 dd3d 154a b6bd 88d4 20be
00000250: ff32 783d 27ea 03be c6c7 2d3d 8ae6 12be
00000260: 93e8 39bd 98ce a6bd a412 31bd 8def 843d
00000270: 0973 2b3d 4f7c 10be 478b bd3d bae0 503d
00000280: 83b4 b13d 161e 87bd e77f 5f3c 82eb e03d
00000290: 062c 9c3d e137 69bc c7b0 26bd 323c f4bc
000002a0: e682 e8bc 56d2 7d3c e09b 593c 62aa f83d
000002b0: 4959 843c 8af1 08be c40c 1bbd 9655 72bd
000002c0: c0dd b5be 471f b63d 3a1b cdbc 625a 04be
000002d0: e8f8 9f3c 64ab 01be 6d5b d83e 622e 4f3d
000002e0: 26a0 ad3e 2fb0 cc3d c1c2 9fbd 2833 c9bd
000002f0: ee28 b43d e9df d4bc c4d5 983d 4711 8ebd
00000300: 7d2b dabd aed7 4ebd 0b4c 5b3c 6464 273c
00000310: bb0e eb3d 2ed6 85bd d26b 18be ab4a 20be
00000320: 781c a3bc 851d 4d3b 9dca 793d e97b 37be
00000330: 610d c3bd be94 b93c 35bd 05be 7ccc f0bd
00000340: b8b6 eabd c7f4 ea3d 1aba 0d3d e5ed 0cbe
00000350: bff6 ebbc 085f 8c3c 97a2 c63c fd26 163e
00000360: a8a7 50bc 49a5 083d 9b98 b83c 64eb 6b3b
00000370: ecbe 0d3e 26b9 df3d 94cd 213e fa1a d5bd
00000380: 2658 053e d7e9 89bd bf91 623d ab7b bd3d
00000390: 92c8 203d 2673 ae3d a347 a23d e366 e93b
000003a0: 3756 a93d 4a4c 5d3e e5d8 423e d5f5 d9bc
000003b0: 4970 2f3e de9f 253e 7d1e 783e 4704 1c3e
000003c0: fe07 73bd 6b94 133e 18f3 9d3d 210b 423e
000003d0: 3b18 9e3d d92d 533e 2d80 69bb 6c3b 1b3e
000003e0: 66ea 5b3d f0a1 933d a644 953d 4741 21bd
000003f0: 86e1 dbbd 0934 073e 3c61 a0bd 872e 5bbf

net.0.bias f4 [64]
-0.15887022 -0.15897447 -0.07664495 0.013345133 0.0041697808 0.20695406 0.1237035 -0.052255213
-0.039745063 -0.13889807 -0.11459238 0.18524972 -0.101496525 -0.07499238 8.291114e-06 -0.12903182
-0.15749998 -0.075050324 -0.10823811 -0.10752677 -0.15826873 0.14688386 -0.053077318 -0.098940015
0.11929597 0.025876403 0.08514323 -0.051900163 -0.04790043 -0.11004628 0.14117011 -0.12080824
-0.09500616 -0.056565855 0.13147028 -0.03759453 0.05331845 0.046177663 0.036880758 -0.13177603
-0.047581546 -0.072378054 -0.14226514 0.06718307 -0.052702516 -0.13613835 -0.10859532 0.20290343
0.028888918 0.11626728 0.1345515 -0.09909251 -0.025083402 0.10035186 0.009976443 0.05799271
0.21731128 -0.031089004 0.10622014 0.0024939738 0.05127671 -0.11276368 -0.06854304 0.07866579
00000000: e0ae 22be 34ca 22be 07f8 9cbd 8ba5 5a3c
00000010: a8a2 883b c4eb 533e 4358 fd3d 9009 56bd
00000020: b8cb 22bd 4c3b 0ebe 69af eabd 1ab2 3d3e
00000030: 69dd cfbd 9b95 99bd 101a 0b37 eb20 04be
00000040: ad47 21be fcb3 99bd f1ab ddbd ff36 dcbd
00000050: 3311 22be b968 163e 9a67 59bd 10a1 cabd
00000060: 7251 f43d c0fa d33c 935f ae3d 4495 54bd
00000070: 3e33 44bd f25f e1bd e68e 103e 4f6a f7bd
00000080: 9792 c2bd 99b1 67bd 25a0 063e b9fc 19bd
00000090: 7264 5a3d ca24 3d3d 4710 173d 4cf0 06be
000000a0: dee4 42bd f23a 94bd f4ad 11be 4797 893d
000000b0: 98de 57bd da67 0bbe 3967 debd ebc5 4f3e
000000c0: 74a8 ec3c 8a1d ee3d dec7 093e 04f1 cabd
000000d0: b57b cdbc 4785 cd3d 3c74 233c c489 6d3d
000000e0: d986 5e3e 5eae febc f289 d93d f071 233b
000000f0: 8707 523d a5f0 e6bd 4b60 8cbd 881b a13d

net.2.weight f4 [32, 64]
-0.037799664 -0.10801753 0.039956987 0.10908093 -0.096979454 -0.04287993 0.17076015 -0.045761116
-0.029883925 -0.031361595 0.009470043 0.08190897 -0.09311872 -0.012609899 0.0076192203 -0.001185965
-0.124429576 0.018481616 0.002665496 -0.046345137 0.095040016 -0.0027701706 -0.08604321 -0.19220805
-0.01928525 -0.026580278 0.1414423 -0.07056261 0.07187792 -0.110859394 -0.10939484 -0.06721497
0.026519168 -0.06526229 0.013265394 0.09104836 0.04922351 0.06512508 -0.021292645 0.057743896
-0.01905383 0.04585425 0.08978039 0.074466765 -0.10287375 0.09025709 0.08109462 0.084027134
-0.12213781 -0.08288933 -0.01595937 0.062670685 -0.023649337 -0.062426303 0.054505836 0.03324325
0.16235264 -0.077561475 -0.07060257 0.05272311 -0.112135746 0.17458415 0.037006017 -0.04218593
0.03268621 -0.10347797 0.069917366 0.038092587 -0.06605367 -0.103957064 0.017900145 0.008967126
-0.0819545 -0.012191907 -0.076126784 0.043400347 -0.014736038 -0.0082411915 -0.1001193 -0.005699426
0.038652096 0.035932682 -0.0008760989 0.00869674 -0.04088651 -0.017470092 0.10809497 0.029389614
-0.0015474771 0.092585094 0.11056651 0.022246033 0.03356029 -0.040770307 -0.023752533 0.04527198
-0.10729261 -0.1217105 0.017879596 0.061532304 -0.06499249 0.01385094 -0.0367619 -0.027876778
-0.08501336 0.076314725 0.101137 -0.026061127 0.019430414 -0.02251093 -0.10084123 -0.101856574
-0.10404645 0.038225062 -0.100127965 0.01635632 -0.04520343 -0.0690246 0.11046001 0.016859775
-0.078949444 -0.08295709 -0.08895373 -0.077792525 -0.048682325 0.08839108 -0.12747227 0.07929455
-0.10005403 -0.0069010784 0.054737404 0.1529923 -0.15480436 0.07814158 0.26558873 -0.25428247
-0.123840764 0.10888401 -0.07299174 -0.163949 0.13644949 -0.09800148 -0.2717444 -0.010148078
-0.09633878 0.02995548 0.1231703 -0.10841625 -0.018312573 0.036626086 -0.10062955 -0.09413011
-0.0022343216 -0.044035 0.06428016 0.029215515 0.08013974 0.06580609 -0.05065139 -0.14720227
-0.060859054 -0.09765384 -0.01587122 -0.077949345 -0.056305848 -0.015813462 -0.046609964 0.048824973
0.011817796 -0.21566246 0.05023375 0.12450834 0.11275279 -0.12354987 0.161681 0.045357727
-0.13537686 -0.068510674 0.018959794 -0.0035379925 -0.08049748 -0.015806425 0.12536743 0.030988414
0.17294957 0.1074495 -0.12708983 0.1040848 -0.12910603 -0.030538233 0.101280086 -0.18022616
0.0027618066 -0.10686327 0.019361898 0.090718545 0.06711377 0.0067260903 -0.015430862 -0.09812159
-0.082180314 0.015157908 -0.04854069 -0.01203887 0.106857345 -0.054213867 -0.042858504 0.07818264
-0.10643856 0.115448095 -0.07087079 0.009098901 -0.051935043 0.11965923 0.040968046 0.013846984
0.030359725 -0.06454084 0.024646644 0.033736072 0.05285956 0.12150431 0.032268558 -0.03747918
-0.10113197 -0.07671225 -0.05669483 -0.012553558 0.08569117 -0.12758672 -0.102063365 0.032349516
0.112716906 -0.053076804 0.090740174 -0.103439145 -0.10229606 0.008931117 0.0041014734 -0.09574344
0.021146027 -0.038380068 0.115710974 0.0019841024 0.07121828 0.054915186 -0.03803068 -0.13197973
-0.040604737 -0.11329137 0.05637772 -0.1353337 -0.0046325233 -0.03127577 0.06401023 -0.16199249
00000000: d2d3 1abd 4b38 ddbd f0a9 233d d365 df3d
00000010: 2a9d c6bd dea2 2fbd c0db 2e3e 0270 3bbd
00000020: 22cf f4bc 0475 00bd 3d28 1b3c e4bf a73d
00000030: 07b5 bebd c099 4ebc a7aa f93b 6272 9bba
00000040: efd4 febd c266 973c 9aaf 2e3b 66d4 3dbd
00000050: 57a4 c23d c08b 35bb 6c37 b0bd 30d2 44be
00000060: 1afc 9dbc e2be d9bc 40d6 103e 2183 90bd
00000070: bb34 933d 400a e3bd 670a e0bd 01a8 89bd
00000080: ba3e d93c 3ca8 85bd 1857 593c 9077 ba3d
00000090: 979e 493d 4c60 853d ea6d aebc dd84 6c3d
000000a0: c716 9cbc abd1 3b3d c8de b73d 0882 983d
000000b0: 79af d2bd b6d8 b83d f014 a63d 6b16 ac3d
000000c0: 6323 fabd e2c1 a9bd 3abd 82bc 7d59 803d
000000d0: 41bc c1bc b9b2 7fbd 8341 5f3d 132a 083d
000000e0: c53f 263e 8dd8 9ebd 1598 90bd 30f4 573d
000000f0: 6da7 e5bd 30c6 323e 9f93 173d 27cb 2cbd
00000100: fae1 053d 42ec d3bd d630 8f3d f906 1c3d
00000110: 2647 87bd 71e7 d4bd 53a3 923c daea 123c
00000120: c3d7 a7bd 90c0 47bc 5ce8 9bbd 90c4 313d
00000130: 6c6f 71bc 1006 07bc 590b cdbd 40c2 babb
00000140: a951 1e3d 262e 133d 00aa 65ba c57c 0e3c
00000150: 9d78 27bd 701d 8fbc e560 dd3d 7dc2 f03c
00000160: b7d4 caba 419d bd3d b270 e23d 503d b63c
00000170: 8476 093d c4fe 26bd ac94 c2bc 1d6f 393d
00000180: 3abc dbbd 5b43 f9bd 3b78 923c 4c09 7c3d
00000190: c81a 85bd 0eef 623c a593 16bd d75d e4bc
000001a0: 7c1b aebd e54a 9c3d ea20 cf3d 257e d5bc
000001b0: 882c 9f3c d868 b8bc d985 cebd 2e9a d0bd
000001c0: 4e16 d5bd e291 1c3d e40f cdbd b0fd 853c
000001d0: 3b27 39bd c55c 8dbd dc38 e23d 831d 8a3c
000001e0: 3fb0 a1bd 68e5 a9bd 602d b6bd b051 9fbd
000001f0: 1e67 47bd 6206 b53d 1788 02be 2e65 a23d
00000200: 21e9 ccbd 7122 e2bb 5434 603d 03aa 1c3e
00000210: 0985 1ebe b108 a03d 3ffb 873e 5031 82be
00000220: 3aa0 fdbd 94fe de3d b27c 95bd 3fe2 27be
00000230: 6ab9 0b3e 00b5 c8bd 1522 8bbe 2044 26bc
00000240: 444d c5bd 3265 f53c b640 fc3d 5709 debd
00000250: 4004 96bc 3c05 163d de16 cebd 4ac7 c0bd
00000260: b26d 12bb 0b5e 34bd 51a5 833d 6055 ef3c
00000270: 4e20 a43d 58c5 863d d577 4fbd 31bc 16be
00000280: 5847 79bd bdfe c7bd 5c04 82bc e8a3 9fbd
00000290: f6a0 66bd 3c8b 81bc 17ea 3ebd b2fc 473d
000002a0: 6e9f 413c 9fd6 5cbe e8c1 4d3d 3bfe fe3d
000002b0: efea e63d b707 fdbd b48f 253e 06c9 393d
000002c0: 3ba0 0abe 534f 8cbd 9251 9b3c aadd 67bb
000002d0: dddb a4bd 7a7c 81bc 5260 003e 6adb fd3c
000002e0: b119 313e 7c0e dc3d d623 02be 692a d53d
000002f0: 5f34 04be 512b fabc ef6b cf3d 358d 38be
00000300: 6dff 343b 21db dabd d89c 9e3c a5ca b93d
00000310: f272 893d 8966 dc3b bad1 7cbc f9f3 c8bd
00000320: 274e a8bd e058 783c 9ad2 46bd ae3e 45bc
00000330: 06d8 da3d 5c0f 5ebd 668c 2fbd 381e a03d
00000340: 76fc d9bd 0d70 ec3d b424 91bd 8f13 153c
00000350: d7b9 54bd e60f f53d 1cce 273d 76de 623c
00000360: f5b4 f83c fd2d 84bd c2e7 c93c d62e 0a3d
00000370: 4483 583d 40d7 f83d 092c 043d c583 19bd
00000380: 471e cfbd 501b 9dbd d738 68bd 70ad 4dbc
00000390: da7e af3d 18a6 02be 9906 d1bd ed80 043d
000003a0: 1fd8 e63d 1067 59bd fcd5 b93d e7d7 d3bd
000003b0: 9980 d1bd d253 123c a765 863b 2315 c4bd
000003c0: 6f3a ad3c 6b34 1dbd e0f9 ec3d b707 023b
000003d0: e4da 913d bfee 603d 0fc6 1bbd b225 07be
000003e0: 2751 26bd 4e05 e8bd 53ec 663d eb94 0abe
000003f0: 6ccc 97bb 061b 00bd cc17 833d 5ce1 25be

net.2.bias f4 [32]
0.14909111 -0.09880864 0.042804696 0.07532499 -0.07512006 0.090983175 0.0028181982 0.13473335
-0.0057899207 0.059235964 0.122613646 0.013251769 -0.013671352 0.14527328 -0.104106836 -0.058570594
-0.063700706 -0.040564377 -0.06662771 -0.08934715 0.057887368 -0.08613165 0.11456529 0.21223085
0.021539083 -0.09776047 0.0104240505 -0.07343985 0.050226916 -0.11290425 -0.0982039 0.09730689
00000000: 57ab 183e 2f5c cabd fa53 2f3d fd43 9a3d
00000010: 8cd8 99bd 6355 ba3d 85b1 383b 8af7 093e
00000020: 60b9 bdbb 69a1 723d dd1c fb3d f31d 593c
00000030: cefd 5fbc 85c2 143e f735 d5bd b8e7 6fbd
00000040: 8475 82bd d526 26bd 1c74 88bd a3fb b6bd
00000050: 4e1b 6d3d ca65 b0bd 35a1 ea3d 0b53 593e
00000060: bb72 b03c a436 c8bd a3c9 2a3c a267 96bd
00000070: bdba 4d3d 583a e7bd 201f c9bd d648 c73d

net.4.weight f4 [1, 32]
0.04005422 -0.10833621 0.012515567 -0.10551593 -0.018731492 0.034188975 -0.016192438 0.07785719
-0.14962676 0.10369274 0.022589887 0.037410997 -0.029578269 0.023892479 0.0005614612 0.011125795
-0.0024259675 -0.002069813 -0.1294247 -0.010055473 -0.06266286 -0.14478545 0.14195037 0.09020759
0.084794216 -0.01725079 0.014127981 -0.044223145 -0.13023272 -0.03368036 -0.11410273 -0.03036229
00000000: e50f 243d 60df ddbd 180e 4d3c bc18 d8bd
00000010: c972 99bc bd09 0c3d 01a6 84bc 9773 9f3d
00000020: c237 19be dc5c d43d 6d0e b93c 463c 193d
00000030: 204e f2bc 29ba c33c 062f 133a f748 363c
00000040: fbfc 1ebb b3a5 07bb e987 04be b6bf 24bc
00000050: 6355 80bd a342 14be 705b 113e c2be b83d
00000060: 97a8 ad3d 8751 8dbc 0c79 673c 5423 35bd
00000070: ba5b 05be 6bf4 09bd b1ae e9bd 56ba f8bc
