Trading_Model/trading_model_GBPUSD.pth (torch, 16650 bytes, 5 tensors)

net.0.weight f4 [64, 20]
0	0x3c5a4386	0.013321763
1	0xc06d4ec0	-3.7079315
2	0xbfa7b6fd	-1.3102719
3	0x3e41661e	0.18886611
4	0xbccafdba	-0.02477919
5	0xbda0d228	-0.07852584
6	0x3af99827	0.0019042537
7	0x3d3e4a4b	0.04645757
8	0xbf6732ca	-0.9031187
9	0x3e113cf7	0.14183412
10	0x3d2a52ac	0.04158275
11	0xbdd83511	-0.105569966
12	0xbd409c70	-0.04702419
13	0xbf224d54	-0.63399243
14	0xbf5ab216	-0.8542799
15	0xbe9b1f91	-0.3029752
16	0x3c8006ff	0.015628336
17	0x3da1850d	0.078867055
18	0x3de5de36	0.11224024
19	0x3d6e6854	0.058204964
20	0x3d015b82	0.03158141
21	0xbdea0a0f	-0.114277
22	0x3cb2eb01	0.021840574
23	0x3de9aede	0.114103064
24	0x3d8d6d31	0.06905592
25	0xbe4a45aa	-0.19753137
26	0xbddaff0e	-0.10693179
27	0x3d36b7e7	0.044608977
28	0xbdae7ab5	-0.08519498
29	0xbe8a73d9	-0.2704151
30	0x3c4b1484	0.012395028
31	0xbe65f96d	-0.2245843
32	0xbddf92e7	-0.10916691
33	0xbe4b1667	-0.19832765
34	0xbd98ddd7	-0.074641876
35	0xbe3bbd6d	-0.18333979
36	0x3e162f5e	0.14666507
37	0x3d7a1e64	0.06106414
38	0xbe4008d1	-0.18753363
39	0xbe88c46f	-0.26712367
40	0x3da58f86	0.080840155
41	0xbe8532fe	-0.26015466
42	0xbaac0a09	-0.0013125549
43	0xbdc8581f	-0.09782433
44	0xbb92998e	-0.0044738716
45	0xbe641b6f	-0.2227609
46	0x3d99bdd7	0.07506912
47	0xbd13ba3b	-0.036066275
48	0xbe8e6658	-0.27812457
49	0x3c03ac9f	0.008036762
50	0x3dd3d59d	0.10343478
51	0xbdc5e298	-0.0966236
52	0xbe49eef4	-0.1972006
53	0xbc3854ce	-0.011250688
54	0x3e429a37	0.19004141
55	0xbe1f19b7	-0.15537153
56	0xbe271dbb	-0.16319935
57	0x3d8f5170	0.06997955
58	0x3dbbd89d	0.09172175
59	0x3de45b51	0.1115023
60	0xbe3ef1b2	-0.18646887
61	0xbdc43455	-0.09580294
62	0x3ce969e9	0.028492885
63	0xbea1bd5f	-0.3158979
64	0xbea37d53	-0.31931552
65	0xbba4627f	-0.0050166245
66	0xbe9cbc47	-0.30612394
67	0xbe8e104c	-0.2774681
68	0xbe655f30	-0.22399592
69	0xbe981a86	-0.29707736
70	0x3cc34415	0.023836175
71	0x3da23af5	0.079214014
72	0xbe9a8a11	-0.3018346
73	0xbe5d2d43	-0.21599297
74	0x3d146c1e	0.03623592
75	0xbe347140	-0.17621326
76	0xbeb6b536	-0.35685128
77	0xbedae515	-0.427529
78	0xbe454bfa	-0.19267264
79	0x3e29b573	0.16573124
80	0xbc5d9731	-0.013524816
81	0x3e320ac6	0.17386922
82	0xbd82e004	-0.06390384
83	0xbe5c0023	-0.21484427
84	0xbd9c4677	-0.076306276
85	0x3e01a3fb	0.1266021
86	0xbd9228da	-0.07136698
87	0x3e39d917	0.1814922
88	0xbe60a616	-0.21938357
89	0xbe13fb5a	-0.14451352
90	0xbcf5d3c9	-0.030008214
91	0x3e1a0713	0.15041761
92	0xbe05cd8d	-0.13066693
93	0xbdfec109	-0.12439162
94	0xbd3e5b5a	-0.04647384
95	0x3dba61fb	0.091007195
96	0xbac73078	-0.001519694
97	0xbe878f9c	-0.26476753
98	0xbe40b421	-0.18818714
99	0x3de29a7a	0.1106462
100	0x3e04e573	0.12978153
101	0xbe481a67	-0.19541322
102	0xbe35d2a1	-0.1775613
103	0xbe83ba62	-0.25728136
104	0x3db635ca	0.08896978
105	0xbe8c806a	-0.27441722
106	0xbea8b490	-0.32950258
107	0xbe9a1736	-0.30095834
108	0x3c76b6cf	0.015058233
109	0xbec64b1a	-0.38729173
110	0xbdbc3fd3	-0.09191861
111	0xbd225060	-0.039627433
112	0xbdb1c547	-0.08680206
113	0x3e231383	0.15925412
114	0x3e177444	0.14790446
115	0xbdfd7515	-0.12375847
116	0x3dd0f647	0.10203224
117	0x3de7b64e	0.11314069
118	0xbe3cca47	-0.18436538
119	0x3d29daf9	0.041468594
120	0xbd26947c	-0.04066895
121	0x3dbb9a83	0.0916033
122	0xbe82a9c8	-0.25520158
123	0xbd9ae763	-0.07563665
124	0xbcacaff5	-0.021079997
125	0x3dd533b7	0.104102544
126	0xbc3d583e	-0.011556683
127	0xbe03e76f	-0.12881254
128	0x3e40d650	0.18831754
129	0x3dee5eea	0.11639197
130	0x3d4d8184	0.050172344
131	0xbe8d5cd1	-0.27609876
132	0x3c08398e	0.008314503
133	0xbd1ccd9c	-0.038282022
134	0xbceae259	-0.028672384
135	0xbe074087	-0.13208209
136	0x3d47721e	0.048692815
137	0xbdfa9344	-0.1223512
138	0xbdaa3626	-0.08311109
139	0xbe7d693b	-0.24747173
140	0x3c0a09a5	0.008425151
141	0x3ded834c	0.115973085
142	0x3cb9c4e9	0.022676902
143	0xbe164a8f	-0.1467688
144	0xbe532d8f	-0.20622848
145	0x3dca12ea	0.09866889
146	0xbe4aa83b	-0.19790737
147	0xbd60870b	-0.054816287
148	0xbd178955	-0.036996204
149	0x3c36a24a	0.011147091
150	0x3e15a894	0.14615089
151	0x3d610ce7	0.054943945
152	0x3ea0047a	0.31253415
153	0xbda25f40	-0.07928324
154	0xbe3d48e6	-0.1848484
155	0x3e30d74b	0.17269628
156	0xbe88a421	-0.2668772
157	0xbe569133	-0.20953827
158	0xbe0c494d	-0.13699837
159	0x3e242dd2	0.16033104
160	0xbde0f8f8	-0.10984987
161	0xbdbd0bb8	-0.09230751
162	0xbd3bef6b	-0.045882624
163	0xbdd6cd1f	-0.104883425
164	0xbe8c8ee1	-0.27452758
165	0x3daa9535	0.0832924
166	0x3d5ef0e8	0.054428965
167	0xbe2a1b1d	-0.16611905
168	0x3d3e40ee	0.04644864
169	0xbce0484d	-0.027378226
170	0xbd80d674	-0.06290904
171	0xbe064ee2	-0.13116029
172	0x3ded8c01	0.11598969
173	0xbc53b2ab	-0.012921016
174	0xbd7612d0	-0.060076535
175	0x3d9dfc1c	0.07714102
176	0xbe1a85e0	-0.15090132
177	0xbdf249eb	-0.11830505
178	0xbe4abc4d	-0.19798394
179	0xbd89352f	-0.06699597
180	0xbe4804ba	-0.19533053
181	0x3d713389	0.05888704
182	0xbd46f5ef	-0.048574384
183	0x3d013302	0.031542785
184	0xbe4362b8	-0.19080627
185	0xbdcacebf	-0.09902715
186	0xbcd5415c	-0.026032142
187	0xbc97462c	-0.018466078
188	0x3d7c2a01	0.061563496
189	0xbe59a319	-0.21253623
190	0xbe15c2d5	-0.14625104
191	0x3d84f22e	0.064915046
192	0x3d9e2c32	0.07723273
193	0xbcd473ae	-0.025934067
194	0x3e3dbbd2	0.18528679
195	0x3e53cab1	0.2068279
196	0xbdb7c286	-0.08972649
197	0x3cf4c04a	0.029876847
198	0xbe477082	-0.19476512
199	0xbd84c53e	-0.064829335
200	0xbe3d573b	-0.18490307
201	0xbe814082	-0.25244528
202	0xbe2e6b9c	-0.17033237
203	0xbdf90391	-0.12158883
204	0xbe86278a	-0.2620204
205	0xbd222a17	-0.03959092
206	0xbeb6b7bb	-0.3568705
207	0xbea8711d	-0.328988
208	0x3eb10c38	0.34579635
209	0x3d169dc2	0.036771543
210	0x3d9ddb4f	0.077078454
211	0xbdfd0a6e	-0.12355505
212	0xbe82bf9c	-0.2553681
213	0x3d7c7455	0.06163438
214	0xbe85b49d	-0.2611436
215	0x3e8a8510	0.27054644
216	0xbeb04305	-0.34426132
217	0xbd392027	-0.04519668
218	0xbce4fba4	-0.027952023
219	0xbe4c866b	-0.19973151
220	0xbd60185f	-0.054710742
221	0x3de8362a	0.11338456
222	0xbe745dbf	-0.23863886
223	0x3c4ffdc8	0.0126947835
224	0xbe0c989c	-0.13730091
225	0xbe50ad32	-0.20378569
226	0x3d1c8c9d	0.038220037
227	0x3da489d5	0.08034102
228	0xbdbed473	-0.09317865
229	0x3dad30e5	0.084565915
230	0xbe4f306a	-0.20233312
231	0xbe0f1e51	-0.13976409
232	0x3e0e4380	0.13892937
233	0x3d1c6ee8	0.038191706
234	0x3d1c6eb2	0.038191505
235	0x3d0f98b2	0.03505773
236	0x3da5b525	0.08091191
237	0x3dd455f1	0.103679545
238	0xbd1418ae	-0.03615635
239	0xbe7a4c46	-0.24443159
240	0x3e6c4df3	0.2307661
241	0xbbf3ea8e	-0.0074437326
242	0xbea08d8f	-0.31358
243	0xbe7e85d9	-0.24855746
244	0x3bbd3d21	0.0057751094
245	0xbe876c15	-0.26449648
246	0xbe3b061b	-0.18264048
247	0xbd93911b	-0.07205411
248	0xbe14bac9	-0.14524378
249	0xbe2788d6	-0.16360793
250	0xbe01fd46	-0.12694272
251	0xbe3e65fc	-0.18593591
252	0xbbcecc69	-0.0063109887
253	0xbe380482	-0.1797047
254	0x3e1bf5e6	0.15230522
255	0x3d5d25f4	0.053991273

net.0.bias f4 [64]
0	0x3eb0f89c	0.34564674
1	0x3d664237	0.05621549
2	0xbe1d23c1	-0.1534567
3	0x3e5fe9e8	0.21866572
4	0xbe100651	-0.1406491
5	0xbdb425f1	-0.08796299
6	0x3b6b49a6	0.0035902052
7	0x3e9b9c24	0.30392563
8	0x3dad1ce1	0.08452774
9	0xbe3109d7	-0.1728891
10	0x3e4b84ff	0.19874953
11	0xbe52b97c	-0.20578569
12	0xbe59ce90	-0.21270204
13	0x3e91359e	0.2836122
14	0xbd43129f	-0.04762518
15	0x3e013b6a	0.12620321
16	0x3da7b684	0.08189109
17	0x3d0bb447	0.034107473
18	0xbc916c74	-0.01775191
19	0x3ea6f80e	0.32611126
20	0x3dfc8b4c	0.12331256
21	0xbe4498e3	-0.19198947
22	0x3d733e85	0.059385795
23	0x3e044677	0.12917505
24	0xbe1d4bfe	-0.1536102
25	0x3e2d8ab2	0.1694744
26	0x3d3886b5	0.04505034
27	0x3e18be58	0.1491636
28	0xbd39413a	-0.04522822
29	0x3e032448	0.12806809
30	0xbe1baa03	-0.15201573
31	0xbe5bfa14	-0.21482116
32	0xbe1046ba	-0.1408948
33	0x3d025fb3	0.031829547
34	0xbd89874a	-0.067152575
35	0x3d9c0137	0.07617419
36	0xbb293a45	-0.0025822085
37	0xbd4e5908	-0.050377876
38	0xbd29f692	-0.041494913
39	0xbc728571	-0.014802323
40	0xbdba4d06	-0.09096722
41	0xbea1b60f	-0.31584212
42	0xbe67e221	-0.22644855
43	0xbe0722c1	-0.13196851
44	0xbcd1d274	-0.025613047
45	0x3c8199c0	0.015820384
46	0xbda28aae	-0.07936607
47	0x3d1a5d0a	0.037686385
48	0x3e4afcf6	0.1982306
49	0x3dab3fae	0.08361755
50	0xbdec6531	-0.11542738
51	0xbce14477	-0.027498467
52	0x3e960991	0.29304174
53	0x3e1bd150	0.15216565
54	0x3ca76215	0.020432511
55	0xbe53a7f6	-0.20669541
56	0xbe088f25	-0.13335855
57	0x3dd70fdc	0.10501072
58	0xbe42ff90	-0.19042802
59	0x3e19d772	0.15023592
60	0xbdda6ddc	-0.10665485
61	0x3ec2e419	0.3806465
62	0x3e302584	0.17201811
63	0xbe456294	-0.19275886

net.2.weight f4 [32, 64]
0	0xbd79e3a8	-0.061008126
1	0xbaa4b280	-0.0012565404
2	0x3dc1b702	0.09458734
3	0x3d96abe6	0.07357006
4	0x3cf20e70	0.0295479
5	0xbdb1c29a	-0.086796954
6	0x3d11bd84	0.035581127
7	0xbd846712	-0.064649716
8	0xbd218f8c	-0.039443538
9	0xbdaebfd0	-0.08532679
10	0xbd880c7e	-0.06643008
11	0x3dd248a4	0.10267761
12	0x3d59418c	0.053041026
13	0xbdf41e82	-0.119198814
14	0x3d85c492	0.065316334
15	0xbbd0e120	-0.0063744932
16	0x3d3546b8	0.044256896
17	0xbd18d284	-0.03731014
18	0xbdc75f20	-0.097349405
19	0xbde7b47a	-0.1131372
20	0xbd7f6104	-0.06234838
21	0xbdcfdf1a	-0.10149975
22	0xbde41ae2	-0.1113794
23	0x3cb93060	0.022606075
24	0x3d444270	0.047914922
25	0xbde7b1c2	-0.113132015
26	0x3da316cc	0.079633325
27	0x3d0e5058	0.03474459
28	0xbc52bae0	-0.012861937
29	0xbd261ee4	-0.040556803
30	0x3c92adb0	0.017905086
31	0x3c9d5cf8	0.01920937
32	0x3de5b9b0	0.11217058
33	0xbde14256	-0.10998981
34	0xbb6c2740	-0.0036034137
35	0x3cf3de10	0.029768974
36	0x3d9eaf6c	0.07748303
37	0xbd9c616e	-0.07635771
38	0xbdbb308e	-0.091401204
39	0xbd851620	-0.06498361
40	0xbd30594c	-0.04305391
41	0xbd5f0070	-0.054443777
42	0x3da6d058	0.08145207
43	0x3d41f084	0.047348514
44	0xbc157250	-0.0091214925
45	0x3d3e6f70	0.046492994
46	0xbda2bf28	-0.079466164
47	0xbdfed8ec	-0.12443718
48	0x3dc04c20	0.0938952
49	0xbc8de788	-0.017322317
50	0xbd8f2fde	-0.06991552
51	0x3d074f38	0.033034533
52	0xbdba9404	-0.09110263
53	0xbacdb480	-0.0015694052
54	0xbdc9601e	-0.09832786
55	0x3d8b6d62	0.068079725
56	0xbdeb7552	-0.114969864
57	0xbc91bac8	-0.01778926
58	0x3dc9d922	0.09855868
59	0xbdb911a0	-0.09036565
60	0x3c3f2200	0.011665821
61	0x3dbe8cf4	0.093042284
62	0xbd707144	-0.05870177
63	0xbd04854c	-0.032353684
64	0xbe0c3c82	-0.13694957
65	0xbaeff8f4	-0.0018308447
66	0x3dd8e5f2	0.105907336
67	0xbd3bb428	-0.045826107
68	0x3cbd914c	0.023140572
69	0xbcae75c0	-0.021296382
70	0x3db2a736	0.08723299
71	0xbd6004e8	-0.05469218
72	0xbda7fb36	-0.082022116
73	0xbd17703c	-0.03697227
74	0xbde96f46	-0.11398177
75	0x3ccdd76f	0.02512714
76	0x3d3544bb	0.044255
77	0x3d699334	0.05702515
78	0xbc8d1600	-0.017222404
79	0x3c948fc1	0.018134953
80	0xbd9dec20	-0.07711053
81	0xbcf26516	-0.029589217
82	0xbca8cc47	-0.02060522
83	0xbd3d40cd	-0.046204377
84	0x3d99870d	0.07496462
85	0xbc1377b9	-0.009000712
86	0xbc9e06c4	-0.019290335
87	0x3dae0ef3	0.08498945
88	0x3cf9e448	0.03050436
89	0xbd144cc1	-0.03620601
90	0x3cbc53f4	0.02298925
91	0x3d3bf4cd	0.045887757
92	0xbd7e4499	-0.06207714
93	0x3cb10062	0.021606628
94	0x3da99f17	0.08282297
95	0x3d464469	0.048405085
96	0x3da2e348	0.07953507
97	0xbd52a3b7	-0.051425662
98	0xba6d783f	-0.00090587506
99	0x3d161211	0.036638323
100	0xbd39cdcc	-0.04536228
101	0xbdd0f20e	-0.10202418
102	0xbd9ed632	-0.07755698
103	0xbd370a9a	-0.044687845
104	0xbd641668	-0.05568543
105	0xbd9b0162	-0.07568623
106	0x3d0a72e4	0.033800974
107	0x3db5bf29	0.088743515
108	0x3dc325f0	0.095287204
109	0x3ac86300	0.0015288293
110	0xbe0bbce6	-0.13646278
111	0x3b0f7f2f	0.0021895876
112	0xbde3dc39	-0.111259885
113	0xbd8bcf04	-0.068265945
114	0x3ddb5fd0	0.10711634
115	0x3d994adc	0.074849814
116	0xbc72ab68	-0.014811374
117	0xbdc63c53	-0.09679475
118	0x3da75cff	0.081720345
119	0x3d90614c	0.07049808
120	0xbd703d54	-0.058652237
121	0xbb978351	-0.0046238084
122	0x3d861b0f	0.0654813
123	0x3c8d0b69	0.017217355
124	0x3d616ce8	0.0550355
125	0xbdea04e7	-0.11426716
126	0xbc12b076	-0.008953204
127	0x3daf07e4	0.08546427
128	0x3de4a14d	0.11163578
129	0xbbd1dbef	-0.006404392
130	0x3e10fe1b	0.14159434
131	0xbe0c5581	-0.13704492
132	0x3e494c66	0.1965805
133	0x3e5a30c2	0.21307662
134	0x3da301c6	0.07959323
135	0x3e79d32e	0.24396965
136	0x3d9820ed	0.07428155
137	0x3c609268	0.013706781
138	0x3e99eaa8	0.3006184
139	0xbe362a74	-0.17789632
140	0x3eb3a724	0.35088456
141	0xbc7c447e	-0.015397189
142	0x3d9275d6	0.07151382
143	0x3e3a354c	0.18184394
144	0xbd8d0125	-0.06884984
145	0x3e1a162d	0.15047522
146	0x3c5da735	0.013528635
147	0xbd5f7b9e	-0.05456125
148	0xbd59f0a9	-0.053208027
149	0xbdc2ed69	-0.09517939
150	0xbcc77a9f	-0.024350462
151	0x3dad10a7	0.08450442
152	0xbdfcc078	-0.12341398
153	0xbd0d8ae1	-0.034556273
154	0x3e089471	0.13337876
155	0x3de3f89f	0.11131405
156	0x3d6f5e71	0.058439676
157	0x3ba51636	0.005038048
158	0x3ddcb34c	0.10776386
159	0xbd1abc2b	-0.037777107
160	0xbdb2e6fe	-0.087354645
161	0xbec294f9	-0.38004282
162	0x3e52d657	0.20589577
163	0x3e00c899	0.12576522
164	0x3e02e504	0.12782675
165	0xbbe23ee0	-0.006904468
166	0xbd2cbaec	-0.04217045
167	0x3d62442e	0.055240802
168	0xbeba293c	-0.36359584
169	0x3d85de5c	0.06536552
170	0xbda37a8e	-0.0798236
171	0x3d314001	0.04327393
172	0xbc2908b5	-0.010317017
173	0x3c3698e1	0.011144848
174	0x3d674281	0.056459907
175	0x3e3f3300	0.18671799
176	0x3eaa511b	0.33265004
177	0xbd97005f	-0.07373118
178	0xbb1c7503	-0.0023873455
179	0x3c91867d	0.017764324
180	0x3ea3984f	0.3195214
181	0x3e787a64	0.24265438
182	0x3ccae03b	0.024765125
183	0x3d865f31	0.06561125
184	0xbde64e3b	-0.1124539
185	0x3e08c751	0.13357283
186	0xbaf22a74	-0.0018475787
187	0x3df9fc2f	0.12206303
188	0x3db9df81	0.09075833
189	0x3ec652fb	0.38735184
190	0x3e26bae4	0.1628223
191	0xbd9a6990	-0.07539666
192	0xbdbdb3c4	-0.09262803
193	0x3dfd1e46	0.1235929
194	0x3ca67b70	0.020322531
195	0xbd328ef0	-0.043593347
196	0x3d668070	0.05627483
197	0xbd023ca8	-0.031796128
198	0x3d097030	0.033554256
199	0xbdbade64	-0.09124449
200	0xbc6d5a50	-0.014486864
201	0xbcd06250	-0.025437504
202	0x3d7a3f14	0.061095312
203	0x3d632084	0.05545093
204	0x3d537ffc	0.051635727
205	0xbd8c757c	-0.06858346
206	0x3db5ae1c	0.08871099
207	0xbda25d4a	-0.0792795
208	0x3da32570	0.07966125
209	0x3c97a708	0.018512264
210	0xbd03cc50	-0.03217727
211	0xbb9a6320	-0.0047115237
212	0xbde33d3e	-0.110956654
213	0x3d5422b0	0.051790893
214	0xbddf9f78	-0.10919088
215	0xbd30cf20	-0.04316628
216	0xbd45b0f4	-0.04826446
217	0xbdc87f54	-0.09789911
218	0xbdff0014	-0.12451187
219	0x3dd45a54	0.10368791
220	0x3cbe6270	0.023240298
221	0x3d5c80ec	0.053833887
222	0x3d6ae37c	0.057345852
223	0xbdcbf346	-0.0995851
224	0xbdbc87bc	-0.09205577
225	0xbd9e7928	-0.077379525
226	0xbce45218	-0.027871177
227	0x3d5d2d80	0.05399847
228	0x3d965e20	0.07342172
229	0x3d65354c	0.05595903
230	0xbdb97dda	-0.090572074
231	0x3da5967c	0.08085343
232	0x3db3220e	0.0874673
233	0xbd978dfe	-0.0740013
234	0x3d89651c	0.06708738
235	0xbdb6a5fa	-0.08918376
236	0x3d749514	0.059712484
237	0x3dbbc2b0	0.09167993
238	0x3ca10898	0.019657418
239	0xbd564380	-0.052310467
240	0x3d860126	0.06543188
241	0x3dd73c18	0.10509509
242	0x3db173ae	0.08664642
243	0x3c8027e8	0.015644029
244	0xbdd90efe	-0.10598563
245	0x3d38117c	0.04493855
246	0xbdbb7b36	-0.0915436
247	0x3de8fccc	0.11376342
248	0xbc22e6b0	-0.0099426955
249	0xbd8b42ca	-0.067998484
250	0x3d1d4a84	0.03840114
251	0x3ca76e88	0.020438448
252	0x3d982382	0.074286476
253	0xbd36d720	-0.044638753
254	0x3d48a100	0.048981667
255	0x3be7de80	0.0070760846

net.2.bias f4 [32]
0	0xbd90a806	-0.07063298
1	0xbd70ba9c	-0.058771715
2	0xbdf52468	-0.119698346
3	0xbdda269e	-0.10651897
4	0xbca0d354	-0.01963202
5	0xbd16db6c	-0.03683035
6	0xbd8661f8	-0.06561655
7	0xbe1b8b31	-0.15189816
8	0xbd55c489	-0.052189384
9	0xbe05b258	-0.13056314
10	0xbd28e988	-0.041238338
11	0xbc52c1b9	-0.01286357
12	0xbdce55c6	-0.10074954
13	0xbd7ac8f5	-0.061226804
14	0x3da7d024	0.081939965
15	0x3d334f26	0.043776654
16	0x3c92a197	0.017899318
17	0xbdb1e9a8	-0.086871445
18	0x3eb4b67e	0.3529548
19	0x3e58080f	0.21096824
20	0xbbec2063	-0.0072060092
21	0x3e4b3418	0.19844091
22	0xbe19fb95	-0.15037377
23	0xbd987d33	-0.07445755
24	0x3e069f81	0.13146783
25	0xbdea3d61	-0.11437488
26	0xbd396a13	-0.045267176
27	0xbdddc698	-0.108288944
28	0xbd546027	-0.05184951
29	0xbdadcf0a	-0.08486755
30	0x3ea086c0	0.31352806
31	0xbd84666b	-0.06464847

net.4.weight f4 [1, 32]
0	0xbc826768	-0.015918449
1	0xbe1e57d5	-0.15463193
2	0xbd3dd5fa	-0.046346642
3	0xbd721d3e	-0.05910992
4	0xbb98951e	-0.004656448
5	0xbca1c851	-0.019748839
6	0xbdd85fc3	-0.1056514
7	0xbcb1a788	-0.02168633
8	0xbd878fbf	-0.06619214
9	0x3ca51274	0.0201504
10	0xbd59e93e	-0.053200953
11	0xbc42c79b	-0.01188841
12	0x3de0532a	0.10953362
13	0x3bc1ce3f	0.005914479
14	0xbe04b70b	-0.1296045
15	0x3b8e5744	0.004343899
16	0xbcb6a3a3	-0.022294825
17	0xbc2394e0	-0.009984225
18	0x3e632f3e	0.2218599
19	0x3e1fe3da	0.15614262
20	0xbe190c63	-0.14946131
21	0x3dc44b24	0.095846444
22	0xbdd07f6b	-0.10180553
23	0x3e93f6fc	0.28899372
24	0x3d016829	0.031593475
25	0x3d738cb7	0.059460368
26	0xbc049fb7	-0.00809472
27	0xbd809ea6	-0.0628026
28	0xbc9b4318	-0.018952891
29	0xbc57d0e0	-0.013172358
30	0x3e325d37	0.17418371
31	0xbc4935c1	-0.012280882
