Trading_Model/trading_model_EURUSD.pth (torch, 16650 bytes, 5 tensors)

net.0.weight f4 [64, 20]
-0.34804255 0.022522267 0.05171319 -0.11820986 -0.16181841 -0.1854387 0.2706307 -0.118116006
0.45801696 0.0030248757 -0.12604512 0.21443912 0.07890725 0.46174514 0.12826252 -0.5367159
0.21957979 0.122819014 -0.092514396 0.051291786 -0.08012619 -0.14282829 -0.19290784 0.025519587
0.060713816 -0.2518908 -0.19914153 -0.20625453 0.16062433 0.114950225 0.14797407 0.1538711
-0.23625815 0.11530897 0.13449903 0.063662596 -0.2185874 -0.30773446 0.011569758 -0.037000157
-0.17753996 -0.09286219 -0.18352991 -0.20661215 0.034551132 -0.07080656 -0.16448955 -0.090486094
-0.31216368 0.011545569 0.12473099 -0.19930425 -0.1382921 -0.26515576 -0.2796424 -0.034440942
-0.015316216 -0.066117264 -0.29944766 -0.06243681 -0.16101804 -0.027127938 0.16185522 -0.15796456
-0.09720111 0.056469183 -0.12741438 0.19779278 0.12062211 -0.21091454 -0.083961524 -0.04906946
-0.15864338 0.051674195 0.05358746 -0.16420418 -0.05621679 0.09141929 -0.22220623 -0.11202235
0.020014457 -0.29008386 0.003728314 -0.18526402 0.065397516 0.08071587 0.034102384 -0.04543168
-1.536825 -0.11836079 -0.046039987 0.20495702 0.0030446725 -1.0340427 -0.1928226 0.33412516
-0.4493283 0.054961883 -0.14022742 -0.0033221934 -0.0025488974 -0.035805732 -0.23788579 0.105671085
0.125211 -0.2649033 -0.036257923 0.08757718 -0.03275566 0.001777584 0.12616129 0.048804827
0.005162692 -0.12326891 -0.07552203 -0.2031179 0.016784329 -0.2902241 -0.080041505 0.0037998694
-0.10608404 -0.17967814 -0.11565219 -0.18610439 -0.05855206 -0.025395181 0.025085902 -0.020789983
-0.083818436 -0.20847699 -0.104651645 -0.069343135 -0.26546767 -0.10843278 0.03899174 -0.023086958
-0.07380727 -0.13725096 0.058622595 -0.023249546 0.08432284 -0.45857745 -0.3265946 0.019977815
-0.008286081 -0.049199108 0.015197432 0.08495455 -0.2937498 -0.054671723 -0.24274543 0.11337763
-0.10668449 -0.4535135 -0.053263288 -0.1571811 0.0479103 0.0026825285 -0.11135167 -0.043074768
0.066350326 -0.017078696 -0.1576978 -0.22555979 -0.10241829 -0.20321271 0.043114755 -0.24099839
-0.23735198 -0.11999083 -0.21079907 -0.12198112 -0.23627555 -0.12820087 -0.13175988 -0.35386348
-0.15248491 0.05875988 -0.037230823 -0.1320705 -0.03735179 0.15856151 -0.19938612 0.03206616
0.11104195 0.14870048 0.10415927 0.057707805 0.022985607 -0.013717453 -0.21562375 -0.1409396
-0.019374056 -0.057339422 0.16427676 -0.12018719 -0.25252768 -0.2251154 0.06759394 -0.18616617
-0.15198511 -0.106224425 -0.19293472 -0.196918 -0.04116839 -0.09260142 0.10504249 -0.16237125
0.124206185 -0.046316072 0.019132644 -0.033944085 -0.22350116 -0.07753502 0.054083556 -0.211508
-0.08169803 -0.0036452413 -0.16514775 -0.17538312 -0.2014737 0.015192747 -0.044541657 -0.09876896
-0.084911585 -0.13462585 0.17571196 -0.07846689 -0.09974377 -0.038592175 -0.051956445 0.09376007
-0.055262163 0.04681608 -0.085856915 -0.21828663 0.13820222 0.042482376 -0.13817155 -0.15158075
-0.022902166 -0.024235768 0.013072008 -0.24416508 -0.039095175 0.008454834 -0.1470981 -0.017172365
-0.00892977 0.17075028 0.189459 -0.06868131 0.18635383 -0.19099282 -0.2861383 0.23517837
00000000: a232 b2be 9e80 b83c 36d1 533d 0318 f2bd
00000010: bab3 25be a4e3 3dbe 1b90 8a3e cee6 f1bd
00000020: 3381 ea3e fe3c 463b f911 01be ee95 5b3e
00000030: 209a a13d dc69 ec3e 4057 033e 3766 09bf
00000040: 86d9 603e 8988 fb3d 3078 bdbd 5617 523d
00000050: 3319 a4bd 9441 12be a289 45be 740e d13c
00000060: 0daf 783d d5f7 80be c2eb 4bbe 6334 53be
00000070: b47a 243e 066b eb3d 8486 173e 6390 1d3e
00000080: a8ed 71be 1c27 ec3d 1dba 093e 8961 823d
00000090: 60d5 5fbe 5f8f 9dbe 158f 3d3c 7a8d 17bd
000000a0: 09cd 35be 882e bebd 44ef 3bbe 2392 53be
000000b0: 7d85 0d3d 0803 91bd f36f 28be c650 b9bd
000000c0: ebd3 9fbe a029 3d3c f672 ff3d 6a16 4cbe
000000d0: 729c 0dbe 7fc2 87be 4a2d 8fbe f211 0dbd
000000e0: def0 7abc 7d68 87bd 3451 99be bebd 7fbd
000000f0: eae1 24be 693b debc 60bd 253e 76c1 21be
00000100: 6011 c7bd 3b4c 673d ea78 02be 318a 4a3e
00000110: ba08 f73d fbf9 57be 05f4 abbd 0ffd 48bd
00000120: 6973 22be 52a8 533d 867e 5b3d 2425 28be
00000130: 9443 66bd 093a bb3d 088a 63be f96b e5bd
00000140: 5cf5 a33c df85 94be bb56 743b dab5 3dbe
00000150: 22ef 853d 5d4e a53d f1ae 0b3d 9216 3abd
00000160: aeb6 c4bf 2467 f2bd 6d94 3cbd 41e0 513e
00000170: 2189 473b 835b 84bf 4a73 45be 7412 ab3e
00000180: 5c0e e6be b61f 613d c797 0fbe 28b9 59bb
00000190: 670b 27bb 08a9 12bd 5598 73be 156a d83d
000001a0: 5037 003e 68a1 87be 3083 14bd aa5b b33d
000001b0: cd2a 06bd d2fd e83a 6d30 013e 92e7 473d
000001c0: cd2b a93b 6974 fcbd 4bab 9abd 24fe 4fbe
000001d0: 4a7f 893c 4198 94be cdec a3bd 3b07 793b
000001e0: 9742 d9bd 8cfd 37be 0edb ecbd 2692 3ebe
000001f0: 49d4 6fbd 8e09 d0bc f380 cd3c c14f aabc
00000200: 00a9 abbd fe7a 55be 9a53 d6bd c603 8ebd
00000210: 61eb 87be 0112 debd ceb5 1f3d dc20 bdbc
00000220: 4428 97bd 848b 0cbe 3f1e 703d d575 bebc
00000230: 74b1 ac3d aaca eabe 6837 a7be 84a8 a33c
00000240: 58c2 07bc 0185 49bd a6fe 783c a7fc ad3d
00000250: 6066 96be 75ef 5fbd 4292 78be 8832 e83d
00000260: 667d dabd ec32 e8be 9b2a 5abd 15f4 20be
00000270: 973d 443d 5ccd 2f3b 580c e4bd 2b6f 30bd
00000280: aee2 873d 9fe8 8bbc 887b 21be 25f9 66be
00000290: aec0 d1bd fe16 50be 1999 303d 48c8 76be
000002a0: 660c 73be c1bd f5bd b6db 57be 3dd1 f9bd
000002b0: 38f2 71be 1747 03be 10ec 06be 982d b5be
000002c0: 0125 1cbe 33ae 703d 597f 18bd 7d3d 07be
000002d0: 31fe 18bd f35d 223e e02b 4cbe ce57 033d
000002e0: f669 e33d f044 183e 7551 d53d 055f 6c3d
000002f0: 504c bc3c 2bbf 60bc 79cc 5cbe 7852 10be
00000300: 57b6 9ebc bedc 6abd 2b38 283e b424 f6bd
00000310: 4f4b 81be a784 66be b16e 8a3d 58a2 3ebe
00000320: fca1 1bbe 318c d9bd ae90 45be dfa4 49be
00000330: 30a0 28bd d0a5 bdbd 8420 d73d a644 26be
00000340: d05f fe3d ecb5 3dbd 10bc 9c3c f408 0bbd
00000350: 7ddd 64be aeca 9ebd b886 5d3d 8e95 58be
00000360: 4c51 a7bd 00e5 6ebb 7e1c 29be a297 33be
00000370: 1f4f 4ebe 00eb 783c 5071 36bd 6147 cabd
00000380: 20e6 adbd 5cdb 09be d6ed 333e 40b3 a0bd
00000390: 7646 ccbd d412 1ebd 48d0 54bd 4805 c03d
000003a0: 945a 62bd 38c2 3f3d c0d5 afbd 8886 5fbe
000003b0: e284 0d3e 0002 2e3d d87c 0dbe fc37 1bbe
000003c0: 539d bbbc 178a c6bc fa2b 563c 6906 7abe
000003d0: 4322 20bd 2586 0a3c e2a0 16be 0fad 8cbc
000003e0: 2c4e 12bc 29d9 2e3e 8a01 423e c9a8 8cbd
000003f0: 8ad3 3e3e 9f93 43be b880 92be 99d2 703e

net.0.bias f4 [64]
-0.38258958 0.038507935 0.13092119 -0.18188085 0.2854712 -0.0984917 0.06448249 0.034958825
0.13896874 -0.20480569 0.06194216 -0.084379435 0.36905822 -0.005684004 -0.09201336 -0.21781714
-0.23222244 -0.19084293 0.07857689 -0.238371 -0.06814937 0.027119067 -0.018895645 0.23671083
-0.13478868 0.052378617 0.026033089 -0.17863517 0.069506116 -0.051140334 -0.21967506 -0.022936428
0.21077672 -0.24696589 0.21489374 0.036403235 0.1117792 0.12597352 -0.12122344 -0.12330877
-0.033980004 -0.17112714 0.18556298 0.0035403788 0.1779331 0.19249241 -0.2050968 -0.16270104
0.041154265 0.22670339 -0.13206509 0.24794348 0.09278835 -0.14854929 -0.1433389 -0.03973312
-0.07510951 0.048302446 -0.012271072 -0.19591175 -0.036592443 -0.07372794 0.034932755 0.110401355
00000000: c8e2 c3be 7fba 1d3d 3410 063e f93e 3abe
00000010: 4829 923e 04b6 c9bd 650f 843d fc30 0f3d
00000020: d24d 0e3e 95b8 51be 10b7 7d3d 20cf acbd
00000030: 33f5 bc3e e240 babb 8071 bcbd 750b 5fbe
00000040: b8cb 6dbe 546c 43be ecec a03d 8717 74be
00000050: e691 8bbd ce28 de3c 0acb 9abc 5364 723e
00000060: 0b06 0abe f68a 563d 5843 d53c 23ec 36be
00000070: 3959 8e3d 8778 51bd 80f2 60be 2de5 bbbc
00000080: dad5 573e a0e4 7cbe 1b0d 5c3e 8f1b 153d
00000090: 7eec e43d 34ff 003e ff43 f8bd 4f89 fcbd
000000a0: 9e2e 0bbd f43b 2fbe 3904 3e3e b305 683b
000000b0: 1834 363e bb1c 453e e504 52be 1a9b 26be
000000c0: 6091 283d ef24 683e 123c 07be e5e4 7d3e
000000d0: d207 be3d 4e1d 18be 6fc7 12be 32bf 22bd
000000e0: 04d3 99bd c9d8 453d 9b0c 49bc 179d 48be
000000f0: f5e1 15bd adfe 96bd a615 0f3d 1b1a e23d

net.2.weight f4 [32, 64]
0.00040582503 -0.014034689 -0.109120026 0.074774496 -0.056316037 -0.022115042 0.026024584 0.093812354
-0.021578453 0.016981328 0.11571102 0.05848898 0.072128154 0.0674469 0.14748341 0.03532961
-0.042972814 0.10197147 0.08653805 -0.10588462 0.10417158 -0.11854683 0.04248847 -0.114351295
-0.050369043 0.12498283 -0.05022653 -0.040665273 -0.020722564 -0.027038343 -0.08549173 -0.01715085
-0.09990421 0.11361766 0.050141674 0.019801684 0.022561684 0.014038377 0.11140975 0.108771235
0.061620317 0.14358959 -0.0986791 0.040167283 0.026659727 0.054898288 -0.018997202 -0.124669254
-0.044760503 -0.073675685 0.0711127 0.074397616 -0.06525125 0.029346943 0.01545022 -0.049677208
0.11029224 0.0123134935 -0.04097104 -0.03718652 0.058342706 0.14483985 -0.060091667 -0.144414
-0.108011395 -0.03799954 0.07335504 -0.021452963 0.047857687 0.063954934 -0.051844053 0.12391257
-0.06989929 -0.0429807 -0.007925063 -0.0119045675 0.025188552 -0.04248938 0.020692244 -0.0032975078
0.054762393 -0.1114714 -0.115823984 -0.03704852 -0.09392446 0.01018177 -0.12312159 -0.1057622
-0.02047965 0.021344885 0.050485656 -0.017474473 0.058091745 -0.08322063 -0.07585764 -0.03839685
0.049274653 -0.03221871 -0.08597116 -0.09457514 -0.08431177 -0.07042262 0.09750566 -0.04655464
0.011141806 0.011099055 0.04462764 -0.102134675 0.069218636 -0.09858614 -0.12590668 -0.11158936
0.10839863 -0.019762415 -0.10843943 0.0051308125 -0.07500434 -0.020364136 0.014359474 -0.022819296
0.10581635 0.063473344 -0.098562956 -0.03811887 -0.03338878 -0.032996133 -0.034036875 -0.11827128
0.034308884 -0.05677343 0.053200208 0.12048372 0.06620625 -0.03746668 -0.08477815 -0.024564369
0.033159386 -0.12386778 -0.120962486 -0.11748986 -0.1350167 0.07652478 0.037411034 -0.06370359
-0.09232423 0.014062777 -0.032149274 -0.038944416 -0.09129698 0.027752517 -0.105044775 0.086259514
-0.014434278 0.055476457 -0.03767773 0.036601502 0.07693571 -0.05140596 -0.020305485 -0.040635265
-0.017238965 -0.12749097 -0.032259077 -0.047777846 0.042596374 -0.06856074 0.050012015 0.005264133
0.040390566 -0.040831618 0.0033615413 -0.16211906 0.004934864 0.017178752 0.074780546 0.08703456
0.10902962 0.07228091 -0.059210464 -0.006762608 -0.062131487 -0.08309689 0.05235009 -0.043284785
0.075589985 -0.01821151 0.08623413 -0.106188685 -0.010487399 0.019862507 -0.008191236 -0.033110343
-0.079391 0.022756075 0.059901863 0.008589266 0.061564203 -0.102925785 -0.19890241 -0.02523608
0.009562544 -0.055000085 0.079270706 0.031407073 0.006384582 -0.00689941 0.010090759 0.088037305
0.07878276 -0.0766411 -0.112711206 -0.06346338 -0.13331637 -0.0632926 -0.073551595 0.088077605
-0.05401346 0.08316792 0.011625154 0.03839193 -0.082277074 0.06659785 0.005662148 -0.018714719
0.035648525 -0.01879594 0.016980713 -0.05448649 -0.12292258 -0.123666555 -0.00084593036 0.099342704
0.10250989 0.07432372 -0.1441658 -0.12406137 0.009754062 -0.108656965 0.05138914 0.06127881
-0.06713038 -0.01460211 -0.052997366 -0.063467495 -0.1202436 -0.06509669 -0.045134578 -0.1270236
0.105804905 -0.05324316 -0.07111969 -0.042956658 0.017485378 -0.09932793 0.05548315 0.018201577
00000000: eac4 d439 c1f1 65bc 527a dfbd 5f23 993d
00000010: a5ab 66bd 9b2a b5bc 8231 d53c b120 c03d
00000020: 4cc5 b0bc 6d1c 8b3c e6f9 ec3d 2492 6f3d
00000030: edb7 933d 9a21 8a3d e405 173e c8b5 103d
00000040: 4304 30bd 6bd6 d03d dc3a b13d 09da d8bd
00000050: e957 d53d aec8 f2bd 6408 2e3d 0331 eabd
00000060: c54f 4ebd fff6 ff3d 55ba 4dbd a190 26bd
00000070: 5ec2 a9bc 847f ddbc 4a16 afbd f07f 8cbc
00000080: 949a ccbd 60b0 e83d 5b61 4d3d 2437 a23c
00000090: 48d3 b83c 3901 663c cc2a e43d 74c3 de3d
000000a0: 9665 7c3d 2609 133e 4518 cabd 7386 243d
000000b0: 8065 da3c 07dd 603d 05a0 9bbc 9852 ffbd
000000c0: ca56 37bd 47e3 96bd 89a3 913d c75d 983d
000000d0: 73a2 85bd 0069 f03c eb22 7d3c 547a 4bbd
000000e0: e6e0 e13d 89be 493c 40d1 27bd e450 18bd
000000f0: c3f8 6e3d e650 143e ae22 76bd 43e1 13be
00000100: 1435 ddbd 68a5 1bbd 2b3b 963d 20be afbc
00000110: 6c06 443d cefa 823d 6e5a 54bd e0c5 fd3d
00000120: 5c27 8fbd 880c 30bd 20d8 01bc 600b 43bc
00000130: 3958 ce3c 5809 2ebd c882 a93c 001b 58bb
00000140: 884e 603d 1e4b e4bd 2035 edbd 30c0 17bd
00000150: 785b c0bd 70d1 263c 2c27 fcbd da99 d8bd
00000160: f0c4 a7bc 78db ae3c 0cca 4e3d a026 8fbc
00000170: 9cf1 6d3d 946f aabd 405b 9bbd 0446 1dbd
00000180: 38d4 493d c4f7 03bd a611 b0bd 9cb0 c1bd
00000190: a6ab acbd bc39 90bd 0cb1 c73d 14b0 3ebd
000001a0: 1f8c 363c d0d8 353c 79cb 363d fc2b d1bd
000001b0: 80c2 8d3d 88e7 c9bd aeed 00be f688 e4bd
000001c0: 1a00 de3d cae4 a1bc 7e15 debd 6020 a83b
000001d0: e09b 99bd b0d2 a6bc 0044 6b3c 88ef babc
000001e0: 3eb6 d83d 50fe 813d 60db c9bd 8822 1cbd
000001f0: acc2 08bd f426 07bd 406a 0bbd 3638 f2bd
00000200: 7987 0c3d 428b 68bd 76e8 593d 2bc0 f63d
00000210: 2497 873d a976 19bd 2ba0 adbd 373b c9bc
00000220: 23d2 073d 64ae fdbd 2ebb f7bd 869e f0bd
00000230: d141 0abe 06b9 9c3d 503c 193d 0777 82bd
00000240: 7c14 bdbd 9067 663c f5ae 03bd 2e84 1fbd
00000250: e9f9 babd 3f59 e33c b721 d7bd d4a8 b03d
00000260: c07d 6cbc 483b 633d f753 1abd 75eb 153d
00000270: 7890 9d3d 0e8f 52bd b057 a6bc 2a71 26bd
00000280: bb38 8dbc fe8c 02be 1822 04bd b4b2 43bd
00000290: 8979 2e3d 9369 8cbd 66d9 4c3d c07e ac3b
000002a0: 9470 253d 0e3f 27bd 4e4d 5c3b 8a02 26be
000002b0: a4b4 a13b 74ba 8c3c 8b26 993d 2d3f b23d
000002c0: ec4a df3d 0408 943d ac86 72bd de98 ddbb
000002d0: 967d 7ebd b42e aabd 0c6d 563d 634b 31bd
000002e0: ecce 9a3d 4e30 95bc 859b b03d 7479 d9bd
000002f0: 57d3 2bbc b2b6 a23c 8934 06bc b69e 07bd
00000300: c097 a2bd f36a ba3c a85b 753d feb9 0c3c
00000310: bf2a 7c3d c1ca d2bd 13ad 4bbe e5bb cebc
00000320: 37ac 1c3c c547 61bd ae58 a23d b4a4 003d
00000330: c135 d13b 7214 e2bb b653 253c e74c b43d
00000340: db58 a13d 02f6 9cbd 22d5 e6bd 17f9 81bd
00000350: 1684 08be 8d9f 81bd 38a2 96bd 0862 b43d
00000360: 383d 5dbd f153 aa3d 6e77 3e3c db40 1d3d
00000370: e280 a8bd 7464 883d 8a89 b93b 9c4f 99bc
00000380: 3004 123d f1f9 99bc 231b 8b3c 3a2d 5fbd
00000390: d5be fbbd e444 fdbd 6dc1 5dba 3074 cb3d
000003a0: b5f0 d13d 0937 983d 33a0 13be e313 febd
000003b0: 80cf 1f3c 8b87 debd 6b7d 523d 7dff 7a3d
000003c0: a77b 89bd b03d 6fbc c413 59bd 3ffb 81bd
000003d0: 4742 f6bd 6a51 85bd 09df 38bd 7912 02be
000003e0: 3eb0 d83d 8015 5abd 33a7 91bd 52f3 2fbd
000003f0: 7f3d 8f3c 716c cbbd 4d42 633d 791b 953c

net.2.bias f4 [32]
-0.05457883 -0.04189605 -0.06352221 -0.030804193 -0.07506564 0.29924437 0.06885101 0.27013755
-0.038481664 -0.05172599 -0.123032 -0.082628176 -0.016155256 -0.1081509 -0.07907694 0.08798082
-0.0022735074 -0.0563372 -0.021658579 -0.09205064 0.26326346 0.19550015 0.04627553 -0.05881938
-0.05174254 -0.037789468 -0.079283744 0.0018851492 0.046335883 -0.087852195 -0.116234444 -0.15285735
00000000: 0d8e 5fbd 319b 2bbd ef17 82bd 1359 fcbc
00000010: 04bc 99bd 8f36 993e c201 8d3d 784f 8a3e
00000020: f39e 1dbd a2de 53bd 34f8 fbbd f638 a9bd
00000030: 0758 84bc 387e ddbd 17f3 a1bd 4a2f b43d
00000040: 20ff 14bb d6c1 66bd 556d b1bc 0c85 bcbd
00000050: 78ca 863e 3131 483e 698b 3d3d 97ec 70bd
00000060: fcef 53bd 21c9 1abd 845f a2bd 1c17 f73a
00000070: b2ca 3d3d daeb b3bd 530c eebd a386 1cbe

net.4.weight f4 [1, 32]
-0.0068844985 0.064691335 -0.0011476569 0.005697377 0.2115205 0.20005313 0.05247463 0.14312302
0.028681008 -0.0035531763 -0.004096478 -0.13573894 0.0029062247 -0.01472283 0.023819968 -0.038538687
-0.008526124 -0.07718557 0.003650619 0.14522518 0.12773755 0.14226194 -0.02580603 -0.068004236
-0.023016771 0.056740113 -0.0035802897 -0.0025422198 -0.14268577 0.13189995 -0.008014597 -0.006883677
00000000: 5c97 e1bb e47c 843d fa6c 96ba 10b1 ba3b
00000010: d498 583e bada 4c3e a3ef 563d d78e 123e
00000020: 6ff4 ea3c 68dc 68bb c03b 86bb 26ff 0abe
00000030: 5c76 3e3b 0638 71bc 1822 c33c beda 1dbd
00000040: 28b1 0bbc 7813 9ebd 393f 6f3b e9b5 143e
00000050: a2cd 023e 1dad 113e 2b67 d3bc ce45 8bbd
00000060: ab8d bcbc 5268 683d 4ba3 6abb 5f9b 26bb
00000070: 381c 12be c810 073e a84f 03bc 7890 e1bb
