Trading_Model/trading_model_BTCUSD.pth (torch, 16650 bytes, 5 tensors)

net.0.weight f4 [64, 20]
000000 9c f7 4c be c0 ad 2e be 41 78 82 3c d4 b4 ea bd
       -0.2001633 -0.17058468 0.015926482 -0.114602715
000010 6d 61 03 bd 39 fe e9 3d d8 f4 ee 3d 68 4c e7 bd
       -0.032075334 0.11425442 0.11667794 -0.1129387
000020 19 84 4a be ee 3c c5 bc 31 08 2a bd ba e4 8f be
       -0.19776954 -0.024076905 -0.04151172 -0.28104192
000030 3d 09 81 3d 11 74 2a be 5f 22 f4 bd 04 6f 50 3d
       0.0630059 -0.16645838 -0.11920618 0.050887123
000040 c1 ea 81 be 0a a2 91 3c f5 88 ee 3d 75 25 61 be
       -0.25374416 0.017777462 0.11647216 -0.21986945
000050 a5 50 1a be d6 80 4f bd 77 9a 68 bc ba e3 38 be
       -0.15069826 -0.050659977 -0.014196984 -0.18055621
000060 92 53 d9 bd 87 ee ed 3d 14 b0 50 bd 37 83 08 3e
       -0.10611643 0.11617761 -0.05094917 0.13331304
000070 c3 a1 9e be cf d6 47 be 8a 57 24 3d af 5e 41 be
       -0.3098279 -0.19515537 0.040122546 -0.18883775
000080 1d 38 61 be f9 2c a7 be 53 ca 36 3e 8f c5 6c be
       -0.21994062 -0.326515 0.17850618 -0.23122238
000090 5a 74 14 3d e1 bc c4 3d b3 4c 03 3d 5e 43 79 3c
       0.036243774 0.09606338 0.032055568 0.0152138155
0000a0 d4 7e 80 3d 86 52 1c bd 71 6f bd bc a8 e6 0e 3e
       0.062741905 -0.038164638 -0.023124428 0.13955176
0000b0 98 8e 17 be ca fc 07 be 06 97 10 3e 7d c7 4b bd
       -0.14800489 -0.13280025 0.14120111 -0.049750794
0000c0 f4 6b 1c bc 65 34 ee bd fb 3d 08 3d 35 f2 33 bc
       -0.009547222 -0.11631087 0.033262234 -0.01098304
0000d0 2b c1 57 3e e3 f6 73 bd 58 cf d3 be 15 8c b2 3e
       0.21069781 -0.05956162 -0.41369128 0.348725
0000e0 7e 5f 48 be cd 56 11 bd 36 fa 64 bd 25 a2 3f 3c
       -0.19567677 -0.03548317 -0.055902682 0.011696373
0000f0 71 23 0a be fd 39 da 3d 69 40 13 3e 28 70 88 bc
       -0.13490082 0.10655592 0.1438004 -0.016655043
000100 b6 d6 63 be 8e 58 35 be e9 94 b6 bc 7b 1a 10 be
       -0.22249874 -0.17709562 -0.022287803 -0.14072601
000110 cc 3e 3e be 91 3b 0b 3e 85 0f 80 3d 8f 64 55 3d
       -0.18578643 0.13596942 0.0625296 0.052097853
000120 e9 5e f0 bd e2 01 b3 bc e0 e2 6d be 13 98 e2 bc
       -0.11736853 -0.021851484 -0.23231077 -0.027660405
000130 d2 26 10 bd d1 30 a7 bd a9 26 9a be 1d 19 56 3c
       -0.035193272 -0.08163608 -0.3010762 0.013067511
000140 a0 8a 2d bd 7e cf 0a be 8d 8e 1b bd 3e b6 d1 3c
       -0.04236853 -0.13555714 -0.037977744 0.025599595
000150 57 8a 09 be ba b3 e8 3d 5b 36 0c 3e 5e 86 92 3d
       -0.13431679 0.11362405 0.1369261 0.07154535
000160 fc ae e2 bd 24 28 fa 3d b0 da 31 be 97 04 e6 3d
       -0.11068532 0.122146875 -0.17368579 0.11231344
000170 ac df 93 bd d2 a3 98 3d ee 87 f7 bc 8c 9c 48 be
       -0.072203964 0.07453121 -0.030216184 -0.19590968
000180 41 5c 84 be 92 20 d0 3d 8e 6e 46 be e0 b3 53 be
       -0.25851634 0.10162462 -0.19378111 -0.20674086
000190 ec b0 c7 be 5e b3 cc be b3 a6 e1 bd 61 d1 25 be
       -0.39002168 -0.39980596 -0.110181235 -0.16193153
0001a0 26 1a de 3d 0d 02 88 be db 18 9c 3b aa e0 8a 3d
       0.10844831 -0.26564065 0.004763705 0.067811325
0001b0 bd ce 8f 3d d9 59 e9 3d e2 91 ea 3d 48 20 93 3c
       0.07021854 0.1139409 0.11453606 0.017959729
0001c0 00 7c 05 3d 2a 99 35 be d8 ff e2 3d ea ca 5e be
       0.03258896 -0.17734209 0.110839546 -0.21757093
0001d0 d8 7a c0 3c 26 17 5f be aa 6e 7c 3d e9 eb a5 3d
       0.023496076 -0.21786174 0.061628975 0.08101637
0001e0 e9 d8 a1 bd 3f 36 11 be 04 f9 a8 3d 9a 0c 97 be
       -0.079027005 -0.1418085 0.08250621 -0.29501802
0001f0 6d d3 ba 3d a3 c2 a0 bc ed 19 44 3d db 01 08 be
       0.091223575 -0.01962406 0.047876287 -0.13281958
000200 e4 01 5d 3d b1 27 a5 bd b9 e5 d5 bd bb 09 33 3d
       0.05395688 -0.08064211 -0.10444207 0.04371045
000210 01 11 c6 3d ad c5 8e be a7 ce f2 3d 51 c3 50 bc
       0.09671212 -0.2788519 0.11855822 -0.01274188
000220 73 08 50 3c 8c 71 eb bc 7c e2 45 be ee aa 42 3d
       0.012697327 -0.028740667 -0.19324678 0.047526293
000230 84 95 d1 bd c8 33 90 3c 06 b1 91 bd 97 89 17 be
       -0.10233596 0.017602816 -0.07113843 -0.1479858
000240 f4 e5 ea 39 72 76 ac 3d 1b f2 f9 bd 90 1b 01 3d
       0.00044803286 0.08421029 -0.12204381 0.031520426
000250 ac 80 47 3e 5c 75 58 be 6e 13 c1 bc a0 75 7a bd
       0.19482678 -0.21138519 -0.023568835 -0.061147332
000260 58 50 25 3e 71 8f 1a 3d 09 0e 63 be 4d a2 52 bd
       0.1614393 0.037734453 -0.22173323 -0.051424313
000270 c6 2c 1c be 3d 7a 06 bf 7f 52 47 be 83 b3 bc bd
       -0.15251455 -0.5253027 -0.19465064 -0.09213927
000280 28 28 08 3d d2 2a e2 bd 64 1f 3e 3d 76 09 07 3e
       0.03324142 -0.110433236 0.046416655 0.13187203
000290 1a 63 0e 3e c6 95 1a 3e d4 7d ac 3d d2 5f a9 bd
       0.13904992 0.15096197 0.08422437 -0.082702294
0002a0 37 06 0a 3e 1e 0c 93 be fd 20 79 3d 02 00 7b bd
       0.13478933 -0.28720182 0.060822476 -0.061279304
0002b0 52 d5 4a bc a4 93 ab bd 16 b4 1f be bb 25 80 be
       -0.012379961 -0.083777696 -0.15596041 -0.25028786
0002c0 7b a8 39 bc c3 75 2c bd 11 10 86 3d 69 cc 5a be
       -0.011331673 -0.042104494 0.06546033 -0.21367039
0002d0 83 9a 55 3a a0 63 0a 3d 14 17 46 3d 10 20 52 be
       0.0008148329 0.033786416 0.048361853 -0.20520043
0002e0 4a 68 8d be f7 e7 dd bd f3 5a d5 3c 00 af 15 bd
       -0.2761863 -0.108352594 0.026044345 -0.036543846
0002f0 06 ff bb 3e aa 69 bc 3d 0c b9 4f be 5d 0d 13 3e
       0.36718005 0.09199841 -0.20285434 0.14360566
000300 48 c4 0b 3e 1d 08 29 3e b5 35 34 bf dd 9a 80 3f
       0.13649094 0.16507001 -0.7039445 1.004726
000310 27 80 a9 be c9 49 0f 3c 17 a1 81 be 0c 32 8e bd
       -0.33105585 0.008745619 -0.25318214 -0.069431394
000320 ca b7 c0 3d 13 0e 80 bd 20 b8 5a be 9d 4d 76 be
       0.09410055 -0.062526844 -0.213593 -0.24053045
000330 b8 16 9a 3d a8 61 29 be b6 ae 68 be 30 ec b2 3d
       0.075238645 -0.16541159 -0.22722897 0.087364554
000340 1a 7a fd 3d 4d 07 e1 bd 63 43 a6 bd 35 0b 69 bd
       0.12376805 -0.10987721 -0.08118322 -0.056895453
000350 7d 4d c5 bc 2d ed 53 3d af d2 83 be a9 0b d8 bd
       -0.0240848 0.05173986 -0.25746676 -0.10549099
000360 cd e3 8a 3d 8e 20 24 3d 31 b3 db 3c a5 f2 85 be
       0.06781731 0.04007011 0.026818844 -0.26161686
000370 5e bc 27 be c9 8a 08 3d f8 c6 d3 3d bd ab b9 bd
       -0.1638045 0.03333548 0.10340685 -0.090659596
000380 e0 aa 3d 3e 30 0f 0e 3c 4f c0 2c be ae c5 5c be
       0.18522215 0.008670613 -0.16870235 -0.21559784
000390 a0 75 a4 bd 77 a0 03 be a4 1c 22 bd 82 3d a3 3d
       -0.08030248 -0.12854181 -0.039578095 0.07970716
0003a0 5b 51 06 be 8e 95 e0 bd ea 95 6f be 23 c8 29 3e
       -0.13116972 -0.10966025 -0.23397031 0.16580252
0003b0 0c 9a 47 be 21 c8 e4 3d 81 35 0d be 8b 71 5e be
       -0.19492358 0.11170984 -0.13789941 -0.21723
0003c0 23 7e 58 be 36 20 72 3d 74 e4 04 3d af af be bd
       -0.21141867 0.05911275 0.032444432 -0.09310853
0003d0 94 83 3a bc 26 c3 35 3d cc 49 15 3e b7 81 25 be
       -0.01138391 0.04437556 0.14578933 -0.16162764
0003e0 87 f7 62 be 21 1c da bd 61 f3 88 be a8 d6 21 bd
       -0.22164737 -0.106498964 -0.26748183 -0.039511353
0003f0 4d 2b 33 3d 70 87 08 bd 59 63 af bd 46 10 ab 3c
       0.043742467 -0.03333229 -0.08563871 0.020881783

net.0.bias f4 [64]
000000 3d fc 61 3d 8a 86 87 bd 05 f3 bd 3e db f1 f8 bd
       0.055172194 -0.06617458 0.37099472 -0.12155505
000010 d5 da 85 bd f4 b2 8a bd eb a7 7f bd 48 61 4e 3e
       -0.065358795 -0.06772414 -0.062416 0.20154297
000020 47 fd e8 bd d2 5a 36 be 96 62 8f bd e2 a1 c1 3a
       -0.11376434 -0.17808083 -0.07001226 0.0014772976
000030 5a 29 aa 3c 5b 71 38 bd c5 08 66 be e0 10 de bb
       0.020771671 -0.04502998 -0.22464283 -0.006776914
000040 e0 bc 01 be d7 3c 3e 3e b0 c6 43 be f8 99 5b be
       -0.12669706 0.18577896 -0.19118762 -0.21445453
000050 9c b0 40 3e 7a f0 9d bd 32 6f 0f be d4 51 f6 bd
       0.18817371 -0.07711883 -0.14007261 -0.12027326
000060 1f b1 15 3e d4 8e 83 be da 39 4d 3c ea ba 54 3c
       0.14618348 -0.25694907 0.012526 0.012984017
000070 b2 c0 80 be 43 4e 7b bd e2 1c b2 3d 30 88 6a be
       -0.25147015 -0.061353933 0.08696915 -0.22903514
000080 6d bf 54 be 57 b4 16 be ec 9b 12 be f9 4d 6a bd
       -0.20776148 -0.14717232 -0.14317292 -0.057203267
000090 0c 71 46 be 59 09 49 be f5 bc 10 3e 35 84 6b be
       -0.19379061 -0.19632472 0.14134581 -0.22999652
0000a0 56 5b 82 bd 97 28 35 be 6d c2 f9 bd 97 3c 45 bd
       -0.06365077 -0.17691265 -0.12195287 -0.048153486
0000b0 c2 91 52 be e8 97 43 be ee 89 ca bd 3f e0 09 3e
       -0.20563415 -0.19100916 -0.09889589 0.1346445
0000c0 c3 94 52 be 20 d4 86 3d 3c 2e d4 bc 20 04 cd 3e
       -0.2056456 0.065834284 -0.025900953 0.4004221
0000d0 4a 1d 88 3e b6 e7 12 be 11 df 80 be 44 6b b5 3d
       0.26584846 -0.14346203 -0.25170186 0.0885835
0000e0 62 45 3d 3e 6b 94 cf bd dc 69 02 3e eb db b2 bc
       0.18483499 -0.1013573 0.12735695 -0.02183338
0000f0 63 55 14 3e be e7 d4 bd 21 db e0 3c 0b d6 41 be
       0.14485697 -0.10395764 0.027448239 -0.18929307

net.2.weight f4 [32, 64]
000000 07 bd 13 3d d5 fe 33 bd 10 5d 8c bd fd 61 c3 bc
       0.036068942 -0.0439442 -0.06853688 -0.023850435
000010 f7 02 ab bd 58 54 95 bd d7 b7 e4 bd 7d 48 1f bd
       -0.08350175 -0.07291478 -0.11167877 -0.03888749
000020 b3 06 db 3c 87 2b 4b 3d c9 c7 61 3c e7 28 cc bd
       0.026736593 0.049602058 0.013780543 -0.09968739
000030 98 53 6c 3d a1 32 5f 3e ec bb 22 bd 80 a8 7c bc
       0.05769691 0.21796657 -0.039729998 -0.015421033
000040 b2 a8 e8 bc 37 af ec bd b8 ec e1 3d 06 e2 89 bd
       -0.028400753 -0.11556857 0.11031479 -0.06732564
000050 7c e4 0a be 7b a4 0f be c7 f0 d2 bd 40 1c cb 3d
       -0.13563722 -0.14027588 -0.10299831 0.09917498
000060 9e 6d a9 3d 11 4d 27 bb d5 05 3e 3b cd ed e4 bc
       0.08272861 -0.0025528113 0.0028995175 -0.027945423
000070 e7 d4 12 bd e0 cd 7b 3d 61 0e 33 bc 38 5b a1 bd
       -0.03584757 0.061475635 -0.010928721 -0.07878727
000080 9e dc a4 bd 4b fb 4e 3b 39 e6 4f bc 2e fd ce bd
       -0.08049892 0.0031582888 -0.012689167 -0.10106884
000090 2e ce e7 3d 6d 73 d9 bc 56 3b 6f 3d f3 3e 85 bd
       0.113186225 -0.026544297 0.058406197 -0.06506147
0000a0 73 76 68 3d ff fe fa bd ae 1a 49 bd d6 d3 5e 3c
       0.056753587 -0.12255668 -0.04909771 0.01360031
0000b0 f0 c7 ad bd a9 a9 ce bd 17 68 31 bd 99 9e 2d bd
       -0.08485401 -0.10090954 -0.04331216 -0.04238758
0000c0 18 25 e7 bc 6f 7b de 3d 53 c4 a1 bd 05 46 77 bd
       -0.02821593 0.10863387 -0.07898774 -0.06036951
0000d0 c9 33 bd 3c 75 db b7 bd ad ac 76 3a 54 a8 7d 3d
       0.023095982 -0.08977405 0.0009409886 0.06192811
0000e0 14 d2 3a 3d 81 e5 26 3f a4 d5 88 bd d4 21 a8 bd
       0.045610502 0.65193945 -0.06681374 -0.08209577
0000f0 e1 35 31 3d 04 71 ef bc c0 bf 25 3e 34 a7 8e bd
       0.043264274 -0.029228695 0.16186428 -0.06965485
000100 34 10 cc 3d 25 c2 34 3d a7 64 bc 3d 35 f6 f4 3d
       0.09964028 0.044130463 0.091988854 0.11961023
000110 37 f5 b2 bd be ae c6 3d ae b7 10 3e 5a d0 ac 3a
       -0.08738177 0.09701298 0.14132568 0.0013184652
000120 7d 2c c6 3c 08 d3 63 3d 22 66 9c 3d a7 e6 5f 3d
       0.024191136 0.055621177 0.07636668 0.054663327
000130 c5 5e 7e bd dc 22 6d bc f7 a9 b9 3d 5e 8c da 3d
       -0.062102098 -0.014473643 0.09065621 0.10671304
000140 ba 1f 81 bb 44 c6 46 3d 6d a2 b6 bd 78 3d 47 3d
       -0.0039405497 0.048528925 -0.08917699 0.048642606
000150 33 54 b3 bd ad 55 c4 3d cb 63 67 bd 10 42 fe bc
       -0.08756294 0.09586654 -0.056491654 -0.03103736
000160 8f b8 6a bc 5d 77 cf 3d 28 41 66 bc 8c e4 a2 bd
       -0.014326229 0.101301886 -0.01405362 -0.07953748
000170 a7 a5 17 bc 35 a4 fd 3d 59 7a e3 3c 3c 53 e4 3d
       -0.009255803 0.12384836 0.0277683 0.11148688
000180 90 62 0a 3d be 5f bd bd 0a b4 ab bd ed aa 7b bd
       0.033785403 -0.09246777 -0.08383949 -0.061442304
000190 72 a1 a9 3c 5a 41 cc 3b e9 30 04 be 6d 97 b2 bd
       0.020706866 0.0062333765 -0.12909283 -0.087202884
0001a0 b7 fb b5 3c ea 86 0e 3e 2d c3 a4 3d ae 7b 27 bd
       0.022214754 0.13918653 0.08045039 -0.040889435
0001b0 d8 59 31 3d 6e b2 f9 bc 6c 62 51 bd 56 a8 71 3c
       0.043298572 -0.03048059 -0.051119253 0.014749607
0001c0 56 c1 89 bd 06 ae 51 3d 8d d8 fe bc 36 97 ca bc
       -0.06726329 0.051191352 -0.031109119 -0.024730306
0001d0 28 4a 8b bb 60 9a a6 3d c4 10 13 3d b4 ac 88 bd
       -0.0042507835 0.081349134 0.03590466 -0.066735655
0001e0 dd 9e 97 3d 47 9f 2f 3f cd 37 8d 3d e6 ce da 3d
       0.07403348 0.6860241 0.06895409 0.10683994
0001f0 28 e3 43 bd 4c 50 b0 bc 58 db 2b 3d b4 05 b0 3d
       -0.047824055 -0.021522664 0.04195723 0.08594838
000200 66 04 99 bd 42 99 97 3d 78 4f 21 3d 3c 6f e9 3c
       -0.07471542 0.074022785 0.039382428 0.028495423
000210 dc 97 19 3e 20 39 51 bc d3 d7 da 3d 1e a0 75 bd
       0.14999336 -0.012769967 0.106856965 -0.059967153
000220 64 9b 16 3e ed e4 2d bc 7e 71 9c bc 33 65 1f 3e
       0.14707714 -0.010613662 -0.019097086 0.15565948
000230 8f 77 d2 3c 1f 8a 28 3c 23 39 7c bc 88 b3 c0 3d
       0.025691776 0.010286837 -0.015394482 0.09409243
000240 d1 47 39 3d 17 cd 84 3c ee 84 3f bd b8 55 4b 3d
       0.045234505 0.016211076 -0.04675763 0.049642295
000250 8a ee 83 bd 50 7a 96 bd 57 57 a7 bd a8 1e d5 bc
       -0.06441982 -0.07347548 -0.08170956 -0.026015595
000260 bd ad 53 bd 31 ae 47 bd 38 ce 01 be d9 1b 5e 3d
       -0.05167936 -0.048750106 -0.12676322 0.054225776
000270 da d7 c7 bd fa 50 d7 3d 18 be 8b bd 4b 08 b3 bd
       -0.09757967 0.10513492 -0.06823367 -0.08741816
000280 c4 2d 51 3c e8 2b 89 3d d1 14 e2 3d a5 1d 09 3e
       0.012767259 0.066978276 0.11039127 0.13390215
000290 c1 42 f9 3c 48 90 c7 bd d3 3f 72 bd b6 65 be bd
       0.030427339 -0.09744316 -0.0591429 -0.092967436
0002a0 22 c2 23 bd d7 55 e5 3c f9 57 da bc 3f 4b 10 3c
       -0.03998006 0.027995033 -0.026653277 0.008807003
0002b0 50 96 fa 3d 13 45 4f bd 6b 8b 82 bd fc 17 7e 3b
       0.12235701 -0.050602984 -0.06374248 0.003877162
0002c0 69 36 9f 3c 7a 18 e6 bd d7 99 c2 3d 29 e5 2a be
       0.019435124 -0.11235137 0.09501999 -0.1668898
0002d0 f3 a3 17 be 6f 11 70 3d a1 6a 68 bd 9b 24 32 bd
       -0.14808635 0.058610376 -0.056742314 -0.04349194
0002e0 2f 73 38 be 0c 57 f3 3d d2 78 ea 3c d1 98 64 3d
       -0.18012689 0.11881837 0.028622065 0.0558098
0002f0 2f 6a 2c 3d 5b 31 cb bd fa 45 2b 3b 9c 58 05 3d
       0.042093452 -0.09921523 0.0026134239 0.032555208
000300 d4 54 cb 3d f9 f2 32 be 6a 44 ed bd 62 39 87 3d
       0.09928289 -0.17475499 -0.115853146 0.06602742
000310 15 dc 00 3d 64 78 98 3d cc c7 12 be 7b 83 9a 3d
       0.031459887 0.07444838 -0.14334029 0.07544609
000320 79 f4 cf 3d 4a 56 e1 bd 76 0d a5 bd 2b ee ed 3d
       0.10154051 -0.110027865 -0.08059208 0.116176926
000330 f6 a8 23 3d b3 e6 d7 bd 53 07 e6 bd 2e b8 96 bd
       0.039956056 -0.10542049 -0.11231866 -0.07359348
000340 9a fa 4b bd 60 ab 54 bd 6f fc d2 3d b4 ea 5c 3d
       -0.04979954 -0.05192125 0.10302054 0.053934768
000350 2c f3 4d 3d cd 94 86 bd d1 df ee bd ea 44 a1 3d
       0.050280735 -0.0657135 -0.11663783 0.078744724
000360 3a 5f 24 bc 31 73 20 be 65 7e 06 be 66 11 94 3d
       -0.010032469 -0.15668942 -0.13134153 0.07229881
000370 c9 78 86 bc f0 c8 fb bd 85 ea 6a 3d bb 4d 8d bc
       -0.016415017 -0.12294185 0.05735256 -0.017248979
000380 38 58 9e bd 36 48 75 3d 7e 8c 8f bd 59 55 8a bd
       -0.0773167 0.05988332 -0.07009219 -0.0675456
000390 ce 29 89 bc a1 38 96 3d 90 9c e4 bc bf 52 94 3d
       -0.016743567 0.0733502 -0.027906686 0.07242345
0003a0 d8 d3 1b bd 8b 24 05 3d ca 9a c9 bd 83 9e 59 3d
       -0.038043827 0.032505553 -0.09843977 0.053129684
0003b0 be 6b c0 bc 55 4f c3 bd 07 e9 98 bd 73 5f e2 bc
       -0.023488875 -0.09536616 -0.074663214 -0.027633404
0003c0 13 96 f8 bd 86 73 10 3d c8 b7 0d be 7d fa 49 bc
       -0.121379994 0.03526642 -0.13839638 -0.0123277875
0003d0 eb d6 b2 bd de af ad 3b c4 2e f7 3b bd 99 bd bd
       -0.087323986 0.005300506 0.0075434167 -0.09257839
0003e0 be ea 03 be 2e 22 d1 bd 7e b3 08 3d bb 4e 05 be
       -0.12882516 -0.102115974 0.033374302 -0.13018315
0003f0 82 52 2d 39 21 56 9a bd 48 6f 41 bd 0c 80 bf bd
       0.00016529302 -0.07535959 -0.047225267 -0.09350595

net.2.bias f4 [32]
000000 f3 c0 b2 3e 89 22 57 3e f3 17 2f bd 9a f7 df bb
       0.34912834 0.21009268 -0.04274745 -0.0068349363
000010 d6 96 5f bd 4c ab a4 bd ed 89 9e 3d 33 8c a9 bd
       -0.054587208 -0.08040485 0.07741151 -0.08278694
000020 c4 ee cc 3d 24 11 4e bd bc d1 d8 bd b6 5b b8 bd
       0.100064784 -0.050309315 -0.10586879 -0.090018675
000030 d1 f4 b6 3e 7b 01 a5 bd b6 f1 67 3e 6e 96 db bb
       0.35733655 -0.08056923 0.22650799 -0.006701282
000040 54 f2 fb bd 46 2a dd bc 3f e7 0a 3d 68 96 fd bd
       -0.1230208 -0.026997697 0.03391194 -0.12382203
000050 5e 4b db bd ff 11 38 be 01 03 13 bc d9 d5 c8 bd
       -0.107077345 -0.17975615 -0.008972884 -0.09806413
000060 a6 57 06 bd 89 48 a2 bc 04 98 05 be 48 a4 02 bd
       -0.03279843 -0.019809978 -0.1304627 -0.031894952
000070 3c 77 29 bc b5 98 4d bd ce 0f b1 bd 69 9f 7b bd
       -0.010343369 -0.05019446 -0.08645593 -0.061431322

net.4.weight f4 [1, 32]
000000 6a d2 2c 3e 5a 8e 23 3e b8 91 42 bc 33 3e e4 bb
       0.16877142 0.15972272 -0.011875562 -0.0069654225
000010 a5 6d 8c bd 2e cd 1e bc cf 9f ef bd 55 2b 0a bd
       -0.068568505 -0.009692473 -0.11700403 -0.03373273
000020 8a f4 24 3d 42 d2 6e 3c 9e 83 c4 bc c9 0f e2 bb
       0.040272273 0.014576497 -0.023988541 -0.0068988544
000030 cc f6 7c 3e 59 b5 b8 bd 34 63 ef 3d ab cb 75 3b
       0.2470352 -0.09018964 0.11688843 0.0037505429
000040 8f cd 6a 3d 5a 72 07 3b 7a a1 4f 38 a8 72 0f be
       0.057324942 0.0020667524 4.9503033e-05 -0.14008582
000050 7a 66 df bd 11 b7 4a bc 9f 60 1b ba 84 2b c8 bd
       -0.10908218 -0.012372748 -0.00059271784 -0.09773925
000060 c4 a9 61 bb a4 c9 ba ba 14 6a f4 3b dc 97 b7 bc
       -0.0034433464 -0.0014250767 0.0074589346 -0.02241128
000070 9b 24 52 bc c8 ae c3 bd 0d a8 05 be 53 b8 24 3c
       -0.01282611 -0.09554821 -0.13052388 0.010053712
