Trading_Model/trading_model_GER40.pth (torch, 22272 bytes, 5 tensors)

net.0.weight f4 [64, 42]
0	0x3b3530e7	0.0027647556
1	0x3c322ebe	0.010875402
2	0x3de3778e	0.111067876
3	0x3d8b1ded	0.06792817
4	0x3d167bbc	0.036739096
5	0x3d0ea16e	0.03482192
6	0x3db110c5	0.08645777
7	0xbdfbb558	-0.12290448
8	0xbbb27d98	-0.005447101
9	0x3e094109	0.13403715
10	0x3ca47cbc	0.02007901
11	0xbd8835f3	-0.06650915
12	0xbd1a93aa	-0.03773848
13	0x3d94a924	0.072588235
14	0x3dcd01df	0.100101225
15	0x3c7d5a95	0.015463491
16	0xbe2dfbae	-0.1699054
17	0x3cd0dfb3	0.025497293
18	0x3d484cc1	0.048901323
19	0x3c6a4dea	0.014300803
20	0xbddbba33	-0.10728874
21	0x3d952ac1	0.07283545
22	0xbe06c32e	-0.13160393
23	0x3d02427e	0.031801693
24	0xbe081a05	-0.13291176
25	0xbe0aeb1d	-0.13566251
26	0xbbe7e327	-0.007076639
27	0xbe01715b	-0.12640898
28	0xbdb6a5a9	-0.08918316
29	0x3dcd077d	0.10011194
30	0xbc439588	-0.0119375065
31	0x3cd38745	0.025821337
32	0x3d688a75	0.056772668
33	0xbe2284d6	-0.15870985
34	0xbd9ea16f	-0.07745635
35	0x3e20b64b	0.15694539
36	0x3db8018d	0.08984671
37	0xbc37e0b2	-0.011223005
38	0xbdb89569	-0.09012873
39	0xbdb9bf17	-0.090696506
40	0xbdbc5c18	-0.09197253
41	0xbdaff98a	-0.08592518
42	0x3cafcd7b	0.021460285
43	0xbe0a2fb8	-0.13494766
44	0xbe1b56fa	-0.15169898
45	0xbbdbc8cc	-0.0067072865
46	0xbe1872f0	-0.14887595
47	0x3df46789	0.1193381
48	0x3d95e4ba	0.07319017
49	0xbe2842be	-0.1643171
50	0xbc973b0f	-0.018460779
51	0x3d82be5d	0.06383965
52	0x3aa40613	0.0012514017
53	0x3c95a299	0.01826601
54	0xbd041eec	-0.032256052
55	0xbe1438c8	-0.14474785
56	0xbe36c7b1	-0.17849614
57	0xbd36fdc2	-0.044675596
58	0xbd11efe2	-0.03562916
59	0x3d5480c6	0.05188062
60	0xbe037c9c	-0.12840503
61	0x3dcf87f5	0.101333536
62	0x3dd3c68c	0.10340604
63	0x3da6d372	0.08145799
64	0xbd64745b	-0.055775028
65	0x3db91a72	0.09038247
66	0x3d5a8962	0.053353675
67	0xbc17f207	-0.009274012
68	0xbde32744	-0.11091474
69	0xbda6f8f1	-0.081529506
70	0xbe21155b	-0.15730803
71	0xbccff8b1	-0.02538714
72	0xbd7fcd38	-0.06245157
73	0x3d4a09b1	0.04932565
74	0x3cd170f8	0.025566563
75	0x3dff160a	0.124553755
76	0xbdfd6c92	-0.12374224
77	0x3c3b1e00	0.011420727
78	0xbce786e3	-0.028262561
79	0xbda5b174	-0.08090487
80	0x3c844703	0.016147142
81	0xbdb6f082	-0.08932592
82	0xbd1a4723	-0.037665498
83	0xbe1af871	-0.15133835
84	0x3c205930	0.009786889
85	0x3e10cfc9	0.14141764
86	0xbcbaca7e	-0.022801634
87	0x3d054b4b	0.032542508
88	0xbcf531d2	-0.029930983
89	0x3df81c89	0.12114818
90	0xbca810ab	-0.02051576
91	0xbb78fa3a	-0.0037990944
92	0xbe1d6b5e	-0.15372989
93	0xbd6fffd2	-0.05859358
94	0xbd53fe0c	-0.05175595
95	0xbe1c867f	-0.15285681
96	0xbcf97089	-0.030449169
97	0xbc10cc2b	-0.00883774
98	0xbdc85e95	-0.09783665
99	0x3d6c93ce	0.057758145
100	0xbd6aa836	-0.057289325
101	0x3e0b0c31	0.1357887
102	0xbdb97cc0	-0.09056997
103	0x3af40a5e	0.0018618812
104	0xbdb1a367	-0.08673745
105	0x3d3b72f0	0.04576391
106	0x3e003fd6	0.12524351
107	0xbd4781f2	-0.04870791
108	0xbd5c0fc9	-0.05372599
109	0xbd7e8d11	-0.06214625
110	0xbdb93c60	-0.09044719
111	0x3de53b8e	0.11193
112	0x3c046ee7	0.008083082
113	0x3defe9d9	0.11714525
114	0x3de7f88a	0.11326702
115	0x3da744aa	0.081673935
116	0xbe08ce4e	-0.13359949
117	0xbdc49e42	-0.09600498
118	0x3e131c76	0.14366326
119	0xbdf6a261	-0.1204269
120	0x3d9baafc	0.07600972
121	0xbd0e6d80	-0.034772396
122	0xbe023ab8	-0.12717712
123	0x3d0d1c94	0.034451082
124	0x3d88fb06	0.06688504
125	0xbdba0613	-0.0908319
126	0xbe01fa29	-0.12693085
127	0x3db65623	0.08903148
128	0xbdb21364	-0.08695105
129	0x3cb88b45	0.022527346
130	0x3db0b41b	0.086281024
131	0x3d2a0e9e	0.041517846
132	0x3db63a2c	0.08897814
133	0xbdaf04e9	-0.085458584
134	0x3d87e64d	0.06635723
135	0xbd6fe2c9	-0.05856589
136	0x3ce1be4b	0.02755656
137	0x3d7cfb1f	0.061762925
138	0xbcc6f129	-0.024284916
139	0x3cb9aac6	0.022664439
140	0xbd1d4598	-0.038396448
141	0xbe1acda3	-0.15117507
142	0xbd801e1e	-0.062557444
143	0xbe1d9975	-0.1539057
144	0xbdfef62f	-0.124492995
145	0xbe148842	-0.14505103
146	0xbd13fdc7	-0.036130693
147	0x3d3baa16	0.045816503
148	0x3daf937d	0.08573053
149	0x3dd1844c	0.10230312
150	0x3c204c0d	0.009783757
151	0x3d9abdd6	0.075557396
152	0xbd8b6182	-0.068057075
153	0x3d87ee5e	0.06637262
154	0xbdd51d21	-0.104059465
155	0xbd82fc4f	-0.0639578
156	0xbe14a616	-0.14516482
157	0xbe172a10	-0.1476214
158	0xbe1c6e70	-0.15276504
159	0xbc7d98ff	-0.015478372
160	0xbd858d7b	-0.06521126
161	0xbdc164dc	-0.094430655
162	0xbc8946c2	-0.016757373
163	0x3d49dc72	0.0492825
164	0xbdbb232b	-0.09137567
165	0xbd322271	-0.043489877
166	0x3d5f90a0	0.054581285
167	0x3ca40729	0.020022945
168	0xbe0bad59	-0.13640346
169	0xbdeb2c31	-0.11483038
170	0x3d38d7f8	0.04512784
171	0x3c1d96d6	0.009618482
172	0xbd2f13ed	-0.042743612
173	0x3b6ad311	0.0035831372
174	0xbdfae514	-0.122507244
175	0xbde12b4a	-0.10994585
176	0xbdcd9a9e	-0.100392565
177	0x3d1362ed	0.035983015
178	0xbe1f277a	-0.15542403
179	0x3dbed2ee	0.093175754
180	0xbe2814ce	-0.16414186
181	0xbd85f0ea	-0.06540091
182	0xbe231dda	-0.15929356
183	0x3d0a191d	0.033715356
184	0x3d827222	0.06369425
185	0x3d43db62	0.04781664
186	0xbe109d29	-0.14122452
187	0xbe12f478	-0.1435107
188	0xbdd62ea2	-0.10458113
189	0x3d074787	0.0330272
190	0x3d352aad	0.044230152
191	0xbde9c1b6	-0.114139006
192	0xbde4013b	-0.11133047
193	0x3d04764c	0.03233938
194	0x3d914645	0.07093481
195	0x3d8f53e5	0.069984235
196	0xbc8d6db3	-0.017264223
197	0xbd9d552f	-0.07682263
198	0xbd9d920f	-0.07693874
199	0xbb033b73	-0.0020024448
200	0xbc9a7d4a	-0.01885857
201	0x3d7e4a52	0.062082596
202	0xbe265581	-0.16243555
203	0xbe1da52b	-0.15395038
204	0x3dd09e0e	0.101863965
205	0xbd36d246	-0.044634126
206	0xbe104f6f	-0.14092802
207	0x3d159b9a	0.036525346
208	0xbdafa2c1	-0.08575965
209	0xbe61443f	-0.2199869
210	0xbea41bfd	-0.32052603
211	0xbe195c23	-0.14976554
212	0xbe35e215	-0.17762025
213	0xbe39e361	-0.18153144
214	0xbe4bd156	-0.19904074
215	0xbde479ed	-0.11156068
216	0xbe5ce77f	-0.21572684
217	0x3dca6112	0.09881796
218	0x3e24842a	0.16066042
219	0x3d8673f4	0.06565085
220	0xbd7ff85b	-0.06249271
221	0x3d007e04	0.031370178
222	0xbe2e73ca	-0.17036358
223	0x3e2920e6	0.16516456
224	0xbe760a41	-0.24027349
225	0xbe06ce5c	-0.13164657
226	0xbe340676	-0.1758059
227	0xbe00833b	-0.1255006
228	0xbc1f93b9	-0.00973981
229	0xbd32d500	-0.043660164
230	0xbe198a02	-0.14994052
231	0xbbb7fd7e	-0.0056149354
232	0x3d934974	0.071917444
233	0x3de36aa2	0.11104323
234	0xbe1fb8f4	-0.15597898
235	0x3cf88c6c	0.030340396
236	0xbeab22b5	-0.33424917
237	0xbc8156dd	-0.01578849
238	0x3de4c8e9	0.11171133
239	0xbe895da7	-0.26829264
240	0xbcbef9d7	-0.023312492
241	0x3d48a0d1	0.04898149
242	0x3e1a9666	0.15096435
243	0xbde2e8e9	-0.1107958
244	0xbddb1e05	-0.10699085
245	0xbe463480	-0.19355965
246	0xbe46ee7d	-0.19426914
247	0xbea9cf03	-0.3316575
248	0xbddeeff1	-0.10885609
249	0x3d4fa3e1	0.050693396
250	0x3de852ce	0.11343919
251	0x3e164bc9	0.14677347
252	0x3c5c2eb0	0.013438866
253	0xbdb7e174	-0.08978549
254	0xbd665bb5	-0.056239802
255	0xbdd6af4b	-0.10482653

net.0.bias f4 [64]
0	0xbe008fd1	-0.12554862
1	0x3c88798e	0.016659524
2	0xbe17e51c	-0.14833492
3	0x3e0a5310	0.13508248
4	0x3e1f371d	0.15548368
5	0xbdb402ad	-0.08789573
6	0x3de758f0	0.1129626
7	0x3d5d1872	0.05397839
8	0xbbb31e2f	-0.0054662446
9	0x3e65e909	0.22452177
10	0xbcb66b41	-0.02226794
11	0xbe08b9b1	-0.13352086
12	0x3d201195	0.039079268
13	0xbd8aa469	-0.0676964
14	0xbc015f03	-0.007896188
15	0x3dd32107	0.10309034
16	0x3e50cc3b	0.20390408
17	0x3da478b0	0.08030832
18	0xbe145622	-0.14485982
19	0xbe7d8d74	-0.24760991
20	0x3df50ad5	0.11964957
21	0x3e3e7e9c	0.18602985
22	0x3e1178a5	0.14206178
23	0x3d4ec87c	0.050484166
24	0x3dffa508	0.12482649
25	0x3de2aa36	0.110676214
26	0x3d412477	0.047153916
27	0x3d9cd0f6	0.07657044
28	0xbda7c71e	-0.081922755
29	0xbde28548	-0.11060578
30	0x3e053e52	0.13012055
31	0xbdc4ea0e	-0.09614955
32	0x3dd3082f	0.10304295
33	0xbe133267	-0.14374696
34	0x3e31c6b8	0.17360961
35	0xbdab47cd	-0.08363304
36	0x3e102565	0.14076765
37	0xbd75f76c	-0.060050413
38	0x3dfda2cc	0.12384567
39	0x3e0202ca	0.12696376
40	0x3e67bd3c	0.22630781
41	0xbc8bf878	-0.017086253
42	0x3cbfbe97	0.02340631
43	0x3d665144	0.056229845
44	0xbdd1f2f6	-0.10251419
45	0xbcb68c24	-0.022283621
46	0x3e82d7ec	0.2555536
47	0xbe935de0	-0.28782558
48	0xbe22a295	-0.15882333
49	0x3d42cc58	0.04755816
50	0xbce21c4a	-0.02760138
51	0x3e73643c	0.23768705
52	0x3c597d77	0.013274542
53	0x3e134ab7	0.1438397
54	0xbb02cef9	-0.001995979
55	0xbcc536e6	-0.02407403
56	0x3d29c8ad	0.041451145
57	0xbe108381	-0.14112665
58	0x3ddc09c6	0.10744052
59	0xbdfa221f	-0.12213539
60	0xbcd9545e	-0.026529487
61	0x3e0d197c	0.13779253
62	0x3e0d4e74	0.13799459
63	0xbe255f3f	-0.16149615

net.2.weight f4 [32, 64]
0	0xbcb90a16	-0.022587817
1	0xbc7b40b8	-0.015335254
2	0x3dbf5868	0.09343034
3	0xbd783de1	-0.060605887
4	0x3db86016	0.09002702
5	0xbded86d5	-0.11597983
6	0x3d89c658	0.06727284
7	0xbe00a83f	-0.12564181
8	0xbe07752b	-0.1322829
9	0x3d8cc4ee	0.06873499
10	0x3cdeab98	0.027181432
11	0xbcc4fe8d	-0.02404716
12	0x3dd49d57	0.10381573
13	0x3d975f7d	0.0739126
14	0x3db69fa7	0.0891717
15	0x3d083ede	0.03326308
16	0x3d92b6f6	0.07163803
17	0x3d23b0e4	0.039963618
18	0xbd31af67	-0.043380167
19	0x3d21f91c	0.03954421
20	0xbc47e0eb	-0.012199621
21	0xbd073c64	-0.033016577
22	0x3c362350	0.011116818
23	0x3bb97710	0.0056599453
24	0x3a333de4	0.00068375305
25	0x3c06c989	0.008226761
26	0x3dc4d552	0.09611
27	0xbca577b2	-0.020198677
28	0xbdd13719	-0.10215587
29	0xbe03b499	-0.12861861
30	0xbd18d6a6	-0.03731408
31	0xbd1ae858	-0.037819237
32	0xbc86fc43	-0.01647771
33	0xbe0bb076	-0.13641533
34	0xbdfe9825	-0.12431363
35	0x3cdfeae0	0.027333677
36	0x3dbcf0fc	0.092256516
37	0xbde05cf0	-0.109552264
38	0xbdfbed49	-0.12301118
39	0xbdc8a429	-0.09796936
40	0xbca4e26f	-0.020127503
41	0x3dd794fe	0.10526465
42	0x3c75f541	0.015012086
43	0x3dab106b	0.08352741
44	0xbc72c7e6	-0.014818167
45	0x3d3ad4e2	0.045613177
46	0x3d4edada	0.050501682
47	0xbd9849c0	-0.07435942
48	0xbd15a633	-0.036535453
49	0x3b5da948	0.0033822823
50	0x3b635f00	0.0034694076
51	0xbe051454	-0.12996036
52	0xbd96748b	-0.073464476
53	0xbd9e40c2	-0.07727195
54	0x3c99565e	0.01871794
55	0x3cbc066b	0.02295228
56	0x3d55cd82	0.05219794
57	0x3c36a414	0.011147518
58	0xbe0c9db3	-0.13732032
59	0x3db3bac9	0.08775861
60	0x3d87ef97	0.06637495
61	0xbe155c3f	-0.1458597
62	0x3dd16dcb	0.102260195
63	0x3d589995	0.052880842
64	0xbce4cf50	-0.027930886
65	0xbdad60f0	-0.08465755
66	0xbdc0bcd8	-0.09411019
67	0x3c95f740	0.018306375
68	0xbd4e201c	-0.05032359
69	0xbd5a3f28	-0.053282887
70	0x3df4e3ac	0.119574875
71	0x3dd4ee98	0.10397071
72	0xbdbf7e1e	-0.09350227
73	0x3c811bf0	0.015760392
74	0x3d902ede	0.07040189
75	0xbd2ab3fc	-0.041675553
76	0xbdcdf6cc	-0.100568384
77	0x3dc7c060	0.097534895
78	0xbd945d88	-0.07244402
79	0xbddeba2c	-0.10875353
80	0x3dae2046	0.085022494
81	0x3cec6868	0.028858379
82	0xbd9685f4	-0.07349768
83	0xbce6b318	-0.02816157
84	0xbd24ca40	-0.040231943
85	0xbd587174	-0.052842572
86	0x3cde1238	0.027108297
87	0xbc664440	-0.014054358
88	0x3d25cc50	0.04047805
89	0x3da7c966	0.081927106
90	0x3d5f44d8	0.054509014
91	0xbcff2f10	-0.03115037
92	0xbd3ca83c	-0.04605888
93	0xbcb5ad98	-0.022177503
94	0xbcecb1e0	-0.028893411
95	0xbab1ca00	-0.0013564229
96	0xbde5697a	-0.11201759
97	0x3dd402ea	0.10352118
98	0xbdc46264	-0.09589079
99	0xbdb3fc58	-0.08788365
100	0x3d0bf6e4	0.034171
101	0x3dd91c38	0.106010854
102	0xbce57fc8	-0.028015032
103	0x3d84d5e6	0.064861104
104	0x3de0dcd0	0.10979617
105	0xbc365100	-0.01112771
106	0xbd0dcc3c	-0.0346186
107	0x3d6ae584	0.05734779
108	0xbd7e6fcc	-0.062118337
109	0x3aa01400	0.0012212992
110	0x3d05af20	0.032637715
111	0xbdb744f2	-0.08948697
112	0x3dfc7ade	0.123281226
113	0x3d526af8	0.051371545
114	0x3d04c8b4	0.032417968
115	0xbdc9fc9e	-0.09862636
116	0x3d8bc12e	0.068239555
117	0xbdfa24e0	-0.122140646
118	0x3da30ff8	0.0796203
119	0x3cef63d0	0.029222399
120	0x3d7c6ea8	0.061628968
121	0xbc5b30a0	-0.013378292
122	0xbcafe940	-0.021473527
123	0x3ca89d30	0.020582765
124	0xbd4cbbbc	-0.049983725
125	0xbde9d770	-0.114180446
126	0x3dba9440	0.09110308
127	0xbd01dcac	-0.03170459
128	0xbd4a3f69	-0.04937688
129	0xbdc7905c	-0.09744331
130	0x3ca9516d	0.02066871
131	0x3cff521a	0.031167079
132	0x3dd61111	0.10452474
133	0x3e13be20	0.14427996
134	0x3dd59bdc	0.104301184
135	0xba4ee79e	-0.000789279
136	0x3d2fd171	0.04292435
137	0x3de8b745	0.11363081
138	0x3df3555c	0.118815154
139	0x3cab943c	0.020944707
140	0x3ce3c5b9	0.027804242
141	0x3cdce778	0.026965842
142	0x3c81dfd9	0.01585381
143	0x3c713282	0.014721515
144	0x3d8be31b	0.06830426
145	0xbcbb7b6e	-0.022886004
146	0xbd66debc	-0.05636476
147	0x3d7928ee	0.06083005
148	0xbde059a7	-0.109546
149	0xbdad438f	-0.084601514
150	0x3d7bddd4	0.06149085
151	0xbe352682	-0.17690471
152	0xbd40dc64	-0.04708518
153	0xbdd99670	-0.10624397
154	0x3e1b61e0	0.15174055
155	0xbde007f0	-0.10939014
156	0xbcb23bfb	-0.021757117
157	0xbd960b68	-0.07326394
158	0xbc4c22c7	-0.012459463
159	0xbb8ff8a2	-0.004393653
160	0xbd38763a	-0.045034625
161	0xbdee2c60	-0.116295576
162	0x3d73d951	0.05953342
163	0x3d83bcd0	0.064324975
164	0x3ce5b919	0.028042363
165	0x3dc3d8f0	0.09562862
166	0x3dee5394	0.11637035
167	0xbdc812ae	-0.09769188
168	0x3e767b40	0.24070454
169	0x3c01b1a0	0.007915884
170	0x3de08989	0.10963733
171	0xbdf4b686	-0.11948876
172	0xbca53e99	-0.02017145
173	0xbd10d798	-0.035361856
174	0xbd3a1f4d	-0.045440007
175	0xbe2a5c9f	-0.16636895
176	0xbcfd491d	-0.030918652
177	0xbd3941f7	-0.045228925
178	0x3d11944c	0.035541818
179	0x3d9f80ad	0.07788215
180	0xbcc8ae34	-0.024497129
181	0x3d4b1fc3	0.049590837
182	0x3dbd9890	0.092576146
183	0x3d0c720c	0.03428845
184	0xbd38eead	-0.045149494
185	0xbd6057aa	-0.054771103
186	0xbddd02f9	-0.107915826
187	0x3dad6437	0.0846638
188	0xbb67972e	-0.0035337913
189	0xbd7d7a1f	-0.061884042
190	0x3d847044	0.064667255
191	0x3cc797dc	0.024364404
192	0x3d2f044f	0.04272872
193	0x3d2ff09c	0.042954072
194	0x3cdf092d	0.027226055
195	0x3dfd1f17	0.123594455
196	0xbcfc2fda	-0.030784536
197	0x3df7ab1c	0.120931834
198	0x3de519a1	0.11186529
199	0x3df4a212	0.11944975
200	0x3d80006b	0.0625008
201	0xbd94cd79	-0.07265753
202	0xbab0b674	-0.001348211
203	0xbcf43454	-0.029810108
204	0x3e003cdb	0.12523215
205	0xbb8b9a93	-0.00426037
206	0x3d3715be	0.04469847
207	0xbb8319d8	-0.0040008835
208	0x3dfbfedf	0.12304472
209	0xbde70172	-0.112795725
210	0xbd9c43bb	-0.07630106
211	0x3e028109	0.12744536
212	0x3c375136	0.011188796
213	0x3ceef9b1	0.029171797
214	0xbdb92ce0	-0.09041762
215	0x3db6fe4b	0.08935221
216	0xbd941a42	-0.07231571
217	0x3c0878d3	0.008329588
218	0x3ca522a1	0.020158114
219	0xbd7f09cc	-0.062265202
220	0xbd5b3c67	-0.0535244
221	0xbd3a62a0	-0.045504212
222	0xbd011eb9	-0.03152344
223	0xbcfa0438	-0.03051959
224	0x3df04ea5	0.1173375
225	0xbde3b744	-0.111189395
226	0xbdb5ebee	-0.08882891
227	0xbde84793	-0.11341777
228	0x3e58cb5c	0.21171325
229	0x3de4092c	0.11134562
230	0xbdd58eb3	-0.10427608
231	0xbddf8122	-0.10913302
232	0x3caf661d	0.021410996
233	0x3d4ccdbc	0.05000089
234	0x3d879935	0.06621019
235	0xbde9ea8a	-0.11421688
236	0xbdad59f2	-0.08464421
237	0x3d3f3991	0.04668576
238	0xbb6da164	-0.0036259526
239	0xbc1f7333	-0.0097320555
240	0x3d4b514a	0.04963807
241	0x3d27e215	0.040987093
242	0xbc99a1e9	-0.018753963
243	0xbcdbbac3	-0.026822453
244	0xbcff33fc	-0.031152718
245	0xbcdd6e50	-0.02703014
246	0x3dd0bf1e	0.10192703
247	0x3ca7c726	0.020480704
248	0xbd9a0382	-0.075202
249	0xbde6ef3c	-0.11276099
250	0xbd905b63	-0.07048681
251	0x3cc8045d	0.024416143
252	0x3da69b4f	0.081350915
253	0x3ca85c9e	0.020551976
254	0xbbdcdf0d	-0.006740457
255	0x3da67108	0.08127028

net.2.bias f4 [32]
0	0xbd02d383	-0.031939995
1	0xbddba058	-0.107239425
2	0xbe20141e	-0.15632674
3	0x3e542fa4	0.20721298
4	0x3e651e62	0.22374871
5	0xbda78d1a	-0.0818121
6	0xbd66a04b	-0.05630521
7	0xbcbd6fb0	-0.023124546
8	0x3eafa324	0.34304154
9	0x3e66cfaf	0.22540163
10	0xbcd936af	-0.026515333
11	0x3e2389c3	0.1597052
12	0xbd8464d4	-0.06464544
13	0xbdc04397	-0.09387892
14	0xbd6734f0	-0.05644697
15	0x3e4b92c9	0.19880213
16	0x3e807a18	0.2509315
17	0x3de64a29	0.11244614
18	0xbd6d6d6a	-0.057965674
19	0x3e8ad8c8	0.27118516
20	0xbce5889b	-0.02801924
21	0xbd1d24bc	-0.03836511
22	0xbd2acc2a	-0.041698612
23	0x3d9a689d	0.07539485
24	0xbd98d90f	-0.07463276
25	0xbda36049	-0.07977349
26	0x3d856f6f	0.06515395
27	0x3e805102	0.25061804
28	0x3d05e959	0.03269324
29	0xbd8347d0	-0.064101815
30	0x3e649347	0.22321807
31	0xbdc731d7	-0.09726303

net.4.weight f4 [1, 32]
0	0xbcd1aa1f	-0.025593815
1	0xbe313068	-0.17303622
2	0xbccfd2d4	-0.025369085
3	0x3e41f1c0	0.18939877
4	0x3e16310d	0.14667149
5	0x3dfd2a1e	0.12361549
6	0xbd1919ad	-0.037378002
7	0xbbe658fb	-0.0070296503
8	0x3e44a9d0	0.19205403
9	0x3e0fc96d	0.14041682
10	0xbc1dd984	-0.009634379
11	0x3d87bf46	0.066282794
12	0xbab1d026	-0.0013566061
13	0xbde6308d	-0.11239729
14	0x3e1f4fda	0.15557805
15	0x3e58220a	0.21106735
16	0x3e3d9bbf	0.18516444
17	0x3dda3726	0.1065505
18	0xbd718e37	-0.058973517
19	0x3e92bba0	0.28658772
20	0x394acd6d	0.00019340748
21	0xbdd0669e	-0.10175823
22	0xbe02644d	-0.12733574
23	0x3d85ace8	0.0652712
24	0x3ae433ab	0.0017410418
25	0xbcdf56a4	-0.027262993
26	0x3da1c892	0.07899584
27	0x3e29a7a3	0.16567855
28	0x3d3aa6d9	0.045569275
29	0xbda6c4f7	-0.08143037
30	0x3df6730a	0.12033661
31	0xbe02fe56	-0.12792334
