Trading_Model/trading_model_US30.pth (torch, 22262 bytes, 5 tensors)

net.0.weight f4 [64, 42]
000000 49 79 2e bd 08 de 15 3c 59 74 bf 3c 0d 0c b6 3d
       -0.042596135 0.009147175 0.023370909 0.08889017
000010 90 08 d9 3d f6 3c 81 3d 03 db 8b 3d 4d ed 0e be
       0.10597336 0.063104555 0.068288825 -0.1395771
000020 e1 9a c2 bd 49 77 60 3d e2 07 1d bd e5 50 5a 3d
       -0.09502197 0.05480126 -0.038337596 0.053299803
000030 ad 37 ee 3d f1 c6 dd bc 9b 2c 99 bd ed 35 20 be
       0.11631713 -0.027072402 -0.07479211 -0.15645571
000040 09 6f d1 bc f3 a5 e3 bd 69 1e 49 3c 02 5f 2c be
       -0.025565641 -0.11115637 0.012275317 -0.16833118
000050 44 9e 25 be bc f1 07 3e b7 55 f8 3d c3 88 02 bb
       -0.16173655 0.13275808 0.12125724 -0.0019917942
000060 79 18 83 bd f5 8e 52 3c 5a 6f d7 bd a6 5b 1a be
       -0.06401152 0.012851466 -0.105192855 -0.15074024
000070 e6 83 7e 3d 87 48 5b 3d 18 44 13 bb c7 df 1e be
       0.062137507 0.053535964 -0.0022471007 -0.15515052
000080 ac a2 d1 3d 03 e0 7d bd 9b 13 59 bd 75 11 a1 bc
       0.10236105 -0.061981212 -0.052997213 -0.019661644
000090 be 50 a8 bd 6b 65 ed 3d e9 a7 ca bd 4a e5 c4 bd
       -0.08218525 0.115916096 -0.098953076 -0.09614046
0000a0 b1 23 14 be 18 40 99 bc 1d 51 03 be fc ae 97 3d
       -0.1446674 -0.01870732 -0.12823911 0.074064225
0000b0 79 98 6c bd a5 71 a6 3d 90 94 ab 3c 67 2f 64 bd
       -0.057762597 0.08127145 0.020944864 -0.05570927
0000c0 4f 0c b0 3d 46 eb 5d 3c 08 84 94 bd 6f 95 28 be
       0.08596098 0.013544863 -0.072517455 -0.16463254
0000d0 3d 05 03 be 98 51 0c bd 6d ea 47 bd 83 93 dc 3d
       -0.12794967 -0.0342575 -0.04880755 0.10770323
0000e0 52 a7 09 3d 96 92 46 be 59 03 a3 3d 27 ec 0a 3c
       0.033606835 -0.19391856 0.07959623 0.008479155
0000f0 a5 9a 1d be 8b e1 ab 3d e7 7c 97 bc 05 89 46 bd
       -0.15391023 0.08392628 -0.018492175 -0.048470516
000100 7f 5b b1 bc a5 a4 31 be 11 e8 01 be 52 43 e8 3d
       -0.021650074 -0.17347963 -0.12686183 0.11340965
000110 c2 ed 3d 3d f1 7c b3 bd 5e 2e 1c be 3f da a3 3c
       0.04636932 -0.08764065 -0.15252063 0.020001529
000120 46 93 1f 3c db 5a 42 3d 32 db 86 bd 25 35 aa 3c
       0.009739703 0.047449928 -0.06584777 0.020777294
000130 a4 84 fc 3c 09 73 51 3d 0c e2 7f 3c ed 7d 51 bd
       0.030824967 0.051135097 0.015617859 -0.051145483
000140 64 05 61 3d a8 01 22 3d 78 c7 c8 3d 51 32 46 3d
       0.05493678 0.03955236 0.09803671 0.04838783
000150 b9 c9 c9 3d 21 17 3f 3d 21 0d 6c 3d fe b2 30 bd
       0.09852929 0.046652917 0.05762971 -0.04313945
000160 0a 81 2c be db a0 08 bd b0 58 e6 bd ee e9 26 3d
       -0.168461 -0.03335653 -0.112473845 0.040750436
000170 8f 19 3b 3d 70 02 9d 3d 41 84 e3 bd 10 25 9b bd
       0.04567867 0.076664805 -0.1110921 -0.075754285
000180 95 8d f1 bd 71 2a 72 bd fb 42 23 be c0 df aa bd
       -0.11794583 -0.059122507 -0.1594352 -0.08343458
000190 a5 6f 1a be 83 8d af bd f4 46 3e bd 60 6a a6 3d
       -0.15081652 -0.08571913 -0.046454385 0.08125758
0001a0 60 75 18 be a4 8f 98 bd 78 71 b9 bd 65 af 8c bd
       -0.14888525 -0.07449272 -0.090548456 -0.06869391
0001b0 5a 38 13 bd 9c 52 3a 3d 71 72 a8 3d 0d 2d a7 bd
       -0.035942413 0.04548894 0.08224953 -0.0816289
0001c0 66 a1 a0 3d b7 5f 91 3c cc 44 05 bd 2f d7 09 bc
       0.07843284 0.017745836 -0.032536313 -0.00841312
0001d0 1c dd 64 bc 05 bf 03 3e 89 58 89 3d c6 9f 42 3d
       -0.013968732 0.12865837 0.0670634 0.047515653
0001e0 e3 fe dc 3d 82 d3 ec bd d9 3c a1 3d 43 b7 4f bd
       0.10790803 -0.115637794 0.07872934 -0.05071188
0001f0 87 b9 cb bd 73 79 92 bd 57 a5 27 3e 67 e7 e9 3d
       -0.09947496 -0.07152071 0.16371666 0.114210896
000200 2d 16 ce bd 08 63 6b bd 62 10 5d bd 00 ab 05 be
       -0.100628234 -0.05746749 -0.053970702 -0.13053513
000210 9a 93 74 3d 6e 27 0c bd ae 97 fb 3c c4 7b 6c 3d
       0.059711076 -0.03421729 0.030711975 0.05773522
000220 62 12 37 3e 9f 9a f9 bd 2e eb 85 3d 56 75 ff 3c
       0.17878106 -0.12187695 0.065389976 0.03118388
000230 1e ed 18 be 20 4f a3 3d d9 50 02 be 51 7b f1 3c
       -0.14934203 0.07974076 -0.12726153 0.029477747
000240 7f 23 18 3e 5a 88 7e bd 2a 13 20 3e 9e 65 3f 3d
       0.1485729 -0.062141754 0.1563231 0.04672777
000250 45 ed 5e bb bb ea 3b 3e 8f 2a 5c 3e d0 ca 1b 3e
       -0.0034015935 0.18351261 0.2150061 0.15214086
000260 e4 6a 3a 3e 45 01 eb 3d cf 6c 36 3c ed d1 b0 3d
       0.18204838 0.114748515 0.01113434 0.0863379
000270 28 5e e6 3d 77 c9 68 bd 77 30 3b 3e 4f 35 15 3e
       0.11248428 -0.056832757 0.18280207 0.14571117
000280 ad 32 eb 3d 3f bc 3a 3e 94 be fc bc 16 ad ed 3c
       0.11484275 0.18235873 -0.030852593 0.029013198
000290 6d 68 9c bd f2 72 31 3d 94 28 3a 3e 25 29 4b 3e
       -0.07637105 0.04332251 0.18179542 0.19839914
0002a0 47 7b c9 bd c9 bf 51 be 8a 00 ef 3b aa 69 7f 3d
       -0.098379664 -0.20483316 0.0072937654 0.06235663
0002b0 2f ee dc 3c 16 bb 0f be 08 c6 f6 bd e8 4a 18 3d
       0.026969044 -0.14036211 -0.1204949 0.03718081
0002c0 d0 c7 49 bd e8 c2 2a 3d 87 5b 5c 3d e5 1d 0b be
       -0.04926282 0.041689783 0.053798225 -0.13585623
0002d0 68 6a 09 bd 96 ea c7 bd c4 00 a6 3d 90 64 10 be
       -0.033548743 -0.097615406 0.08105615 -0.14100862
0002e0 3d c3 23 be 9e af 3b 3d 29 c8 16 3d 71 80 1b 3d
       -0.15992446 0.04582178 0.03681198 0.03796429
0002f0 84 5c 89 3c 09 8e 3d 3c aa 91 fa bd c5 97 05 be
       0.016767748 0.011569508 -0.122348145 -0.13046177
000300 28 4e 1b 3e 5b 31 11 be d9 85 1d 3d ac 85 89 3d
       0.15166533 -0.14178984 0.038457725 0.06714949
000310 dc 73 da bc 19 f5 04 3e c3 ee 1a be dd 41 d2 3c
       -0.026666574 0.12984122 -0.15130143 0.025666172
000320 76 f9 df 3d b9 a1 c4 bd 7e 31 a5 3d dc 66 98 bd
       0.10936253 -0.09601159 0.080660805 -0.07441494
000330 13 49 19 bd 69 ab 30 be 23 d2 02 3e 69 bb dd 3d
       -0.037423205 -0.17252888 0.12775473 0.10826761
000340 0e 0f 11 be b5 b6 93 3d 67 67 bb 3d 4c 0f ec bd
       -0.14165899 0.07212583 0.09150582 -0.11526355
000350 85 08 75 bd 48 d9 dd bd f2 38 ef bd 24 99 76 bd
       -0.059822578 -0.10832459 -0.11680783 -0.06020464
000360 98 f7 d6 3d c0 0c f5 3d d8 fa 0e 3e 68 81 dd bd
       0.104964435 0.119653225 0.13962877 -0.10815698
000370 f1 39 e8 3d 04 2a cb bd a4 40 4b 3e b4 de 0f 3d
       0.113391764 -0.09920123 0.19848877 0.035124496
000380 48 d8 45 bd 1b d9 14 3e c5 be 86 3d ab c8 03 be
       -0.048301965 0.14535944 0.06579355 -0.12869518
000390 d6 b1 e6 3b ee 29 e8 bd 62 ce 3c 3d 01 da 00 3e
       0.0070402427 -0.113361225 0.04609526 0.12583162
0003a0 b9 ea f4 bc 64 8a 88 3c b0 7b 00 3e 85 db b7 3d
       -0.02989708 0.016667552 0.12547183 0.08977417
0003b0 c5 20 ef 3d 8d 0c 51 bd 1d c4 21 3e ee 06 32 3e
       0.11676172 -0.05103736 0.15797468 0.17385456
0003c0 7a f4 70 bd ad 76 2d 3e 2f c9 2c 3e ef 50 13 3e
       -0.0588269 0.16939802 0.1687362 0.14386342
0003d0 c5 b8 26 3d 5d be ee 3d d5 7a cf 3a 09 de de 3b
       0.040703554 0.11657403 0.0015829453 0.006801371
0003e0 e3 76 bb 3d 59 3d 86 3c 3d e7 47 3e d5 2b 23 3d
       0.09153535 0.016386675 0.19521804 0.039836723
0003f0 8f d2 f2 be 58 e4 34 bc 67 9b 3a bd c4 46 73 be
       -0.47426268 -0.0110407695 -0.04555836 -0.23757464

net.0.bias f4 [64]
000000 12 9b 8b bd 0a a6 52 3c 85 b4 04 3d ad 3b 53 3e
       -0.06816687 0.01285697 0.03239872 0.20628233
000010 12 ea 17 be b9 2c a7 3d 38 5b de 3b 28 3f 2d 3d
       -0.14835384 0.08162827 0.0067857765 0.04229656
000020 cb d1 0a be 3f 6a 1d 3e ce 39 03 be e1 b0 38 bd
       -0.13556592 0.15372561 -0.1281502 -0.04509056
000030 e9 0f ed bc f0 d9 08 be fb 16 95 3b c9 de e8 3d
       -0.02893825 -0.13364387 0.0045498586 0.11370618
000040 3d 12 f2 bd cb 06 b4 3d d1 7a f0 3d 88 20 8f 3d
       -0.11819885 0.08790358 0.11742175 0.06988627
000050 6c 2e 2a 3d 89 a8 18 bd 3f 23 f7 3d 58 15 93 3d
       0.041548178 -0.037270103 0.120672695 0.07181805
000060 0e 8e 4d bc 38 fa 47 3d fb 58 3a be 5d 84 bd bd
       -0.0125460755 0.04882261 -0.18198006 -0.09253762
000070 e5 2d a4 3c cd fe d2 3d 9d a5 d2 3d 0f 85 a5 3d
       0.020041415 0.10302506 0.102854945 0.080820195
000080 80 f0 b4 bc 54 cf 5d bd cd 50 05 3e 24 67 95 bd
       -0.022087336 -0.0541528 0.13019104 -0.07295063
000090 bb 84 ee bd 74 42 be bd 82 39 85 bd e4 7c 1f bb
       -0.1164641 -0.09290019 -0.06505109 -0.0024335915
0000a0 b9 54 89 bd 9c e9 19 3e 26 09 c7 3d da b7 e5 3d
       -0.06705613 0.15030521 0.09718542 0.112167075
0000b0 19 55 30 3c 6f 3c 04 bd 73 26 8d 3c d0 30 ba 3d
       0.010762476 -0.032284196 0.017230248 0.090913415
0000c0 b1 2a 53 3d 46 cb 62 bc 78 ac 99 bc 5f d6 17 3b
       0.051554386 -0.0138424095 -0.018758997 0.0023168547
0000d0 0a fc 09 3d 8b ea 9b 3d 36 08 1f bd 02 b2 81 3d
       0.03368763 0.07613095 -0.03882619 0.063327804
0000e0 ee 38 eb 3c 25 02 0f 3e 81 8a 9a bd 60 ed 9e bd
       0.02871367 0.13965662 -0.07545949 -0.077601194
0000f0 b6 01 b5 3d 86 62 98 3d d8 88 d0 bd 66 08 71 bb
       0.08838217 0.07440667 -0.10182351 -0.0036778687

net.2.weight f4 [32, 64]
000000 fb f7 83 3c 24 70 59 bd 6c fb ce bd 6b db 24 be
       0.016109457 -0.05308546 -0.10106549 -0.16099326
000010 d9 49 e4 bd 9a 65 33 be 60 0c 9f 3b 4e 07 c2 bb
       -0.11146898 -0.17519227 0.00485377 -0.005921281
000020 64 56 c2 bc 20 10 7e bd fe 99 c7 3d c3 18 c0 bd
       -0.023722835 -0.062027097 0.097461686 -0.09379723
000030 10 68 29 3c 66 9d 4c bc 80 4d 4f 3d 67 30 eb 3c
       0.010339752 -0.012488699 0.05061102 0.028709603
000040 5e bc d0 bc 45 63 58 3d a6 85 8e bd e0 1a 32 3d
       -0.025480445 0.052829046 -0.06959085 0.04348266
000050 3e 9f a6 bd 9c 2d 6d 3d fc bc 01 3b 56 4b a5 bc
       -0.08135842 0.057904825 0.0019796481 -0.020177525
000060 cc ed a5 bd e1 ba 9a bc 77 17 b4 bd 22 b7 e6 bd
       -0.08101997 -0.018887939 -0.08793538 -0.112653986
000070 de 6f cd bd a9 c8 c5 bb 33 4a 24 3d 39 77 92 bd
       -0.100311026 -0.0060358834 0.040109824 -0.07151646
000080 31 16 3e 3d bc 14 2b bd 48 5e db 3d 89 f8 00 bd
       0.046407882 -0.04176782 0.10711342 -0.03148702
000090 32 f5 28 be 6e 46 8c 3c de b3 36 3d e3 64 70 bd
       -0.16499785 0.017123427 0.04460513 -0.058689963
0000a0 6d 76 9d bd a6 5a fb 3c 07 22 16 be a8 89 82 3d
       -0.076886036 0.030682873 -0.14661418 0.06373912
0000b0 69 18 56 bd 1c f9 11 3d 5b a7 65 bd 2f 9c 28 be
       -0.052269373 0.03563796 -0.056067806 -0.1646583
0000c0 37 4a 1a 3d b7 a8 05 be 59 69 02 bd 31 7c ae bd
       0.037668433 -0.13052641 -0.03183875 -0.085197814
0000d0 54 d6 98 3d 43 e3 ed 3c a0 b9 7a 3c b7 1d 11 be
       0.07462755 0.02903903 0.0153030455 -0.14171492
0000e0 d3 88 2b be 1c 5e a1 3d 70 6b 5c 3c 68 60 eb bd
       -0.16751413 0.07879278 0.0134533495 -0.114929974
0000f0 c2 55 d6 3d ca 14 d8 bd 00 9e 7f 3d eb 52 64 bd
       0.10465576 -0.1055084 0.06240654 -0.05574314
000100 3a d2 73 bd e7 c7 69 bd e9 64 05 be 84 28 d0 3c
       -0.05952666 -0.057075407 -0.13026775 0.025409944
000110 5f b6 cf 3d aa cb e8 bc 50 d4 bd 3d bb d0 13 bd
       0.101422064 -0.028417427 0.09269011 -0.036087733
000120 03 57 11 be 30 33 c7 3c 54 be 03 3d 9a bc c6 bd
       -0.14193349 0.0243164 0.032163933 -0.09703942
000130 0c 8a 16 3d 03 92 9f bc 80 dd 9b bc c0 ad bc bd
       0.036752746 -0.019478804 -0.019026518 -0.09212828
000140 f1 0a 39 3d 80 f1 c5 bb 1d 7e fe 3b 34 14 75 3c
       0.04517645 -0.006040752 0.0077664987 0.01495843
000150 0c cd 3b bd f1 b3 5f bc c0 1b f1 bb 22 9b b8 bd
       -0.045849845 -0.013653741 -0.0073580444 -0.09013964
000160 01 5b 1a 3c 81 9f 22 bd 4c 30 a4 3c f8 91 d5 bd
       0.009421111 -0.039702896 0.020042561 -0.10428232
000170 8f 2d 5c 3c a0 31 bf 3d ef 76 8a bd a8 08 0c be
       0.013438596 0.09335637 -0.06760966 -0.13675177
000180 9e 33 9e bc 1e 1c c9 bd ac 87 4a bd 88 23 19 3d
       -0.019311722 -0.09819816 -0.049445793 0.0373874
000190 35 2e 80 3d 7b 64 58 3c 87 42 02 be d3 0d 7f 3c
       0.06258813 0.01320755 -0.1272069 0.015567261
0001a0 fe 9c 03 3d e4 af 09 3d cb 11 b7 bd 58 2d 6f 3d
       0.03213214 0.033615008 -0.089389406 0.058392853
0001b0 e9 78 34 3d b8 9f 68 bc 0b b0 4c bd ee 1d db bd
       0.04406062 -0.014198236 -0.049972575 -0.10699068
0001c0 09 26 f7 bd 78 2d 87 bc 7e b8 91 bd 0a 54 b7 3d
       -0.120678015 -0.016501173 -0.07115267 0.08951576
0001d0 c9 1e 4e bd c3 6a 29 b9 90 0e 44 3c 25 f4 f6 bc
       -0.050322328 -0.00016156868 0.011966363 -0.030145714
0001e0 d8 fc d1 3a 67 79 b2 3d ac 5a 37 3d d8 0a 03 3d
       0.0016020788 0.08714562 0.044764206 0.031992763
0001f0 25 c3 9c bd d2 f3 08 bd 20 75 a8 bc 7d 0a aa bb
       -0.07654408 -0.03343565 -0.020563662 -0.0051892386
000200 8c ee 3a 3d c9 f0 84 bd a8 65 4d 3d b9 c0 f7 bd
       0.045637652 -0.064912386 0.050145775 -0.12097306
000210 5c 30 8d 3d 83 8e ac bd b3 9e b1 3d 2a 8b 47 3c
       0.068939894 -0.084256195 0.086728476 0.012179175
000220 4c 53 28 3d 28 17 62 bd cc a9 10 bd 90 9b e3 3d
       0.041095063 -0.055197865 -0.03531818 0.111136556
000230 21 b8 48 bc 30 7d 01 3c 20 7a 96 bb ac a8 22 bd
       -0.012250931 0.007903382 -0.004592195 -0.03971164
000240 ea 7d 04 be c8 42 5b bd b5 0b 39 bd d2 65 45 3d
       -0.12938657 -0.053530484 -0.04517718 0.048192807
000250 84 0e 19 bd 15 61 8a bd 95 9f ec 3c f8 54 d0 3d
       -0.03736736 -0.06756798 0.028884688 0.101724565
000260 47 de 5e bd 43 05 23 bd 43 c2 70 bb 4e a6 84 bd
       -0.0544112 -0.03979994 -0.0036736883 -0.064770326
000270 ea a2 ae 3d e1 12 b5 bd 30 77 cb bd 33 ba a9 bd
       0.08527167 -0.088414915 -0.099348426 -0.08287468
000280 50 7e a1 3d d4 2c 72 3d 18 98 ef bc 4a 98 cf bd
       0.0788542 0.059124783 -0.029247329 -0.10136469
000290 35 4f 5d 3d a7 99 2c bc 2c fb 83 bd b0 3b 00 bd
       0.054030616 -0.01053468 -0.064443916 -0.031306922
0002a0 fa 98 e3 bd eb 63 2c bd 80 9b e7 3c 22 89 e7 bd
       -0.11113162 -0.042087477 0.02827239 -0.11305453
0002b0 3c d3 4d bd 43 cc 0d 3d 03 80 e9 bd de e8 b6 3d
       -0.050250277 0.034618627 -0.114013694 0.08931135
0002c0 84 5e 4d bc 9e 09 f1 3d 56 02 5d 3c 1c 3f e8 3c
       -0.012534741 0.117694125 0.013489326 0.028350405
0002d0 a0 83 10 3c b0 fe da 3d 00 ac 54 bd 74 a9 cb bb
       0.008820444 0.10693109 -0.051921844 -0.0062152687
0002e0 e0 31 ce bb f6 e8 90 bd 80 6b 35 bc 7c 28 ff bd
       -0.0062925667 -0.07075684 -0.011072993 -0.12458894
0002f0 44 2e f3 bd 73 02 85 3d 88 65 5b 3d a7 4b a1 3d
       -0.11874059 0.06494608 0.053563625 0.07875758
000300 2f 89 84 3a b2 62 a8 3d 0b 6a 4b ba 88 ba 76 bd
       0.0010111685 0.0822195 -0.0007759637 -0.060236484
000310 28 54 2a 3d b3 2f d6 bd 45 74 aa 3b 43 a0 9c ba
       0.041584164 -0.10458317 0.0052018487 -0.0011949617
000320 7d 18 86 3d bc 3b 38 3d 54 cd 01 bd a3 88 e2 3c
       0.065476395 0.044978842 -0.031689957 0.027653044
000330 62 c7 e9 bd 22 df e6 3c f6 2b f3 bd a8 02 91 3d
       -0.114149824 0.02818257 -0.11873619 0.07080585
000340 07 15 af bc c0 48 86 3b cc 63 d8 3b 05 f8 97 3d
       -0.021372331 0.004098028 0.0066036936 0.07420353
000350 14 c7 d2 3d 44 d6 70 3d 14 c8 c1 3d a7 b5 eb 3c
       0.102918774 0.05879809 0.0946199 0.028773142
000360 d1 2c 86 3d 52 16 cb 3b ac c4 5e bc 53 b4 02 be
       0.06551517 0.006197729 -0.013596695 -0.127641
000370 8b cc a9 3d 11 5b 9a 3d 8c e4 e3 bd bc b8 b1 bd
       0.082909666 0.07536901 -0.11127576 -0.086778134
000380 43 d9 6a bd 98 5e f2 3c 36 1e f7 bd 8e c6 a0 3d
       -0.057336103 0.029586121 -0.12066309 0.07850371
000390 a2 80 60 3d 7f fd 32 bd f7 e5 89 bd 9d 02 bd 3d
       0.054810174 -0.043698784 -0.067333154 0.09229014
0003a0 46 71 1b 3d 30 88 d3 bd 06 1e 56 bb 68 66 e0 bc
       0.037949823 -0.1032871 -0.0032671704 -0.027392581
0003b0 33 80 1a bb 88 10 f5 3b 86 ef a2 3c df a9 52 bc
       -0.0023574948 0.0074787773 0.019889604 -0.012857883
0003c0 56 5a 97 bc 55 20 0a bd dd 86 8d 3d 07 cb cc bd
       -0.018475693 -0.03372224 0.06910489 -0.09999662
0003d0 50 4e e7 bc 33 91 07 be 58 02 dc 3d 76 60 33 3c
       -0.028235584 -0.13238983 0.107426345 0.010948291
0003e0 84 a1 0a bd 29 9f 70 bd 84 fd ed 3d 07 cb 85 3c
       -0.03384544 -0.058745537 0.1162062 0.016332163
0003f0 bc d6 64 3d 6c 52 81 3d f8 95 af bd 39 5b 6f 3d
       0.05586885 0.06314549 -0.08573526 0.058436606

net.2.bias f4 [32]
000000 f2 d2 00 3d e9 1f 94 3d cc 6c c4 bc 7b 1d 37 3c
       0.031451173 0.07232649 -0.02397766 0.011176462
000010 14 1f d2 3d 0f 04 af bd b4 55 de bd 79 c5 b1 3d
       0.10259834 -0.08545696 -0.1085619 0.08680243
000020 e7 f1 1d 3e c1 0a af bc c4 8a 1f 3d 53 4c 3f 3e
       0.1542431 -0.021367433 0.038950697 0.18681459
000030 ba e4 1b bd 1e 80 40 3d 53 39 b0 3b 18 54 7f bd
       -0.038059928 0.046997182 0.0053779273 -0.062336057
000040 1f ba 01 be 49 25 8f bd 17 47 58 bd fa c6 ff 3d
       -0.12668656 -0.069895335 -0.05280217 0.12489124
000050 17 3e 34 3d 55 df 4d bd 5e d6 b2 3d 54 98 e4 bd
       0.044004526 -0.050261814 0.087322935 -0.11161867
000060 6e 57 54 3d 8d 67 5d bd f8 11 38 bd 97 e2 0f 3e
       0.051841192 -0.05405383 -0.04493901 0.14051281
000070 09 94 9e ba 7d 7b 1e be 34 5f 83 bd bf b9 0e bd
       -0.0012098561 -0.15476795 -0.06414643 -0.03484511

net.4.weight f4 [1, 32]
000000 9d 19 3e 3a a0 9b ce bc 04 70 a6 3d 02 df 16 bd
       0.00072517415 -0.025220692 0.08126834 -0.03683377
000010 11 e1 b4 3a 33 e5 f8 bc 78 f8 e0 bc a1 d7 3c bd
       0.0013799985 -0.030382728 -0.02746223 -0.046104077
000020 64 e9 c3 3b c0 3e 8e bc cb b4 f5 bd 4f 4d 00 3e
       0.00597875 -0.017363906 -0.11997374 0.12529491
000030 dc 0c 07 bd 11 03 90 bd 58 e6 1f 3c d1 e6 2e be
       -0.032971248 -0.07031835 0.009759508 -0.17080237
000040 1f a7 e9 ba 03 ba 96 bd 65 2d 48 bc 94 13 21 3e
       -0.0017826295 -0.07359698 -0.012217854 0.15730125
000050 3b 90 82 bd 7c b3 76 bc 42 cf 8b 3d 10 81 95 3d
       -0.06375166 -0.015057441 0.06826641 0.07300007
000060 a9 df 05 bd 20 3d 28 be e2 72 c1 bb 9d fa 5a 3d
       -0.032684002 -0.16429567 -0.0059035877 0.05346166
000070 61 65 d5 bc c6 f4 bc ba 3b ac 14 be 6b 04 c1 bd
       -0.026049318 -0.001441621 -0.14518826 -0.09424671
