Trading_Model/trading_model_EURUSD.pth (torch, 16650 bytes, 5 tensors)

net.0.weight f4 [64, 20]
-0.116365336 -0.19808775 -0.058802485 -0.038413752 -0.19926752 0.081159376 0.062018745 -0.045227233
-0.118632376 0.07762685 0.1741394 -0.0986956 0.039605193 0.032171242 -0.16816524 -0.030709086
-0.25060716 -0.051545657 0.11435325 0.115121275 0.038883653 0.031967014 -0.25423673 -0.12765689
-0.023926372 -0.23962246 -0.09117672 -0.023513544 -0.0927138 -0.22669789 -0.18883263 0.09693561
-0.051438548 0.11367575 0.10102668 -0.30395263 0.101416044 -0.13929738 0.0844228 -0.22869815
0.034282528 -0.3333734 -0.12668362 -0.22388405 -0.19832265 0.16658169 -0.09682732 -0.12543601
-0.16068152 0.094852485 -0.11447176 -0.0029244411 -0.026525408 -0.31225726 -0.04512367 -0.18125354
0.07724126 0.103913434 -0.05227438 -0.1327582 0.064213835 -0.059408173 0.0069894623 0.067388244
-0.20349915 -0.24045144 -0.056383714 0.07722313 0.23800518 -0.07019579 0.03966866 0.10182363
0.12642312 0.018522957 -0.2655835 -0.08828306 -0.6400503 -0.20438991 0.11941674 -0.29580957
-0.16361055 0.20571199 -0.19987883 -0.13535437 0.12017009 0.003289748 0.0007455907 -0.017951157
-0.015501674 0.049777735 -0.04832721 -0.18581998 0.10945369 -0.2625134 -0.22751099 -0.16277775
-0.24540925 -0.10454756 -0.10186081 0.046824627 -0.09630603 -0.11976406 -0.04888449 0.09997499
-0.1513719 0.03399697 -0.1479215 -0.07091191 -0.673552 -0.0059983865 0.14244495 0.067557625
-0.2278931 -0.551355 -0.1498477 0.06905162 -0.24460922 -0.12365181 -0.34945628 0.051294077
-0.029080346 0.016614392 -0.16293481 0.06708959 -0.20584713 -0.12772694 0.13023421 0.001256302
0.027626455 0.20778722 -0.21557622 0.007629797 -0.17783171 -0.07715562 -0.1561166 -0.02947022
0.06192261 0.06956142 -0.027680874 -0.018394113 -0.15005133 -0.092818245 -0.20953901 -0.18688726
0.10400444 -0.03794816 -0.13744491 -0.22153221 0.07016522 0.17097527 -0.1793405 -0.1577812
-0.0046191663 -0.12249509 0.13312042 0.12571132 -0.064749464 -0.21749762 0.0034160167 -0.0422747
-0.13951439 -0.10682251 -0.0019683838 -0.14080092 -0.051589638 -0.1072678 0.14632273 -0.04874347
0.03181511 0.13726857 -0.1846004 0.084427446 -0.02227123 -0.19843046 -0.07757074 -0.0052129775
0.07743722 -0.18615068 -0.13422105 -0.16772336 -0.22108373 -0.012580541 -0.08352206 -0.14532514
-0.20624204 -0.20064704 0.087961756 -0.12907843 0.13935538 0.10398827 0.0006974427 -0.23631288
-0.011839809 0.12527327 0.019311722 -0.01391875 -0.29017687 -0.15514725 -0.1440846 0.07937629
-0.041694574 0.014358093 0.022102607 0.13355055 -0.09840133 -0.0075186486 -0.0016244595 -0.14548284
0.2191096 0.19523415 -0.2089279 0.030515885 0.18289399 -0.066690564 -0.20675376 -0.1587215
-0.098678105 -0.023936963 -0.0448406 -0.13913186 0.002805353 -0.09759049 -0.006559048 0.024733925
-0.009840587 0.01430711 0.03260409 -0.053906724 -0.035245053 -0.006080973 0.11633135 0.078639604
0.0056347568 -0.16814937 0.15280513 0.031333607 0.07344921 -0.22917694 -0.052652128 -0.23302886
-0.07666799 -0.099499956 -0.13805106 -0.11118472 0.046851844 0.042643044 -0.18640427 -0.1597892
-0.10994993 0.07514208 -0.07958383 -0.0063450756 -0.04727335 0.020935833 -0.20167561 -0.13090931
00000000: f350 eebd 84d7 4abe e0da 70bd bd57 1dbd
00000010: c90c 4cbe e336 a63d 5e07 7e3d 3140 39bd
00000020: 88f5 f2bd d3fa 9e3d 9951 323e eb20 cabd
00000030: 0e39 223d fec5 033d 8233 2cbe 9f91 fbbc
00000040: 954f 80be 8a21 53bd 0932 ea3d b4c4 eb3d
00000050: 7744 1f3d d8ef 023d 512b 82be 7db8 02be
00000060: 3d01 c4bc 975f 75be dcba babd 7a9f c0bc
00000070: bce0 bdbd 7e23 68be 575d 41be 2d86 c63d
00000080: 3ab1 52bd d5ce e83d 13e7 ce3d ae9f 9bbe
00000090: 37b3 cf3d f9a3 0ebe dce5 ac3d d92f 6abe
000000a0: d66b 0c3d ebaf aabe 5ab9 01be dc41 65be
000000b0: 1815 4bbe 6494 2a3e 674d c6bd 4c72 00be
000000c0: b289 24be 0542 c23d 2c70 eabd fba7 3fbb
000000d0: d04b d9bc 2fe0 9fbe 99d3 38bd 879a 39be
000000e0: aa30 9e3d 91d0 d43d a91d 56bd c4f1 07be
000000f0: 8b82 833d fc55 73bd dc07 e53b d902 8a3d
00000100: 1562 50be e738 76be 9cf2 66bd 2927 9e3d
00000110: a1b7 733e cfc2 8fbd 9b7b 223d e888 d03d
00000120: 1075 013e 75bd 973c 8ffa 87be c0cd b4bd
00000130: 56da 23bf 974b 51be c490 f43d 5a74 97be
00000140: 8689 27be 2aa6 523e 09ad 4cbe 569a 0abe
00000150: bc1b f63d d098 573b bf73 433a 4e0e 93bc
00000160: bcfa 7dbc bde3 4b3d c1f2 45bd 9847 3ebe
00000170: 4229 e03d 2868 86be a4f8 68be 36af 26be
00000180: 904c 7bbe 081d d6bd 669c d0bd 2ecb 3f3d
00000190: 193c c5bd dc46 f5bd 1a3b 48bd b0bf cc3d
000001a0: 3c01 1bbe 6840 0b3d bc78 17be 433a 91bd
000001b0: e76d 2cbf 1d8e c4bb 17dd 113e a75b 8a3d
000001c0: cf5c 69be 9a25 0dbf ad71 19be f06a 8d3d
000001d0: d77a 7abe 293d fdbd efeb b2be bd19 523d
000001e0: e839 eebc e81a 883c 62d8 26be 4466 893d
000001f0: 97c9 52be daca 02be 1e5c 053e 80aa a43a
00000200: e050 e23c 2cc6 543e 03c0 5cbe 6003 fa3b
00000210: 8419 36be c403 9ebd 08dd 1fbe 886b f1bc
00000220: 90a2 7d3d 3876 8e3d 00c3 e2bc 40af 96bc
00000230: 0ea7 19be 7e17 bebd 6591 56be 605f 3fbe
00000240: 4800 d53d 886f 1bbd 5cbe 0cbe 57d9 62be
00000250: c8b2 8f3d 2414 2f3e 09a5 37be 6591 21be
00000260: 605c 97bb b5de fabd b850 083e 78ba 003e
00000270: 5e9b 84bd b2b7 5ebe 40df 5f3b 3c28 2dbd
00000280: dcdc 0ebe c3c5 dabd 0000 01bb 1e2e 10be
00000290: a84f 53bd 38af dbbd a0d5 153e 3ca7 47bd
000002a0: 9050 023d 2290 0c3e e307 3dbe 4ce8 ac3d
000002b0: 2872 b6bc 5b31 4bbe 68dd 9ebd a0d1 aabb
000002c0: 6897 9e3d 499e 3ebe 3e71 09be acbf 2bbe
000002d0: c663 62be 9d1e 4ebc 9d0d abbd 1dd0 14be
000002e0: 1d31 53be 6b76 4dbe 4b25 b43d 232d 04be
000002f0: 2db3 0e3e cdf7 d43d 96d4 363a 01fc 71be
00000300: c2fb 41bc a347 003e 9e33 9e3c 780b 64bc
00000310: 1092 94be ecde 1ebe ea8a 13be 0990 a23d
00000320: eec7 2abd 353e 6b3c 8710 b53c 7ac1 083e
00000330: a386 c9bd ff5e f6bb d1eb d4ba 74f9 14be
00000340: 445e 603e 76eb 473e 32f1 55be 73fc f93c
00000350: 9048 3b3e 1095 88bd 42b7 53be e487 22be
00000360: bf17 cabd 7317 c4bc c7aa 37bd 9578 0ebe
00000370: 03da 373b 86dd c7bd 48ed d6bb cd9e ca3c
00000380: 6a3a 21bc 5e68 6a3c de8b 053d 4ccd 5cbd
00000390: 1e5d 10bd e642 c7bb 213f ee3d cd0d a13d
000003a0: c4a3 b83b 592f 2cbe f378 1c3e ab57 003d
000003b0: 8a6c 963d 5cad 6abe c2a9 57bd 1e9f 6ebe
000003c0: 1b04 9dbd a2c6 cbbd 425d 0dbe d1b4 e3bd
000003d0: b8e7 3f3d 79aa 2e3d c3e0 3ebe c89f 23be
000003e0: 6e2d e1bd 17e4 993d d9fc a2bd 5aea cfbb
000003f0: b3a1 41bd a081 ab3c 0d84 4ebe 170d 06be

net.0.bias f4 [64]
-0.17416196 0.053904884 0.0140144285 0.06994102 -0.078803405 0.118708245 -0.2085437 -0.08237599
-0.05886121 0.023639107 -0.09756972 -0.1654328 0.12336606 -0.21717206 -0.23756228 -0.21758147
0.09354903 0.2669712 -0.1621936 0.11447229 -0.02689074 0.1434856 0.21646851 -0.2966555
0.30104384 -0.10132046 -0.0086394735 0.05255102 -0.090844214 -0.008992837 0.08077258 -0.010859048
-0.021380987 0.10372433 -0.09560259 -0.19211055 0.033569496 -0.03265351 -0.09252338 0.043088585
0.21420935 -0.10705573 -0.16921614 0.0841344 -0.06537995 0.05883263 -0.14531001 -0.132062
0.0679186 -0.06679332 -0.031273164 -0.13431184 -0.059646513 -0.16362792 -0.18959552 -0.13355577
-0.2163825 -0.28212017 -0.025361232 -0.22247365 -0.0103522865 0.06957474 -0.16014262 -0.15402222
00000000: 8357 32be 5ecb 5c3d c69c 653c 3d3d 8f3d
00000010: ae63 a1bd 4f1d f33d 7b8c 55be beb4 a8bd
00000020: 7418 71bd cda6 c13c a2d2 c7bd 3767 29be
00000030: 58a7 fc3d 5a62 5ebe 8743 73be adcd 5ebe
00000040: a296 bf3d 73b0 883e 1416 26be 7370 ea3d
00000050: f849 dcbc e4ed 123e eca9 5d3e 3be3 97be
00000060: 6b22 9a3e 1a81 cfbd 948c 0dbc bd3f 573d
00000070: 880c babd b156 13bc 186c a53d 26ea 31bc
00000080: 2e27 afbc 6c6d d43d 4acb c3bd a1b8 44be
00000090: 2b80 093d b0bf 05bd e67c bdbd a87d 303d
000000a0: b259 5b3e 0940 dbbd ff46 2dbe a84e ac3d
000000b0: ece5 85bd 7cfa 703d 26cc 14be 433b 07be
000000c0: e818 8b3d f0ca 88bd 4a18 00bd 0b89 09be
000000d0: e74f 74bd 148e 27be 5425 42be d8c2 08be
000000e0: 6093 5dbe 0e72 90be 5cc2 cfbc 22d0 63be
000000f0: a39c 29bc 347d 8e3d 6dfc 23be 00b8 1dbe

net.2.weight f4 [32, 64]
-0.07653445 0.05904377 -0.040285666 -0.2221359 0.08795093 -0.1713844 -0.0045507103 -0.06964576
-0.057975784 0.07612208 -0.004197104 -0.065654695 -0.088614225 -0.008746768 0.017703615 -0.021047259
-0.042307805 -0.04913953 0.1123271 -0.05959948 0.050661992 0.053470172 -0.03579795 -0.09172821
-0.042879045 0.06006619 0.406401 0.13604018 -0.028301926 0.103955746 0.057992708 0.0036975443
-0.10443331 -0.007158854 0.068173185 -0.010625604 0.26061413 -0.03108136 0.13474447 -0.16133353
0.12988381 0.093563415 0.10120586 -0.20691083 -0.09450931 0.015015261 -0.009745381 -0.09982492
-0.1203713 -0.05033262 0.030025767 0.1522195 -0.37571287 -0.0014271236 0.08587434 -0.029515062
0.093911804 0.13472618 0.03171073 0.11475695 -0.39423645 -0.06638328 0.10196846 0.14523992
-0.075396225 0.011627977 0.0074554053 -0.08251136 0.14053725 0.035041597 0.08205137 0.039500996
0.023967713 0.06060301 -0.06344838 -0.075404294 -0.10693299 0.112315215 -0.03787988 0.045756325
0.0722617 -0.24374619 0.08767737 -0.05419566 0.13512504 -0.010161444 0.088005565 0.13560306
-0.06434501 -0.07213466 -0.028003497 -0.08625699 0.063500054 0.02350086 0.22132058 0.0029749593
0.09654936 0.069063865 -0.09299374 -0.05188974 0.15387057 -0.00413683 -0.10831348 0.042048845
0.15661518 0.04437753 0.013137016 0.029789409 -0.00993716 -0.08666149 0.04355663 0.0089185005
-0.05965373 -0.06522493 0.00504508 -0.049940415 0.07747503 0.10318622 0.07122554 -0.055361923
-0.089992076 0.022501566 0.042778954 0.11155061 -0.064774945 0.01004862 -0.041012112 0.059817355
-0.04263967 -0.030527322 -0.16748865 -0.073955886 0.04408884 0.033863336 0.034995317 0.04131505
-0.018200606 0.05051707 0.09524876 0.105428 0.041435637 0.11196428 0.0023757012 0.007105042
0.013717377 -0.21604624 0.056607097 0.054944474 0.0044974624 0.1210332 0.11255108 0.029146753
-0.108923376 0.10547664 -0.042443592 0.002147001 0.023854624 -0.016303558 0.11924683 0.06370911
-0.00079206086 0.15031835 0.050606735 -0.040075675 -0.07574895 -0.03436682 -0.050466985 -0.012177542
0.18250369 -0.06494647 -0.034854278 0.05094707 -0.041452292 0.06149431 0.12476349 0.12049955
-0.06637072 0.044391394 -0.124522805 0.12563245 -0.12040639 0.008763369 0.1733763 -0.051723905
-0.10239542 -0.043383732 0.04988328 0.068097025 0.021699779 -0.03122795 0.10116392 -0.03980581
-0.08015355 0.023439279 0.054592833 0.17442624 0.109819226 -0.06227103 -0.09060925 -0.121795654
-0.016606838 0.017255962 0.12426236 0.028123526 0.10463967 0.0806524 0.024348062 0.014511981
0.032462187 -0.14227514 -0.11684378 -0.14926341 0.070037894 -0.1020056 0.11467391 -0.089656025
-0.58389103 0.00376281 0.23619622 0.008670812 0.11501825 -0.08942319 0.20746174 -0.06750893
0.08331821 -0.0842817 -0.00027522485 0.117815785 -0.016809039 -0.043211617 0.022196034 -0.0054908185
0.05520594 -0.039280057 0.0060896003 -0.2116169 -0.036999654 -0.058693543 0.026741967 0.11127303
-0.037095435 -0.11192542 0.107486725 0.13874096 -0.013212402 0.078605495 0.136948 -0.08693514
0.03631582 -0.07021991 0.04532925 -0.014891586 -0.07647792 0.0136442585 -0.058002237 -0.020568449
00000000: 18be 9cbd e1d7 713d 9502 25bd 9877 63be
00000010: 9e1f b43d 647f 2fbe 201e 95bb 70a2 8ebd
00000020: 0478 6dbd e5e5 9b3d dc87 89bb f875 86bd
00000030: 607b b5bd 9b4e 0fbc 2c07 913c 4d6b acbc
00000040: f34a 2dbd 8846 49bd c00b e63d 961e 74bd
00000050: f382 4f3d 8a03 5b3d dfa0 12bd 00dc bbbd
00000060: f0a1 2fbd f707 763d cb13 d03e 1e4e 0b3e
00000070: 71d9 e7bc c0e6 d43d c389 6d3d 8052 723b
00000080: 22e1 d5bd d294 eabb 629e 8b3d 0317 2ebc
00000090: 376f 853e 569e febc 74fa 093e 9e34 25be
000000a0: 4300 053e 2d9e bf3d 0545 cf3d 6fe0 53be
000000b0: 198e c1bd 9202 763c 17ab 1fbc 0271 ccbd
000000c0: 3a85 f6bd 9429 4ebd 99f8 f53c 6edf 1b3e
000000d0: 705d c0be 520e bbba e3de af3d 92c9 f1bc
000000e0: d554 c03d a9f5 093e 1ce3 013d b105 eb3d
000000f0: 5cd9 c9be f5f3 87bd d7d4 d03d c6b9 143e
00000100: 5669 9abd 4583 3e3c 794c f43b b7fb a8bd
00000110: ffe8 0f3e c787 0f3d 8c0a a83d cccb 213d
00000120: f057 c43c dd3a 783d 39f1 81bd 916d 9abd
00000130: afff dabd 8505 e63d ef27 1bbd fc6a 3b3d
00000140: f1fd 933d 9a98 79be 3190 b33d 45fc 5dbd
00000150: 385e 0a3e 2f7c 26bc 433c b43d 87db 0a3e
00000160: 51c7 83bd 56bb 93bd 9767 e5bc 81a7 b0bd
00000170: 510c 823d e084 c03c dda1 623e 89f7 423b
00000180: acbb c53d 5b71 8d3d 8173 bebd 568a 54bd
00000190: 3f90 1d3e 3f8e 87bb 75d3 ddbd 693b 2c3d
000001a0: bb5f 203e 37c5 353d a43c 573c eb08 f43c
000001b0: 78cf 22bc 947b b1bd 7068 323d e71e 123c
000001c0: 7857 74bd a694 85bd 3351 a53b 528e 4cbd
000001d0: 3bab 9e3d 4c53 d33d b2de 913d 2fc3 62bd
000001e0: c44d b8bd 3455 b83c fc38 2f3d a574 e43d
000001f0: baa8 84bd f8a2 243c 51fc 27bd 0b03 753d
00000200: efa6 2ebd 6f14 fabc 2582 2bbe 2f76 97bd
00000210: 8096 343d 48b4 0a3d 4057 0f3d f839 293d
00000220: 7019 95bc fdea 4e3d c811 c33d a3ea d73d
00000230: 6ab8 293d 874d e53d a7b1 1b3b 6ad1 e83b
00000240: d9be 603c 3a3b 5dbe d8dc 673d 750d 613d
00000250: 735f 933b 41e0 f73d 2e81 e63d 2cc5 ee3c
00000260: 3813 dfbd 2304 d83d 55d9 2dbd b3b4 0c3b
00000270: c66a c33c 0a8f 85bc af37 f43d ec79 823d
00000280: 4ea2 4fba 0eed 193e 0249 4f3d 6426 24bd
00000290: 4422 9bbd 39c4 0cbd 78b6 4ebd 5084 47bc
000002a0: 3fe2 3a3e a802 85bd 5cc3 0ebd e0ad 503d
000002b0: e1c9 29bd 75e1 7b3d 0084 ff3d 78c8 f63d
000002c0: 5fed 87bd c0d3 353d d005 ffbd cba5 003e
000002d0: a097 f6bd 3c94 0f3c 8f89 313e 72dc 53bd
000002e0: b1b4 d1bd 24b3 31bd 6952 4c3d 7476 8b3d
000002f0: bcc3 b13c c2d1 ffbc 072f cf3d 6b0b 23bd
00000300: 8b27 a4bd bb03 c03c bc9c 5f3d cb9c 323e
00000310: e7e8 e03d e80f 7fbd 5891 b9bd 0070 f9bd
00000320: 100b 88bc 605c 8d3c 447d fe3d 4f63 e63c
00000330: 534d d63d 162d a53d 9675 c73c a9c3 6d3c
00000340: 12f7 043d 93b0 11be cb4b efbd 82d8 18be
00000350: 0770 8f3d 50e8 d0bd 28da ea3d 949d b7bd
00000360: e279 15bf 7a99 763b 6cdd 713e 0510 0e3c
00000370: b08e eb3d 8123 b7bd da70 543e 1f42 8abd
00000380: bda2 aa3d e29b acbd 0e4c 90b9 6749 f13d
00000390: 1cb3 89bc aafe 30bd 75d4 b53c 53ec b3bb
000003a0: a01f 623d 20e4 20bd 458b c73b 1ab2 58be
000003b0: f38c 17bd a468 70bd f811 db3c 1de3 e33d
000003c0: 62f1 17bd 2839 e5bd 0022 dc3d 1c12 0e3e
000003d0: d578 58bc ebfb a03d 193c 0c3e 0d0b b2bd
000003e0: e6bf 143d 75cf 8fbd 2aab 393d d7fb 73bc
000003f0: 75a0 9cbd 2b8c 5f3c c193 6dbd 2a7f a8bc

net.2.bias f4 [32]
-0.16717702 0.19202116 0.24119294 0.03774522 -0.104311466 -0.098318905 -0.07191171 -0.08149983
-0.06016926 -0.12977783 -0.033507656 -0.018253554 0.14625469 0.27485657 -0.037074003 0.16904336
0.3245792 0.10548057 0.006236952 -0.057510085 -0.063777104 -0.100316286 -0.04196185 -0.08423211
-0.033735447 -0.03930627 -0.078285396 0.13929449 0.23295778 0.24987952 0.10530765 -0.019906579
00000000: 7430 2bbe 32a1 443e 48fb 763e bb9a 1a3d
00000010: 40a1 d5bd 6c5b c9bd 7246 93bd 62e9 a6bd
00000020: 0b74 76bd 7be4 04be 533f 09bd 7a88 95bc
00000030: cac3 153e 00ba 8c3e e9da 17bd b419 2d3e
00000040: 3f2f a63e 3206 d83d 585f cc3b b28f 6bbd
00000050: 929d 82bd a072 cdbd 30e0 2bbd e281 acbd
00000060: 2e2e 0abd 9dff 20bd 1854 a0bd 37a3 0e3e
00000070: 7c8c 6e3e 6be0 7f3e 8aab d73d 1f13 a3bc

net.4.weight f4 [1, 32]
0.11194423 0.12848043 0.12236653 -0.0997443 -0.07958675 -0.25087866 0.079635516 0.14543514
-0.006883284 -0.07745266 -0.13997845 -0.1249164 0.11384027 0.20672624 0.08236685 0.0921369
0.2441653 0.048602384 -0.003439405 -0.15993282 0.028988542 1.9741143e-05 -0.082257286 -0.004501722
0.05916351 -0.003926655 -0.059578914 0.08363754 0.18614787 0.22265428 0.054834556 0.0033699689
00000000: 0443 e53d 6090 033e 4e9b fa3d bd46 ccbd
00000010: 61fe a2bd 2b73 80be f217 a33d f3ec 143e
00000020: 2c8d e1bb 809f 9ebd 8356 0fbe 2bd4 ffbd
00000030: 1625 e93d 0bb0 533e f3af a83d 45b2 bc3d
00000040: 7806 7a3e 4b13 473d a467 61bb 6ec5 23be
00000050: 6179 ed3c c899 a537 8276 a8bd 2e83 93bb
00000060: 7055 723d 2bab 80bb 0509 74bd 294a ab3d
00000070: 8c9d 3e3e 7cff 633e 339a 603d b2da 5c3b
