Trading_Model/trading_model_EURUSD.pth (torch, 16650 bytes, 5 tensors)

net.0.weight f4 [64, 20]
-0.10919208 -0.32193437 -0.095651284 -0.17272554 -0.066958874 0.09750064 0.0024612043 -0.12874997
0.16801332 -0.24830629 -0.16566116 -0.07326342 0.07826755 0.17169161 -0.16110462 0.030667756
-0.20686054 -0.06968931 -0.09776754 0.025044397 -0.09734193 0.14832209 -0.00825752 -0.09289054
0.21158451 0.100938484 -0.1285833 -0.20884192 0.32154393 -0.073657684 -0.18448275 -0.17760026
0.09968634 0.5003376 0.3605737 -0.9181315 0.2906408 -0.069312006 -0.11428782 0.18719548
0.02410602 -0.21413195 0.031400442 -0.07180246 0.0018271735 0.18736455 -0.09286634 -0.19857135
-1.0791909 -0.23903899 0.06678461 0.18275754 0.036081772 -0.55539405 -0.3345569 0.07526947
-0.34346688 -0.11354363 -0.09865369 0.14793605 0.12507758 0.1262797 -0.091500506 0.06255388
-0.11697746 -0.038931917 -0.12883411 -0.025671717 0.09343874 0.13938549 -0.099596724 -0.058317542
0.0945378 0.026069924 -0.15115477 0.14741516 -0.022712806 0.014126871 0.14872217 -0.21840887
-0.20992902 -0.06875445 -0.2082049 0.18339086 -0.031743124 0.052348465 0.13662016 -0.17204288
-0.1873483 0.021307766 -0.06771244 0.07010198 0.05491358 -0.14450651 -0.09958453 -0.14463381
-0.10093894 -0.046999767 0.18514219 -0.18809116 0.061476976 -0.09479663 -0.17140993 -0.21931598
-0.037614387 -0.09471316 -0.05648166 0.04506648 -0.08394883 0.08103478 -0.25787744 -0.036733903
0.11801962 0.11824627 0.07397847 0.09538852 0.10437839 -0.22414115 -0.098554365 0.03514433
0.15970913 0.03426701 -0.21174987 0.019515472 -0.15372518 0.03938673 -0.17317215 -0.10433754
0.11714718 -0.100413725 -0.26635823 -0.1210942 -0.06861002 -0.12241114 0.08060461 0.08933364
0.07028295 -0.25317872 -0.12283948 0.108481266 -0.04889029 -0.06649619 -0.13683176 0.18149994
-0.09539854 -0.089719795 -0.12855096 -0.052977577 -0.46393064 -0.073295765 -0.013871985 -0.06903097
-0.23255645 -0.3684524 -0.37333727 -0.27386686 -0.123822026 -0.20732534 0.045139793 -0.054366328
-0.0587326 -0.21754663 -0.07391512 -0.07361172 -0.11672973 0.14316651 0.21030402 0.1465928
0.1939077 -0.19672832 -0.09992177 -0.021308467 0.21315014 0.029902674 -0.22678314 0.15347032
0.16287346 0.04623814 -0.103386745 -0.12817045 -0.010617044 0.110754825 -0.024906538 -0.077365205
-0.1467001 0.041616 -0.2702369 0.015544704 -0.1787914 -0.22839947 0.12831771 -0.08427412
0.05879928 -0.24665204 -0.15747617 -0.01529722 -0.019446725 -0.042389482 -0.14533657 0.07690052
-0.15455273 -0.15131648 -0.012913936 -0.13179077 -0.089456365 0.010627245 -0.19541723 -0.20947582
0.15427296 -0.073070765 0.09228663 -0.1852431 -0.15272164 0.14287739 0.033024326 -0.17686298
0.18125245 -0.23124592 -0.022175558 0.1797037 -0.31837764 0.012962004 -0.3443147 -0.031247271
-0.24922113 -0.15351532 -0.23388854 -0.082141325 -0.00035278342 -0.031022063 -0.199766 -0.16552907
-0.018671881 0.1092226 0.01508663 0.1591178 -0.26687258 -0.11915549 -0.01732014 -0.31126627
-0.06860052 0.4204097 0.019609202 0.14456442 -0.058275543 -0.15561716 0.17351553 -0.071887195
-0.7817147 0.05501894 0.034385934 -0.13298066 -0.012296049 -0.7208803 -0.3926948 -0.21927994
00000000: 19a0 dfbd 95d4 a4be d2e4 c3bd f7de 30be
00000010: bc21 89bd 6aae c73d 284c 213b 08d7 03be
00000020: af0b 2c3e 0144 7ebe 14a3 29be 220b 96bd
00000030: bd4a a03d edcf 2f3e 9cf8 24be f23a fb3c
00000040: 40d3 53be 45b9 8ebd 593a c8bd e829 cd3c
00000050: 355b c7bd bfe1 173e 8d4a 07bc 653d bebd
00000060: 9ca9 583e d6b8 ce3d 57ab 03be a8da 55be
00000070: 68a1 a43e d7d9 96bd 0ce9 3cbe d8dc 35be
00000080: 5a28 cc3d 2016 003f 1e9d b83e aa0a 6bbf
00000090: dfce 943e 74f3 8dbd bc0f eabd 2cb0 3f3e
000000a0: fd79 c53c 6845 5bbe c09d 003d 2b0d 93bd
000000b0: c57d ef3a 7edc 3f3e b530 bebd 4a56 4bbe
000000c0: ed22 8abf a3c6 74be 5fc6 883d cb24 3b3e
000000d0: 7bca 133d 4e2e 0ebf 0b4b abbe e126 9a3d
000000e0: e4da afbe 9089 e8bd f20a cabd 8c7c 173e
000000f0: 5614 003e 774f 013e 9e64 bbbd 401c 803d
00000100: e191 efbd 1377 1fbd 17ed 03be 7e4d d2bc
00000110: cf5c bf3d 12bb 0e3e 5ef9 cbbd 60de 6ebd
00000120: 099d c13d 9890 d53c 51c8 1abe 00f4 163e
00000130: 3510 babc 6474 673c a04a 183e 93a6 5fbe
00000140: a2f7 56be 22cf 8cbd aa33 55be d0ca 3b3e
00000150: 1405 02bd 586b 563d 28e6 0b3e 022c 30be
00000160: 3cd8 3fbe a08d ae3c d2ac 8abd a091 8f3d
00000170: 10ed 603d 84f9 13be f9f2 cbbd e31a 14be
00000180: 13b9 cebd d482 40bd ea95 3d3e f89a 40be
00000190: 48cf 7b3d bc24 c2bd 1686 2fbe 5e94 60be
000001a0: 8b11 1abd f9f8 c1bd 5059 67bd a197 383d
000001b0: 5ded abbd 90f5 a53d 8308 84be 4a76 16bd
000001c0: 45b4 f13d 1a2b f23d 0682 973d 0e5b c33d
000001d0: 56c4 d53d 4285 65be dfd6 c9bd 80f3 0f3d
000001e0: ca8a 233e 905b 0c3d f5d4 58be e9de 9f3c
000001f0: 226a 1dbe fb53 213d 0a54 31be ecae d5bd
00000200: dcea ef3d b6a5 cdbd 1b60 88be 3c00 f8bd
00000210: 6983 8cbd b1b2 fabd 0814 a53d 8ef4 b63d
00000220: 82f0 8f3d a4a0 81be 4493 fbbd 6d2b de3d
00000230: 2f41 48bd 282f 88bd a01d 0cbe 1fdb 393e
00000240: 4f60 c3bd 03bf b7bd dda2 03be 04ff 58bd
00000250: 5188 edbe 171c 96bd 5247 63bc 1c60 8dbd
00000260: 4723 6ebe cba5 bcbe 1026 bfbe 4738 8cbe
00000270: 6796 fdbd 184d 54be 81e4 383d 3aaf 5ebd
00000280: 9891 70bd 8bc4 5ebe cf60 97bd bec1 96bd
00000290: ff0f efbd 3e9a 123e f059 573e 6c1c 163e
000002a0: bd8f 463e 2673 49be c9a3 ccbd 188f aebc
000002b0: 0844 5a3e 74f6 f43c d739 68be 5327 1d3e
000002c0: 4dc8 263e 3464 3d3d 6ebc d3bd 1d3f 03be
000002d0: 1cf3 2dbc 6dd3 e23d cc08 ccbc a671 9ebd
000002e0: 8d38 16be 8a75 2a3d 7e5c 8abe 37af 7e3c
000002f0: 1815 37be 8de1 69be b865 033e e997 acbd
00000300: 84d7 703d 5a92 7cbe 6f41 21be 31a1 7abc
00000310: bd4e 9fbc 98a0 2dbd 1cd3 14be 057e 9d3d
00000320: 1243 1ebe b5f2 1abe f994 53bc 29f4 06be
00000330: e634 b7bd e51d 2e3c 741b 48be d480 56be
00000340: bbf9 1d3e 20a6 95bd c600 bd3d 5eb0 3dbe
00000350: 1063 1cbe 734e 123e 8444 073d 921b 35be
00000360: 3e9a 393e bbcb 6cbe 84a9 b5bc 3f04 383e
00000370: 6502 a3be 965e 543c 044a b0be 47fa ffbc
00000380: d333 7fbe 1f33 1dbe 7a80 6fbe b639 a8bd
00000390: caf5 b8b9 fb21 febc 758f 4cbe 7480 29be
000003a0: c6f5 98bc 19b0 df3d ea2d 773c c7ef 223e
000003b0: 86a3 88be cb07 f4bd f7e2 8dbc 4b5e 9fbe
000003c0: 6e7e 8cbd f13f d73e 7aa3 a03c b208 143e
000003d0: 56b2 6ebd 1b5a 1fbe 0eae 313e 9839 93bd
000003e0: 741e 48bf 8a5b 613d 44d8 0c3d 152c 08be
000003f0: 5e75 49bc 9d8b 38bf 4b0f c9be ec8a 60be

net.0.bias f4 [64]
0.03427327 -0.2650442 0.29034045 -0.26152635 -0.17424177 -0.08368543 -0.18487313 0.13703786
-0.19606616 -0.057755932 -0.0811627 0.044569362 -0.11983364 -0.17064768 -0.19812572 0.23981158
-0.1316403 -0.04964467 0.1845976 0.045366846 -0.13616902 -0.0328214 -0.2668863 -0.20860213
0.08992201 0.17887214 -0.04079361 -0.053396367 -0.06357031 0.124567695 0.004088924 -0.21651657
-0.014420681 0.022394001 0.07635616 -0.05109387 0.29638138 -0.226033 -0.07065794 0.20076948
-0.0803977 -0.1569887 0.054377295 0.034396235 -0.1062062 -0.003927812 0.048293136 -0.20319605
0.022902353 -0.009768742 0.1460733 -0.19426072 -0.06757651 0.100196145 -0.055401906 0.1267004
-0.1249563 0.029656684 -0.25545833 -0.15724075 -0.053215764 0.16546768 -0.17200089 -0.002756816
00000000: 2162 0c3d e0b3 87be 81a7 943e c8e6 85be
00000010: 6f6c 32be 4463 abbd 624f 3dbe a753 0c3e
00000020: 91c5 48be 7c91 6cbd a138 a6bd 5d8e 363d
00000030: 576b f5bd 44be 2ebe 78e1 4abe 2b91 753e
00000040: b7cc 06be 3658 4bbd 2707 3d3e 96d2 393d
00000050: e46f 0bbe bb6f 06bd 52a5 88be cc9b 55be
00000060: 0829 b83d 422a 373e 3317 27bd 26b6 5abd
00000070: 2731 82bd 591d ff3d 61fc 853b 85b6 5dbe
00000080: b844 6cbc a073 b73c 9e60 9c3d ce47 51bd
00000090: 4dbf 973e 3275 67be 1cb5 90bd 8496 4d3e
000000a0: 8da7 a4bd a5c1 20be baba 5e3d 11e3 0c3d
000000b0: a382 d9bd e0b4 80bb 06cf 453d a012 50be
000000c0: b79d bb3c 130d 20bc 3d94 153e 48ec 46be
000000d0: 8e65 8abd a333 cd3d 1ced 62bd c0bd 013e
000000e0: 17e9 ffbd 93f2 f23c 6fcb 82be b803 21be
000000f0: c6f8 59bd 5c70 293e 0021 30be b3ab 34bb

net.2.weight f4 [32, 64]
0.054970894 -0.2335071 0.001479983 -0.009773845 -0.11844407 0.061856415 -0.0038462088 0.018361578
-0.008763077 0.025408413 0.123035684 0.056258067 -0.065954864 -0.0114361495 -0.06907334 0.36201572
0.10625763 0.048419923 0.11972492 -0.04306091 0.016898638 0.10848318 0.00068455277 -0.07539064
0.08291228 -0.037262846 -0.024887241 -0.17957005 0.026411163 0.059896365 0.03939625 0.08630561
0.3616752 0.049856372 0.8024624 0.014298978 0.099541366 -0.16163458 0.080857076 -0.07557446
-0.044641297 0.049015615 0.035509497 0.26055098 0.07750318 0.033868954 -0.027440153 0.46185482
0.0080175325 0.02553541 -0.08800283 0.020719139 -0.09858513 0.0071008285 0.1004932 0.026764136
0.05645389 0.09537244 0.12884621 -0.06468503 0.02104442 -0.08705207 0.022867503 0.0031755327
-0.15406595 0.2666582 -0.13159694 0.08253433 -0.10240191 0.014774248 0.044047747 -0.05070593
-0.071144246 -0.13194814 0.11287576 -0.14812918 -0.14038414 0.07692048 0.0579245 0.031592388
-0.018763315 -0.043951947 -0.23924766 -0.12570453 -0.020266151 0.07367513 -0.088757336 -0.07425207
-0.014161832 -0.021608446 -0.025669383 -0.13720797 0.08724959 -0.10364706 -0.43960857 0.018972047
-0.08486437 0.086611904 0.030965652 -0.05534577 -0.6490996 0.15014112 -0.1220007 -0.20131072
0.0746552 0.022279292 -0.08313689 -0.0915243 -0.1293418 0.10297184 -0.24702354 0.090464115
-0.004151047 -0.054442946 -0.16828156 0.09439882 -0.12602368 -0.012887351 -0.0072633713 -0.10210368
0.00795471 -0.050460465 0.028947975 0.08428751 -0.108241506 -0.32612938 -0.097332776 -0.104351826
-0.015358174 -0.107316315 0.020606339 0.06215137 0.040577665 0.02678195 0.07621605 -0.09474482
-0.024480587 0.007817751 -0.06811145 0.016321857 0.05858 -0.05845353 0.10989838 -0.00849398
-0.07066983 0.036929462 -0.038119685 0.052872043 -0.09591365 0.07545986 -0.03115108 -0.040243357
-0.06699876 -0.015898978 0.07604404 0.09064464 -0.0066174716 0.048322007 -0.09933293 0.026593698
-0.123542815 -0.019135969 -0.09692503 -0.044385012 -0.06084725 -0.025117725 0.036419 -0.005534619
-0.03584141 -0.060961366 -0.0034069333 -0.13025069 -0.058530096 0.11114158 0.016842335 0.06350114
0.106931105 0.06321695 -0.08195033 -0.10797539 0.0034714295 0.05603575 -0.06537724 0.03912574
0.10435253 0.061126392 -0.111919805 -0.038277015 -0.113785245 0.06431852 0.041458704 0.0040871426
-0.1262817 -0.041290794 0.06270244 -0.09867492 -0.04919322 -0.016096428 -0.023687245 0.089929685
-0.035047993 0.090271756 0.1187778 0.11253916 -0.030616334 0.008344412 -0.084382884 -0.04280913
-0.08300071 -0.055024713 0.025588872 -0.07009658 -0.090008326 -0.020999616 0.06506572 -0.043427154
-0.09067482 -0.06304281 -0.0683656 0.07726914 0.07085026 -0.10736805 -0.04547183 0.11546371
-0.13309468 -0.05375035 -0.028881472 -0.027798912 -0.09380823 -0.074235894 0.10470712 -0.09109482
0.09496386 0.02056944 0.071383804 0.107326284 0.109733514 0.11752711 0.0004693828 -0.13171063
0.094195925 -0.016462682 -0.021308748 0.0124484 0.0034713927 0.009364892 0.04410663 -0.12778282
0.08858055 0.0704179 -0.11071094 0.09458046 -0.11185799 -0.0592526 0.105322406 0.05081308
00000000: 2929 613d 7c1c 6fbe fdfb c13a 7a22 20bc
00000010: ce92 f2bd 275d 7d3d ad10 7cbb 056b 963c
00000020: 0293 0fbc 4e25 d03c 22fa fb3d dc6e 663d
00000030: 5813 87bd b05e 3bbc 5376 8dbd 205a b93e
00000040: 9a9d d93d f853 463d 5732 f53d a360 30bd
00000050: 036f 8a3c 6e2c de3d 8f73 333a 6866 9abd
00000060: eacd a93d eda0 18bd 54e0 cbbc 36e1 37be
00000070: 395c d83c e455 753d f65d 213d ffc0 b03d
00000080: 7e2d b93e 3236 4c3d 2d6e 4d3f 4346 6a3c
00000090: 58dc cb3d 8983 25be 6598 a53d c8c6 9abd
000000a0: cbd9 36bd 99c4 483d 6872 113d f066 853e
000000b0: fdb9 9e3d 2cba 0a3d 2cca e0bc 3c78 ec3e
000000c0: f85b 033c a32f d13c d43a b4bd 2fbb a93c
000000d0: 00e7 c9bd 11ae e83b 61cf cd3d 7640 db3c
000000e0: 323c 673d a052 c33d 43f0 033e 9679 84bd
000000f0: 5965 ac3c 5b48 b2bd a154 bb3c 991c 503b
00000100: 77c3 1dbe 6c87 883e 59c1 06be c207 a93d
00000110: 18b8 d1bd b00f 723c 696b 343d 05b1 4fbd
00000120: 13b4 91bd 6a1d 07be 682b e73d 2daf 17be
00000130: dcc0 0fbe 7c88 9d3d 3e42 6d3d 0567 013d
00000140: 86b5 99bc f506 34bd 57fd 74be b0b8 00be
00000150: 3305 a6bc fde2 963d 68c6 b5bd 7811 98bd
00000160: 0707 68bc 3204 b1bc 9948 d2bc 3f80 0cbe
00000170: eaaf b23d e944 d4bd 6014 e1be 446b 9b3c
00000180: 5fcd adbd 9561 b13d aeab fd3c 3fb2 62bd
00000190: 642b 26bf 98be 193e 81db f9bd 6624 4ebe
000001a0: d3e4 983d 1083 b63c ac43 aabd 1871 bbbd
000001b0: 2d72 04be e6e2 d23d bdf3 7cbe 4045 b93d
000001c0: 8205 88bb 91ff 5ebd 0052 2cbe 2b54 c13d
000001d0: 5a0c 01be 7825 53bc 9301 eebb bc1b d1bd
000001e0: 7954 023c a2af 4ebd 4e24 ed3c ee9e ac3d
000001f0: b9ad ddbd 6efa a6be 6856 c7bd 69b6 d5bd
00000200: daa0 7bbc a8c8 dbbd a0ce a83c 6f92 7e3d
00000210: c434 263d d265 db3c 2917 9c3d 9209 c2bd
00000220: 838b c8bc 0616 003c 047e 8bbd 6ab5 853c
00000230: 95f1 6f3d f86c 6fbd 6712 e13d 562a 0bbc
00000240: 58bb 90bd 5943 173d 6323 1cbd 5b90 583d
00000250: 606e c4bd b38a 9a3d 8d30 ffbc 38d6 24bd
00000260: a536 89bd 933e 82bc fabc 9b3d e6a3 b93d
00000270: 60d7 d8bb 4ced 453d 106f cbbd 07db d93c
00000280: 0404 fdbd 09c3 9cbc a180 c6bd 0fcd 35bd
00000290: f73a 79bd b0c3 cdbc 172c 153d c05b b5bb
000002a0: 71ce 12bd a0b2 79bd db46 5fbb 7060 05be
000002b0: 41bd 6fbd 329e e33d f0f8 893c e30c 823d
000002c0: b2fe da3d e377 813d 93d5 a7bd 3422 ddbd
000002d0: ec80 633b be85 653d 81e4 85bd 5042 203d
000002e0: c7b6 d53d ab5f 7a3d 3636 e5bd 5cc8 1cbd
000002f0: 3d08 e9bd 6eb9 833d 9ad0 293d 70ed 853b
00000300: fd4f 01be 8920 29bd 236a 803d 1416 cabd
00000310: d47e 49bd a8dc 83bc c10b c2bc 0e2d b83d
00000320: 7c8e 0fbd 66e0 b83d c641 f33d ee7a e63d
00000330: 1bcf fabc 00b7 083c efd0 acbd a058 2fbd
00000340: 47fc a9bd 9861 61bd c19f d13c cc8e 8fbd
00000350: 4956 b8bd 6307 acbc 2d41 853d ace0 31bd
00000360: b8b3 b9bd 971c 81bd 4403 8cbd 483f 9e3d
00000370: f119 913d c8e3 dbbd ab40 3abd 3d78 ec3d
00000380: f949 08be 5429 5cbd d698 ecbc 8bba e3bc
00000390: 871e c0bd fd08 98bd b070 d63d ec8f babd
000003a0: 6a7c c23d 3e81 a83c ac31 923d e2cd db3d
000003b0: f7bb e03d 0eb2 f03d 7e17 f639 27df 06be
000003c0: cbe9 c03d bfdc 86bc af8f aebc 60f4 4b3c
000003d0: 4e80 633b 346f 193c 27a9 343d 80d9 02be
000003e0: b869 b53d 4337 903d 6bbc e2bd 66b3 c13d
000003f0: cd15 e5bd dbb2 72bd 46b3 d73d 6021 503d

net.2.bias f4 [32]
0.23968616 0.07402128 -0.114655085 -0.08304739 -0.03404937 -0.04612491 -0.04687734 -0.013772305
-0.07004013 -0.056823615 0.19485523 -0.032764733 0.24581821 -0.11818585 -0.08708923 -0.122767374
-0.0846391 -0.015249427 0.13412407 -0.093653515 0.13037682 -0.105478555 -0.005822704 -0.07865842
-0.045308903 -0.09332346 0.24901254 -0.027227866 -0.0022061546 -0.14621206 0.25911608 -0.0929364
00000000: 4a70 753e 7898 973d 49d0 eabd c014 aabd
00000010: 5a77 0bbd 79ed 3cbd 7402 40bd 3ca5 61bc
00000020: 3371 8fbd e1bf 68bd 2188 473e 5034 06bd
00000030: c5b7 7b3e 6c0b f2bd d75b b2bd 766d fbbd
00000040: 4457 adbd bcd8 79bc d257 093e 6acd bfbd
00000050: 8081 053e 2405 d8bd 62cc bebb aa17 a1bd
00000060: d495 39bd 5f20 bfbd 25fd 7e3e f90c dfbc
00000070: 2295 10bb 9db8 15be ddaa 843e 7055 bebd

net.4.weight f4 [1, 32]
0.19508173 -0.100733064 -0.10643784 -0.08673114 -0.06907256 0.010295251 0.12513705 0.00085571787
-0.011727725 -0.0230253 0.1138584 -0.023956032 0.18167135 0.006718591 -0.02419573 -0.035686348
-0.04385438 -0.007674658 0.08043393 0.003494004 0.100490995 -0.29075897 -0.08979947 -0.095332414
-0.042464484 0.013395275 0.19376695 0.035354625 0.0034610904 -0.035617746 0.15790293 0.011702481
00000000: 81c3 473e 234d cebd 15fc d9bd 19a0 b1bd
00000010: ea75 8dbd 6aad 283c ed23 003e 4152 603a
00000020: a525 40bc 8e9f bcbc 982e e93d 713f c4bc
00000030: 0e08 3a3e a027 dc3b 2036 c6bc d92b 12bd
00000040: a6a0 33bd b37b fbbb 8bba a43d a9fb 643b
00000050: 39ce cd3d 5cde 94be c9e8 b7bd a43d c3bd
00000060: 3def 2dbd db77 5b3c d86a 463e 03d0 103d
00000070: 76d3 623b eae3 11bd 4eb1 213e c3bb 3f3c
