Trading_Model/trading_model_AUDUSD.pth (torch, 16650 bytes, 5 tensors)

net.0.weight f4 [64, 20]
0	0x3bbc430c	0.0057452973
1	0xbc09afbc	-0.008403715
2	0x3b50dbe7	0.0031869353
3	0xbe547359	-0.20747127
4	0xbe20d92b	-0.15707843
5	0xbd82f1fc	-0.06393811
6	0xbe7d4e05	-0.24736793
7	0xbc33d2d3	-0.010975557
8	0xbdfdb24d	-0.12387524
9	0x3e7a1c24	0.24424797
10	0x3e781226	0.24225673
11	0x3d9d847e	0.076912865
12	0x3e054350	0.13013959
13	0xbcec1ef3	-0.028823351
14	0xbe99b756	-0.30022687
15	0x3e9d5cce	0.30734867
16	0xbe234b5b	-0.15946715
17	0x3bd3b47c	0.0064607244
18	0xbdc75294	-0.097325474
19	0x3dba3e27	0.09093886
20	0x3dac0901	0.08400155
21	0xbe8bfb85	-0.27340332
22	0xbe47701c	-0.1947636
23	0x3e24fdc6	0.16112432
24	0xbd9a0380	-0.07520199
25	0xbe6c1711	-0.23055674
26	0x3e4899e0	0.19589949
27	0xbe471615	-0.19442017
28	0x3d92d8a5	0.07170228
29	0xbe1ac6a9	-0.15114845
30	0xbcbc29b2	-0.0229691
31	0x3d0acfbd	0.03388952
32	0x3cf0ab1d	0.029378468
33	0xbde7bff9	-0.11315913
34	0xbe93639f	-0.28786942
35	0x3df18b09	0.11794097
36	0xbd3398aa	-0.043846764
37	0xbe0b9e02	-0.13634494
38	0x3e45b71a	0.19308129
39	0x3d100dc9	0.035169397
40	0xbe16d69c	-0.14730304
41	0x3db95862	0.09050061
42	0x3d831ee6	0.06402378
43	0x3d81afb6	0.06332342
44	0x3d990d08	0.07473189
45	0xbe7c846d	-0.24659891
46	0xbd56e63d	-0.052465666
47	0x3dc16b4f	0.094442956
48	0xbdcb80b5	-0.09936658
49	0xbd52ba9f	-0.051447507
50	0x3c68ddd9	0.014213049
51	0xbcc98d8e	-0.024603631
52	0x3d6bb32f	0.05754393
53	0x3d28c517	0.041203585
54	0x3d2d8454	0.042362526
55	0x3def5a64	0.116871625
56	0xbd6bdac7	-0.05758169
57	0x3c3ec78f	0.011644258
58	0xbd3d8264	-0.04626693
59	0xbe8e528e	-0.2779736
60	0xbc54bfdd	-0.012985197
61	0xbd94ba2f	-0.07262074
62	0x3debe301	0.11517907
63	0x39b1bed9	0.00033902263
64	0x3d69afbd	0.057052363
65	0x3c6e8d45	0.0145600485
66	0xbd7357d2	-0.059409924
67	0xbe704e82	-0.23467448
68	0xbd62ef59	-0.05540404
69	0xbdbd5590	-0.092448354
70	0xbe70a497	-0.23500286
71	0x3d539d3f	0.051663633
72	0xbdad41f2	-0.08459844
73	0x3e2bca22	0.16776326
74	0x3e2c6a6e	0.16837475
75	0xbe4f5991	-0.2024901
76	0x3e0a7bd9	0.13523807
77	0xbbf841c7	-0.0075762006
78	0x3d9acd79	0.07558722
79	0xbe57dbfe	-0.21080014
80	0xbd8b7298	-0.068089664
81	0xbd8b4a0f	-0.06801235
82	0xbd97450c	-0.073862165
83	0xbdf323b0	-0.11872041
84	0xbe4bb302	-0.19892505
85	0xbdfdb0ba	-0.123872235
86	0xbd760a80	-0.060068607
87	0xbe873b0b	-0.26412234
88	0x3de40f21	0.11135698
89	0xbbc4150b	-0.005983954
90	0xbce7396c	-0.028225623
91	0x3e2f90ad	0.17145033
92	0xbd747912	-0.059685774
93	0x3e107fef	0.14111303
94	0xbe0ac4bb	-0.13551609
95	0xbd41c356	-0.047305427
96	0xbe7f0053	-0.24902467
97	0xbe2e2f3f	-0.1701021
98	0xbdb4d506	-0.088296935
99	0xbe8c7dbe	-0.27439684
100	0x3d096650	0.03354484
101	0x3c9ad2e8	0.018899396
102	0xbce1fec8	-0.02758731
103	0xbe49fc9e	-0.19725272
104	0xbd7512c8	-0.059832364
105	0x3da3fa9c	0.08006784
106	0x3e03fd58	0.12889612
107	0xbdc3f0b8	-0.09567398
108	0x3d8ef350	0.06980002
109	0x3d0bde28	0.03414741
110	0x3e062e8e	0.13103697
111	0xbe43a992	-0.19107655
112	0x3e559784	0.2085858
113	0xbe4b2558	-0.19838464
114	0x3e06402e	0.1311042
115	0xbc9e0d60	-0.019293487
116	0xbd8f83f0	-0.07007587
117	0xbe333df2	-0.17504099
118	0x3cab5d78	0.020918593
119	0x3e35aa90	0.17740846
120	0xbe19dc50	-0.15025449
121	0x3e02af43	0.1276217
122	0xbe05370e	-0.13009283
123	0xbdaa2eb7	-0.083096914
124	0x3e394661	0.18093254
125	0x3e0e7d43	0.13914971
126	0x3d427416	0.04747399
127	0x3e19c4e9	0.15016522
128	0xbe49e9e8	-0.19718134
129	0x3cb32534	0.021868326
130	0xbe1bea03	-0.15225987
131	0xbe55e141	-0.20886709
132	0xbe4d4325	-0.20045145
133	0x39b3a177	0.0003426184
134	0xbe665e16	-0.22496828
135	0xbd8a33df	-0.06748175
136	0xbd7c2ab0	-0.061564147
137	0x3e00a6d9	0.12563647
138	0x3e062d02	0.13103107
139	0xbe45092f	-0.19241785
140	0xbe3b93dc	-0.18318123
141	0x3d41b7d1	0.04729444
142	0x3d2b8dc1	0.041883234
143	0xbd185141	-0.037186865
144	0xbe546ca2	-0.20744565
145	0x3dac1a25	0.08403424
146	0x3e1bcbd1	0.15214469
147	0xbe2025ea	-0.15639463
148	0x3db353d6	0.08756225
149	0xbcede600	-0.029040337
150	0x3e0f9091	0.14019991
151	0xbc83d36f	-0.01609203
152	0xbe618c03	-0.22026066
153	0x3cdd95b8	0.02704893
154	0xbdb14e0e	-0.08657466
155	0xbc89106c	-0.016731463
156	0xbdb24d02	-0.08706094
157	0xbc8c1bbc	-0.017103069
158	0x3dbc24ae	0.091866836
159	0x3da569dc	0.08076832
160	0x3bada7f1	0.005299561
161	0x3d6a5bf4	0.0572166
162	0xbe40680d	-0.18789692
163	0x3ce0a024	0.027420111
164	0x3e164094	0.14673072
165	0xbe2d55eb	-0.16927306
166	0xbe46d32f	-0.19416498
167	0x3d4d8a0e	0.050180487
168	0x3e08c317	0.13355671
169	0x3dc72cb2	0.09725322
170	0x3d8914c6	0.06693415
171	0x3e1ff513	0.15620832
172	0xbe6bf03d	-0.23040862
173	0xbe3ee12e	-0.18640587
174	0xbe4fe4f8	-0.20302188
175	0xbe63e723	-0.2225614
176	0x3cfa49e5	0.030552814
177	0x3d16ef0f	0.036849078
178	0xbe37497a	-0.17899123
179	0xbe591ca4	-0.21202332
180	0xbd1051dd	-0.03523432
181	0xbf148ac0	-0.58024216
182	0xbf8340e8	-1.0254183
183	0xbdaff531	-0.085916884
184	0xbe426dd3	-0.18987207
185	0xbe3c96db	-0.18416922
186	0x3dd864c3	0.10566094
187	0x3e0dfed7	0.13866745
188	0x3f12b49d	0.57306844
189	0xbda2e668	-0.07954103
190	0xbdc7b54a	-0.09751375
191	0xbb7d7064	-0.0038671726
192	0x3e1fad4c	0.15593451
193	0xbcea34ad	-0.02858957
194	0xbf8d29dd	-1.1028401
195	0x3eabce9b	0.33556065
196	0x3d257daa	0.040403046
197	0x3e8cb2da	0.27480203
198	0xbe161f5f	-0.14660405
199	0xbda28b84	-0.07936767
200	0xbe7e7c56	-0.24852118
201	0xbe4425b9	-0.19155015
202	0xbe365176	-0.17804512
203	0x3d604343	0.054751646
204	0xbe930fab	-0.2872289
205	0x3dd1b02b	0.102386795
206	0x3e19d2f3	0.15021877
207	0x3d4c3a3f	0.049860235
208	0xbd553aa3	-0.052057873
209	0xbe808438	-0.25100875
210	0x3d47cf82	0.04878188
211	0x3e1666b2	0.14687613
212	0x3dc1f646	0.09470801
213	0xbcb13254	-0.021630444
214	0xbddf7fc8	-0.10913044
215	0xbe2525b9	-0.16127671
216	0xbe49bd9d	-0.19701238
217	0xbe0f59bf	-0.13999079
218	0xbd1d117e	-0.03834676
219	0xbc1a4f7a	-0.009418363
220	0x3c70c56f	0.014695509
221	0x3c0c8c27	0.008578337
222	0x3d18a134	0.03726311
223	0xbdf0e7b1	-0.11762942
224	0x3df02012	0.11724867
225	0x3d3fcedf	0.046828147
226	0xbe396e1c	-0.1810841
227	0x3d41dbd5	0.04732879
228	0xbe399954	-0.18124896
229	0x3dada705	0.08479122
230	0xbcdf996f	-0.027294843
231	0x3d51f4a6	0.051258706
232	0x3cb0185a	0.021495987
233	0xbe282094	-0.16418678
234	0xbe47dbaf	-0.19517396
235	0xbe1e3d04	-0.15452963
236	0xbc9180b6	-0.01776157
237	0xbe4af53c	-0.19820112
238	0x3e179c1b	0.14805643
239	0x3e08937c	0.13337511
240	0xbe9125ea	-0.2834924
241	0xbe63f448	-0.22261155
242	0x3df82883	0.12117102
243	0xbc76fbae	-0.015074654
244	0xbe25688e	-0.16153166
245	0x3e0a4782	0.1350384
246	0x3ce2077d	0.027591461
247	0xbd2cf4a5	-0.0422255
248	0xbdc32525	-0.09528569
249	0xbdfc8e07	-0.12331777
250	0xbe16d570	-0.14729857
251	0xbe365c29	-0.17808594
252	0x3a874965	0.0010321556
253	0x3c4d9fb3	0.012550282
254	0xbd6c1a6e	-0.057642393
255	0xbe6f9cba	-0.2339963

net.0.bias f4 [64]
0	0x3ea1193a	0.3146456
1	0xbe0e463b	-0.13893978
2	0xbe2bb9fc	-0.16770166
3	0xbe34a56e	-0.17641231
4	0x3db00854	0.085953385
5	0xbe54ae50	-0.2076962
6	0xbdc08486	-0.09400277
7	0xbe3b3676	-0.18282494
8	0x3c0dbcd1	0.008650974
9	0x3e69a442	0.22816566
10	0xbdc612d0	-0.09671557
11	0xbe4c8527	-0.19972669
12	0x3d569e71	0.052397195
13	0xbe63d4b4	-0.22249109
14	0x3d011cd2	0.031521626
15	0xbe43021c	-0.19043773
16	0xbe4299a7	-0.19003926
17	0xbcf5056e	-0.029909816
18	0xbdf2c664	-0.11854246
19	0x3d225c55	0.039638836
20	0xbe07483e	-0.13211152
21	0xbc4d363a	-0.012525136
22	0xbe06f2a7	-0.13178502
23	0x3dc88c5b	0.09792396
24	0xbe4a9bd0	-0.19786
25	0x3d8a87dd	0.06764195
26	0x3de4fa45	0.111805476
27	0xbe03b4b8	-0.12861907
28	0xbe375dea	-0.17906919
29	0x3dddeb44	0.10835889
30	0xbe1f66b0	-0.15566516
31	0xbe44cf25	-0.19219644
32	0xbe537c8a	-0.20652977
33	0x3c16eff5	0.009212484
34	0xbe1c8431	-0.15284802
35	0xbe42f11a	-0.19037285
36	0x3e14bda2	0.14525464
37	0xbe02d69f	-0.12777184
38	0xbe1297ed	-0.14315768
39	0x3e389df4	0.18029004
40	0xbe3204dc	-0.17384666
41	0x3d01cc5d	0.031689037
42	0xbc964983	-0.0183456
43	0xbe4bdccb	-0.19908445
44	0xbc23388f	-0.009962215
45	0xbdf7b598	-0.12095183
46	0xbc1e64ac	-0.009667557
47	0xbdf2824d	-0.11841259
48	0xbe412bd5	-0.18864377
49	0xbe2730e8	-0.1632725
50	0x3d6a8615	0.057256777
51	0xbce5dcc7	-0.028059376
52	0xbe7261e7	-0.2367016
53	0x3da5054b	0.0805765
54	0x3dbf580b	0.09342965
55	0x3badfab1	0.0053094258
56	0xbdb33be0	-0.087516546
57	0x3d16a4ad	0.03677814
58	0x3e4b7d2b	0.19871967
59	0x3c878265	0.01654167
60	0x3ae8de1d	0.001776639
61	0xbdf01746	-0.11723189
62	0xbcbecd56	-0.023291271
63	0x3dcc5c3d	0.099785306

net.2.weight f4 [32, 64]
0	0xbdb41add	-0.08794186
1	0x3dbe204d	0.09283505
2	0x3add3d9a	0.0016879321
3	0x3d89fab2	0.067372695
4	0x3deb814a	0.11499269
5	0x3dfb92aa	0.12283833
6	0xbc9a6309	-0.018846052
7	0x3dfa5371	0.122229464
8	0xbdac956d	-0.08426938
9	0x3cd5329c	0.026025109
10	0xbdc63bc0	-0.09679365
11	0x3d591e09	0.05300716
12	0x3e09d4a1	0.13460018
13	0xbd922514	-0.07135978
14	0x3dd5e18c	0.1044341
15	0x3ca7563d	0.020426864
16	0x3d2f6668	0.04282227
17	0x3dfcd325	0.1234496
18	0xbcb2441a	-0.021760989
19	0x3de372d5	0.11105887
20	0x3dadd9d0	0.0848881
21	0x3d09ba85	0.033625145
22	0xbda9ca09	-0.08290488
23	0xbd905a56	-0.0704848
24	0x3d891980	0.06694317
25	0xbe90c275	-0.2827336
26	0x3dbde193	0.092715405
27	0xbe79f3c3	-0.24409394
28	0xbda4f082	-0.08053686
29	0xbd86dd69	-0.065851994
30	0x3db21f0a	0.086973265
31	0xbdf2e524	-0.11860111
32	0x3c0a4f75	0.008441796
33	0xbd7fa446	-0.062412523
34	0x3e064a04	0.13114172
35	0xbc8e60c0	-0.017380118
36	0xbcfe278b	-0.031024715
37	0x3d6f568c	0.058432147
38	0x3deddc3e	0.116142735
39	0xbcca4936	-0.024693113
40	0xbd24a7eb	-0.0401992
41	0x3ce9b4e5	0.02852864
42	0xbd8d34fa	-0.0689487
43	0x3cc404c8	0.023928061
44	0x3c19a8e9	0.00937865
45	0xbd3c037f	-0.04590177
46	0xbd90054a	-0.07032259
47	0x3dd19d9b	0.10235139
48	0xbdec23d2	-0.1153027
49	0x3d9c99ed	0.076465465
50	0x3d79ebbc	0.06101583
51	0x3ace061b	0.0015718372
52	0x3d42ddf7	0.047574963
53	0xbd20bc2e	-0.039241962
54	0xbd937d84	-0.072016746
55	0xbdbf1adf	-0.09331297
56	0x3ece9922	0.40351206
57	0xbdde8455	-0.10865084
58	0x3e1c1fb0	0.15246463
59	0xbd4e3956	-0.05034765
60	0x3dae3ec3	0.085080646
61	0x3df90c88	0.12160593
62	0xbb2cb4be	-0.0026352848
63	0x3de737ce	0.11289941
64	0xbc170357	-0.009217105
65	0xbc804a28	-0.01566036
66	0x3d081937	0.03322717
67	0xbd9d7cf5	-0.07689849
68	0xbde2c2e8	-0.11072332
69	0xbdeeb03a	-0.11654706
70	0x3dc4bffa	0.09606929
71	0xbdd7a9ef	-0.10530459
72	0x3d1bb1e4	0.038011447
73	0x3d5e26a4	0.05423607
74	0xbcf5820a	-0.029969234
75	0xbc2bf1fe	-0.010494707
76	0x3df13994	0.1177856
77	0x3df77ee4	0.12084749
78	0x3d608709	0.05481628
79	0x3db408b9	0.08790726
80	0x3d7cfc44	0.061764017
81	0x3d2b3ff1	0.041809026
82	0x3d4cc123	0.049988877
83	0xbd84fdd5	-0.06493727
84	0xbc61d170	-0.013782844
85	0xbc9d1ae4	-0.019177862
86	0xbc370f5c	-0.011173096
87	0x3c903140	0.01760161
88	0xbd0d42f0	-0.034487665
89	0xbdfaad1e	-0.12240051
90	0xbe18abc1	-0.14909269
91	0xbdb31103	-0.08743479
92	0x3df066e2	0.11738373
93	0x3df3415b	0.118777
94	0xbdb68664	-0.08912352
95	0xbc755970	-0.014974937
96	0x3dc274b8	0.094949186
97	0x3ca982d6	0.02069227
98	0xbdac5d75	-0.08416263
99	0x3b1b6f40	0.0023717433
100	0x3d1073b0	0.03526658
101	0xbdd2402e	-0.102661476
102	0xbde293d8	-0.11063355
103	0x3c9a4bc3	0.018834954
104	0xbcd2d113	-0.02573446
105	0x3c26b69e	0.010175375
106	0x3ca46615	0.020068208
107	0x3beacd60	0.007165596
108	0xbd0c40b0	-0.03424138
109	0xbd5429b2	-0.051797576
110	0xbd17ec33	-0.03709049
111	0x3d6737af	0.05644959
112	0x3d51aa78	0.051187962
113	0xbd97420b	-0.073856436
114	0xbd53888d	-0.051643897
115	0x3d8b6a6c	0.06807408
116	0x3b9c25d0	0.00476525
117	0x3dc26190	0.09491265
118	0xbd8170f3	-0.063203715
119	0x3dfdaae2	0.12386109
120	0x3c1289d2	0.008943992
121	0xbe5acc09	-0.21366896
122	0x3e0e7a9a	0.13913956
123	0xbdf1f2a4	-0.11813858
124	0xbe187906	-0.14889917
125	0xbdf43631	-0.11924399
126	0xbdac9e46	-0.08428626
127	0xbdeae5ac	-0.11469588
128	0x3dab5d13	0.08367362
129	0xbd263f41	-0.040587667
130	0xbde7da71	-0.11320961
131	0x39d560a0	0.00040698517
132	0xbd87ae11	-0.066249974
133	0xbbcb1c20	-0.006198421
134	0x3bc517ac	0.006014785
135	0xbda7f548	-0.082010806
136	0xbd9522b2	-0.07282008
137	0x3bd8f494	0.006620953
138	0x3cbbb690	0.022914201
139	0x3d9d89d3	0.076923035
140	0x3d23e5e3	0.04001416
141	0x3d457018	0.048202604
142	0x3d7cff60	0.061766982
143	0x3ba37ea1	0.0049894606
144	0xbda0c40e	-0.078498945
145	0x3cb23b24	0.021756716
146	0x3c0ec68c	0.008714329
147	0x3d8a70a4	0.06759766
148	0x3da31602	0.07963182
149	0x3dd55ce4	0.10418108
150	0x3d4c1f2d	0.04983442
151	0xbe6d4786	-0.23171815
152	0xbcac7688	-0.021052614
153	0xbe4a453c	-0.19752973
154	0xbd63155c	-0.05544029
155	0xbdb08749	-0.086195536
156	0xbdc3d69d	-0.095624186
157	0x3de4c86a	0.111710384
158	0x3cb75670	0.022380084
159	0xbdcc0eb6	-0.099637434
160	0xbda02594	-0.078196675
161	0x3d492734	0.049109653
162	0x3ddbd052	0.10733093
163	0x3d5b9c40	0.05361581
164	0xbc8aa8e2	-0.016926233
165	0x3d9d1fad	0.07672057
166	0x3d8aa39b	0.067694865
167	0xbe596c30	-0.21232677
168	0xbda1a771	-0.07893265
169	0x3d230edd	0.039809097
170	0x3d5ba86e	0.053627424
171	0x3daad2c8	0.083409846
172	0xbc517fa5	-0.0127867805
173	0x3df7124a	0.12064035
174	0x3e15541c	0.14582866
175	0xbd94e220	-0.072696924
176	0x3d210450	0.039310753
177	0xbd93c4a2	-0.07215239
178	0xbdb77689	-0.08958156
179	0xbcfb7518	-0.030695483
180	0xbd677cc0	-0.056515455
181	0xbd45cb5a	-0.048289634
182	0xba9a4d5a	-0.001177232
183	0x3d3e92d1	0.046526734
184	0x3ea55bae	0.3229651
185	0xbe0595a6	-0.13045368
186	0x3eb555d9	0.3541706
187	0xbd162856	-0.03665956
188	0xbcdc756b	-0.026911458
189	0xbd0bef13	-0.034163546
190	0xbced5713	-0.028972184
191	0xbd4003b5	-0.046878535
192	0xbe215381	-0.1575451
193	0xbdbbb3a1	-0.09165121
194	0x3d514ebb	0.051100474
195	0x3cbf4540	0.02334845
196	0x3c455c51	0.012045936
197	0xbde44830	-0.11146581
198	0xbd1d44f5	-0.03839584
199	0x3d861133	0.06546249
200	0x3d041de7	0.03225508
201	0xbdf04d1d	-0.11733458
202	0x3c29e5c0	0.010369718
203	0x3d16a15e	0.036774985
204	0x3d4f1bb1	0.050563518
205	0x3bb372c0	0.0054763258
206	0xbcbbf1a4	-0.022942372
207	0xbbbb936e	-0.005724362
208	0xbd6b8ad4	-0.057505444
209	0xbd4a35d4	-0.04936774
210	0xbde60a67	-0.11232453
211	0xbd9a5d65	-0.07537345
212	0xbd53ee10	-0.051740706
213	0x3d936a52	0.07198013
214	0xbd94f66c	-0.07273564
215	0xbdd95ba9	-0.10613186
216	0xbd246788	-0.040137798
217	0x3cc55076	0.024086218
218	0xbe0acf38	-0.1355561
219	0xb98141d2	-0.00024653837
220	0x3dc9be7c	0.09850785
221	0xbd11bc8b	-0.0355802
222	0xbde9e8f4	-0.114213854
223	0xbd06db88	-0.032924205
224	0xbc248865	-0.010042285
225	0x3cc120d0	0.023575217
226	0xbcd323d6	-0.025773924
227	0xbd697e18	-0.057005018
228	0xbd18ede4	-0.037336245
229	0x3db2c91f	0.08729767
230	0xbd990cab	-0.07473119
231	0xbd7bf1ec	-0.06151001
232	0xbcb0a55b	-0.021563223
233	0xbd782a5b	-0.06058727
234	0x3c978939	0.01849805
235	0x3db06acc	0.0861412
236	0xbdeeb115	-0.116548695
237	0xbe166b26	-0.14689311
238	0xbd47689f	-0.04868376
239	0xbdefb91c	-0.11705229
240	0x3c34eb20	0.011042386
241	0x3d8576b4	0.065167814
242	0xbe0f1f04	-0.13976675
243	0xbdd12eb1	-0.10213984
244	0xbde61f72	-0.112364665
245	0xbd4e5142	-0.050370462
246	0xbde1a0fa	-0.11017032
247	0xbdc9e223	-0.09857585
248	0x3d9accd2	0.075585976
249	0xbe00a27c	-0.12561983
250	0xbdde1c82	-0.10845281
251	0xbdbe78f2	-0.09300412
252	0xbda5f614	-0.08103576
253	0x3d186d79	0.037213776
254	0xbdbe2788	-0.09284884
255	0xbddac520	-0.1068213

net.2.bias f4 [32]
0	0x3db9a58d	0.090647794
1	0xbd844215	-0.06457917
2	0x3e21dea7	0.15807591
3	0xbd0fb1ab	-0.035081547
4	0xbdded14d	-0.10879765
5	0x3e47c339	0.19508065
6	0x3e735fbe	0.23766991
7	0xbd98a4fc	-0.07453343
8	0xbdb12fe9	-0.08651716
9	0x3e2e48ff	0.17020033
10	0x3e4e90ab	0.20172374
11	0xbdb8472e	-0.089979514
12	0x3e1d0945	0.15335567
13	0xbc7174a2	-0.01473728
14	0xbdc86874	-0.09785548
15	0xbcaa6d54	-0.020804085
16	0xbcabbcbc	-0.020964019
17	0x38f0713c	0.00011465183
18	0xbd9e2856	-0.07722537
19	0xbcf57393	-0.029962337
20	0xbe2277ae	-0.15865967
21	0x3e0d527b	0.13800995
22	0xbcada058	-0.021194622
23	0xbe278e62	-0.16362908
24	0xbc43a044	-0.011940066
25	0xbc93f6da	-0.018062044
26	0x3d17d816	0.03707131
27	0xbd97ee31	-0.07418478
28	0xbbdebc01	-0.006797314
29	0x3e479be7	0.19493066
30	0x3e196e14	0.14983398
31	0xbe052c98	-0.13005292

net.4.weight f4 [1, 32]
0	0x3d6a444f	0.05719405
1	0xbc2c954b	-0.010533641
2	0x3dfedfd2	0.12445034
3	0xbd4addf8	-0.049528092
4	0xbca766ae	-0.020434704
5	0x3e032ed8	0.12810838
6	0x3e46c1e4	0.19409901
7	0xbe16e48c	-0.14735621
8	0xbd72d05b	-0.059280735
9	0x3e26337f	0.16230582
10	0x3e2cb4e2	0.16865876
11	0xbbc3e0fb	-0.0059777475
12	0x3e12f1c4	0.14350039
13	0xbdc76af4	-0.097371966
14	0x3e49796a	0.19675222
15	0x3d1c5288	0.038164645
16	0xbdba56e0	-0.09098601
17	0x3e18678a	0.14883247
18	0xbddb3ac4	-0.10704568
19	0xbcd611a8	-0.026131466
20	0x3c7f3e3b	0.015578802
21	0x3dcb1349	0.09915788
22	0x3bc5deba	0.006038514
23	0x3c7edde6	0.015555834
24	0xbd09962e	-0.033590488
25	0xbbd5f237	-0.0065291184
26	0xbe8af642	-0.27141005
27	0x3c337b36	0.010954669
28	0xbd1fcbc0	-0.03901267
29	0x3e0a2bc5	0.13493259
30	0x3ddcc01e	0.10778831
31	0xbc9fae45	-0.019492278
