Trading_Model/trading_model_AUDUSD.pth (torch, 16650 bytes, 5 tensors)

net.0.weight f4 [64, 20]
00000000: d13e b13d f8ba 2fbd 34b8 763d fc9a b0bd
00000010: 525b f43d 1bdb c73b 23d3 2c3d 1669 143d
00000020: bd5e 5bbd ae45 88bd 86df 0cbd 8ae9 a6bd
00000030: c976 29be 5ea8 28be ac20 1e3e c69d 683d
00000040: 4d1d 3abb ecbc bcbd 01bf e8bd 4d36 043d
00000050: 21a3 ce3c 2457 83bd 53cb 38be f6eb 51be
00000060: d446 c6bd 1a19 37be fef9 50be 72ab 77be
00000070: 7089 343e 9ae0 803c baf5 b93d fcfd f63d
00000080: 952c 573d b91c 783e 4e9e a33d 11c2 a0be
00000090: fab8 d43d 1c4c 51bb 5d9c dd3d 0c52 7fbd
000000a0: 1c62 1cbe a81a 2cbe 7519 19be a26b 82bc
000000b0: 26bd 20be 5f4b d33d 58dc 26be 2870 afbd
000000c0: 3d6f bfbd 278c 923d 1316 07be cb57 f03c
000000d0: 169c 863d dcab fa3b 8e6f 2abe 4240 4fbd
000000e0: ec14 9f3c 2894 463c e90a b3bd f071 ccbc
000000f0: 4b0f f33d 34c6 50bd 9d32 97bd 3ce1 6abb
00000100: ffa9 83bd 1f38 963c 085f 993d 0205 953d
00000110: 4137 9a3d 03f5 5e3d 9936 febd 18d5 1cbe
00000120: 6e89 08be 1300 9bbd b6f4 b1bc d466 64be
00000130: f92d 0dbd 7e78 43be d128 1abd 0b23 083e
00000140: 8ff2 06be 9d93 1fbe c09b de3c 9e83 afbd
00000150: 1d1e 1ebe aa3a 1dbb 52bb 033e c5a2 443d
00000160: 79a6 05be 19aa 40be 2398 ee3d 2cb9 f43d
00000170: ca4b bcbc 8496 3abd d362 253e 500c 7ebd
00000180: 7619 5bbe 2230 53be 46e6 a8bc 9022 2bbe
00000190: 860e adbd 7826 b4be bb4f 9cbc 9607 11be
000001a0: afe0 483d a79a 8dbe 1010 09be 2efd 963d
000001b0: f77c 343e 3f44 32be fdf9 9f3d 9c86 74be
000001c0: 4942 a83d b31f 87bd a4a5 c93c 7923 98be
000001d0: 93aa 73be b6d5 5ebe 5951 8f3d 850c 47bd
000001e0: 03f1 883e c917 2e3e ede0 b4bf 611d 85be
000001f0: a8e6 b13d ced0 99be 94c3 80bd 9cf4 42bd
00000200: 5bb0 a23e 2b89 97be 6e57 18bc b69f 7ebe
00000210: feda edbd aa68 11bd fd58 89bc 409c 213e
00000220: 4b96 50be 49b2 2dbf 4139 3f3e 54f2 9bbf
00000230: 3399 2ebe 1713 e63d c461 003e 5393 92bd
00000240: 8674 4bbd 6779 88be 3f79 85be 5fff 93be
00000250: 2675 c6bc 3ba3 8c3c 9d10 563d 68b6 d1bd
00000260: 518a 8f3d cba3 d9bd b2ac 94bd 2d89 c53d
00000270: aec4 e63c 64e0 1abe 5c80 36bd 9641 87be
00000280: eb31 a6bd 65f5 a4be 1e28 613e c321 f3be
00000290: ee5f 1cbf 8c74 09bf 9970 0abf 4031 43bf
000002a0: f8d1 7f3e ba8a 61bf b44c 02bf ec88 56bf
000002b0: a663 18bf df63 673e 9087 10bf 806e 933e
000002c0: 64a7 07be d0b2 3abe 3530 52be 3d27 1e3e
000002d0: e6c6 853d 95cb 25be b127 7ebe 717c c7bd
000002e0: d6d1 dbbd 1c4f 6abd 1121 b1bc 838e 26bd
000002f0: 8347 ce3d 604b aebd 06cd 7abc 0d5f 90bc
00000300: b8eb 83be bf14 afbd 2b9c 37bd 11d7 523d
00000310: b00a 07bd f4e2 c6bd ec88 3d3d 842f a03b
00000320: 92f7 bfbd b9ba 6ebe 4965 153d bb03 283d
00000330: 81c8 58bd 9264 033e 887b 18be 044f 22be
00000340: 44cc 84be 91dc 873d 5c97 fbbd 9182 10be
00000350: 88ad 7dbd 7403 273e dd90 bbbd e795 cfbd
00000360: 1839 b2bd 095b 86be 23af ccbc 0554 81bd
00000370: f8df a9bd 6dfb dbbd 4412 7fbd c12b 0abd
00000380: 4de1 11bd 0582 7f3c 669c 69be ceba d43d
00000390: 4e53 693e ff89 a3bd 8137 41be 9b0b 84be
000003a0: 57fb ccbd 74a3 c9bd 1142 83be f7e5 3b3d
000003b0: cbbc 04be d9c1 28be 04a0 a1bd fb11 a2bd
000003c0: 4fd0 bf3d 8734 48be 7e14 5cbd e308 d0bd
000003d0: db88 a43d 40f8 73be 83b8 d4bd b570 ea3d
000003e0: 162b 183e 8c47 7dbd 32ad 93bd 65b4 dbbc
000003f0: 4742 af3d 0ba4 513e b4a2 7bbd 7610 47be
0.086545594 -0.042902917 0.060234264 -0.08623311 0.119314805 0.0060991175 0.042193543 0.03623303
-0.053557146 -0.06653915 -0.034392856 -0.08150013 -0.16549219 -0.16470477 0.15442151 0.05679109
-0.0028398812 -0.092157215 -0.11364556 0.032278348 0.02522427 -0.06413105 -0.18046312 -0.20500168
-0.09681478 -0.17880669 -0.20407864 -0.24186495 0.17630553 0.015732098 0.09080072 0.120601624
0.05253275 0.24229707 0.079891786 -0.3139806 0.10386844 -0.0031936234 0.108208396 -0.062334105
-0.15271801 -0.16807044 -0.14951117 -0.015920464 -0.15697154 0.1031711 -0.16294992 -0.08566314
-0.09347389 0.07155638 -0.13192014 0.029338738 0.0657274 0.0076498818 -0.16644117 -0.05059839
0.019419156 0.012120284 -0.08742315 -0.024956673 0.11868151 -0.05097027 -0.073827006 -0.0035839817
-0.064289086 0.018337307 0.07488829 0.07276346 0.0753007 0.05443288 -0.124127574 -0.15315664
-0.13333675 -0.075683735 -0.021723133 -0.22304851 -0.03446767 -0.19088933 -0.03763658 0.13294618
-0.13178466 -0.15583654 0.027173877 -0.08570026 -0.15441175 -0.0023991265 0.12864426 0.04800679
-0.13051786 -0.18814887 0.116501115 0.11949381 -0.022985358 -0.0455537 0.1615098 -0.06202346
-0.21396431 -0.2062383 -0.020617615 -0.16712403 -0.08450036 -0.351856 -0.019080987 -0.1416305
0.0490424 -0.27657053 -0.13385034 0.07372509 0.17625795 -0.17408846 0.07811353 -0.23879474
0.08215768 -0.06597843 0.024615116 -0.29714563 -0.23795538 -0.21761212 0.06997938 -0.048595924
0.26746377 0.17001261 -1.4131142 -0.25998977 0.08686572 -0.30042118 -0.062873036 -0.04759656
0.31775174 -0.29596838 -0.009298189 -0.24865612 -0.11614035 -0.035500206 -0.016766066 0.15782261
-0.20369832 -0.67850167 0.18674184 -1.2183328 -0.17050628 0.1123411 0.12537295 -0.07157006
-0.049671672 -0.26655123 -0.26069066 -0.2890577 -0.024225783 0.017167678 0.052261937 -0.10239869
0.07008804 -0.10626944 -0.072595015 0.09645305 0.028169956 -0.1512466 -0.044556007 -0.26417226
-0.0811499 -0.3221847 0.2198796 -0.47486696 -0.6108388 -0.5369346 -0.5407806 -0.76247025
0.2498244 -0.88102305 -0.5089829 -0.83802676 -0.5952705 0.22596692 -0.5645685 0.28795242
-0.13247448 -0.18232274 -0.20526202 0.15444656 0.065320775 -0.16190942 -0.24819829 -0.09740532
-0.107333824 -0.05720435 -0.021622213 -0.040663254 0.100722335 -0.085104704 -0.01530767 -0.017623449
-0.25765777 -0.08548879 -0.044826668 0.051474635 -0.032969177 -0.097112566 0.046273157 0.004888477
-0.09373392 -0.23313417 0.036473546 0.041019183 -0.05292559 0.12831333 -0.14890873 -0.15850455
-0.25937092 0.066338666 -0.12284729 -0.14112307 -0.06193307 0.16309911 -0.0915849 -0.101360135
-0.08702296 -0.2624133 -0.024985855 -0.063148536 -0.08294672 -0.10741315 -0.06227328 -0.033733133
-0.035615254 0.015594964 -0.22813568 0.10387193 0.22785684 -0.07985305 -0.1886883 -0.25790104
-0.10008877 -0.09845629 -0.25636342 0.04587361 -0.12962644 -0.16480197 -0.07891849 -0.07913586
0.093659036 -0.19551288 -0.05373048 -0.10157945 0.080339156 -0.23825169 -0.10386755 0.114472784
0.14860186 -0.06183581 -0.07210769 -0.026819417 0.08557563 0.20472734 -0.061434463 -0.19439873

net.0.bias f4 [64]
00000000: 17d8 10be 9304 44be 4bb5 893d 8f2c 34bd
00000010: 9275 7f3d 7d30 df3d 3678 5c3c 444e 14be
00000020: 92e9 cc3d 7130 28bd 2327 0c3e c78c e83d
00000030: a405 71bd 4093 8c3d e0cc a33e b4cc d9bd
00000040: 93e4 c03c 43fe 84be f500 a33d 6cc4 4e3e
00000050: bd11 983e 1d18 cdbc cc7d 26be dd1b 1f3e
00000060: 375e 41be ae28 77be d80d a4bd b569 1cbd
00000070: 760c 3dbe 277e 9abd 0f94 3ebe d947 8a3c
00000080: effa 0cbe d196 65be eb9e 4abc 4f28 873e
00000090: 1cd2 a23d 9557 503d 1b1e e93c 6743 e0bd
000000a0: 767e 993c 9fb7 c43e dc97 c7bd 4c51 1fbe
000000b0: e24f c0bd a88e d23d 9aeb 40be d185 d6bd
000000c0: ff55 36be 03e3 63bd 1cb8 6ebc fc01 2b3e
000000d0: f6f5 4a3e a089 c63c dcc4 48bd cb89 233e
000000e0: 40f8 623b 22b0 0abe 682c d43c c501 4bbd
000000f0: a12a 63be e0e4 4b3d 2f23 943e ce7f 463d
-0.14144932 -0.1914237 0.06724032 -0.043987807 0.062367983 0.1089792 0.013456395 -0.14482981
0.100054875 -0.041061822 0.13686804 0.11354976 -0.05884327 0.06864023 0.31992245 -0.10634747
0.023546493 -0.25975236 0.07959167 0.20192116 0.29701033 -0.025035912 -0.16258925 0.15537973
-0.18883596 -0.24136612 -0.08010453 -0.038186748 -0.18461785 -0.07543593 -0.18611167 0.016879963
-0.13767599 -0.22420813 -0.012366991 0.2639794 0.079502314 0.050864775 0.028456738 -0.10950356
0.01873706 0.38421342 -0.09745762 -0.15558356 -0.093902364 0.10281116 -0.18839875 -0.10474742
-0.17806242 -0.055636417 -0.014570262 0.16699976 0.19820389 0.024235547 -0.049015865 0.15970533
0.0034632832 -0.13543752 0.02590008 -0.049562234 -0.2218423 0.04977882 0.28933093 0.048461728

net.2.weight f4 [32, 64]
00000000: 159e 013e 9d6f 7d3d 2d1c 90bd 52ca c5bc
00000010: e114 9e3d 095e f43d 317d e23e 29d9 8bbd
00000020: c902 583e 5b68 dcbc 9605 1b3d 731f aaba
00000030: e56c 5cbd 5eef bd3c 0681 18be eab6 283d
00000040: 1fd8 0dbd 0582 513d ee64 cd3c c087 11be
00000050: 8a10 f93d 72a9 f1bd f858 46be ef49 4fbe
00000060: bc83 823b a88d bd3d 0577 ffbd 48bd 41bd
00000070: 9ff9 983d 119c 90bd 9a35 49bd ff5d 60bc
00000080: 7027 a0bc decd 9f3d 477a d73c 973c 6bbd
00000090: 368d 663e 2bad 2e3d 1e4e ff3d 1cdb b83d
000000a0: 5895 92bd ee90 edbc 000b 7fbd f828 aebd
000000b0: a1b3 c13d 3664 d13c 48e7 47bd 8f9e 393d
000000c0: 4e47 f6bc e6e1 f3bd 43c5 81ba c010 2e3c
000000d0: c400 0e3e aae7 fe3d 9c79 643c 1ee9 203e
000000e0: 80a6 dfbb 153d c1bd cf31 b7bc 7ef1 a13c
000000f0: caaf 8bbc 1429 1bbd 4ef3 43bd 0c0e 91bd
00000100: 95bc 583d 2ef0 093d 562f cabc 4e73 b9bd
00000110: 2fb3 c2bd 36dd 66bd d54a e23e e73f 91b9
00000120: 0a22 c13e 4282 74bd 2082 cd3b f73c a03c
00000130: 34a4 87bd 893a 89bc fbe3 513c 797c 02be
00000140: 1828 923d e862 583d 0874 cc3c 4426 84be
00000150: caa2 003e 37db 793d 5dc9 a1be 8c27 8ebe
00000160: 24c9 bb3d 3a32 2d3d 0b88 cbbc 4890 803c
00000170: 4af6 9abd ac81 bebd 7994 74bc feec 91bd
00000180: 60e4 e8bb 9c0d 8f3d b3d8 d3bd 5658 343d
00000190: 3fae ad3e 04a3 743d dc9e 673d d451 de3d
000001a0: 3b61 eb3d 56b5 543d 38a6 0cbd 3677 883d
000001b0: 9331 9fbd 2423 ebbc 9efe 953d 518b 10be
000001c0: 52f1 8e3c 9c75 a23d cf9c f03c bd29 b53d
000001d0: 9857 073e 3b5d 633d 29d1 c63d 950a 5dbd
000001e0: d0fd d33d f4e0 4b3d 9816 923b be9a 9abd
000001f0: 46e3 1fbd bb38 62bc 61c3 963d 9f3f 163e
00000200: dbc0 5fbd 37fc f03d 4431 133e 0f35 95bd
00000210: 1ae0 4f3c 937f 8bbd b3ad 29be c26e 3abd
00000220: ce9d 8bbc 96cb 313e cae3 733d 0fc0 d93d
00000230: 35ae 453d c129 db3c 5e9d 283e 9b5f ec3d
00000240: 0329 ac3c f03b b33c c635 a53d 5f58 183e
00000250: 15b3 01bc a9e1 ef3d 0ba2 e0bd 9029 973c
00000260: 8ab6 c4bc 80ec df3d 1cd8 c53d fb7e 233d
00000270: f718 c53d 1358 d2bc fd66 2c3e 899b aabd
00000280: e033 8d3c 7ca7 95bd 2ef9 813d e62f 233e
00000290: 1086 febb e122 a83d 986b 773d 271c babd
000002a0: 5a4a 213d d6ff b6bb bc18 de3d b472 f53d
000002b0: 661e ecbc 9db2 f93b b281 823d b096 683d
000002c0: 6876 97bd 07dc 73bd 607b af3d 59a0 703d
000002d0: 16db 1cbc a03c ca3d 5f15 e3bd 8820 463d
000002e0: dad3 a9bd c5f5 4fbd cda6 a93c 1cab 26bd
000002f0: 8d34 013d 5313 74bd a466 843d 7407 773d
00000300: 2033 c6bb 6ba1 34bd b7d7 893d 1b2c 8d3d
00000310: afda 80bd 8bda 5e3d 32b6 eabd 77ff cdbd
00000320: 16f8 993d c119 fabc 9080 3ebd 256c e0bc
00000330: 6e9a 8bbd 8d18 963d 5071 1bbe bc2e c63d
00000340: d00a e53c 80cd 3fbd a184 a1bd 030f 003c
00000350: 150c 8cbd 1426 14bd b29e f43c 73da bcbb
00000360: 7e2c 343c 34d6 14bd de53 82bd 36f8 c53d
00000370: ad19 ffbd 38c7 6fbd b758 c73d f00b c03d
00000380: 8cfa bc3d 40d1 e8bd 5049 b6bc 2f9f 8fbd
00000390: 7cd6 76bd 1364 cd3d 7d91 c93d 32f3 673d
000003a0: 7ab4 2d3d c07f 1ebe 6c50 0b3d a8a3 0fbb
000003b0: f7b3 48bd 0045 64bd 3413 483d 8b08 f4bd
000003c0: 44d4 163d a2f7 d63d b2d7 a93d d772 92bd
000003d0: 16ac c63d 07c8 3abd c93f 0d3d f045 f8bd
000003e0: 6c44 abbd 092c f2bc 6230 fabd e0f3 e8bc
000003f0: c542 95bd 14a0 b6bd 0c3b c3bd c0c1 3bbc
0.1265796 0.06187402 -0.07036624 -0.024144325 0.07718826 0.11931998 0.44236138 -0.068285294
0.21094812 -0.02690523 0.037847124 -0.0012979343 -0.053814787 0.023185428 -0.14892969 0.041190065
-0.034629937 0.051149387 0.025072541 -0.14211941 0.12161358 -0.11799897 -0.19369876 -0.20243047
0.003982989 0.092555344 -0.12473873 -0.047299653 0.074694864 -0.07061017 -0.049123384 -0.013694285
-0.019550055 0.07802938 0.026303424 -0.05743083 0.22514805 0.042645615 0.124660715 0.09026167
-0.07157391 -0.028999772 -0.06226635 -0.08503908 0.094580896 0.02556048 -0.04880455 0.04531723
-0.030063298 -0.11908321 -0.0009900708 0.010624111 0.1386748 0.1244653 0.01394501 0.15713927
-0.0068252683 -0.094354786 -0.022362618 0.019768473 -0.017051596 -0.037880972 -0.047839455 -0.07082757
0.05291422 0.03367632 -0.024680775 -0.09055196 -0.09506833 -0.056363307 0.44197717 -0.00027704166
0.37721282 -0.059694536 0.0062716156 0.01956032 -0.06623116 -0.016751545 0.012810702 -0.12742795
0.071365535 0.0528287 0.024957672 -0.25810444 0.12562099 0.061000075 -0.3159894 -0.27764547
0.09169224 0.042284228 -0.024845144 0.015693799 -0.07566507 -0.09302077 -0.014927977 -0.07125281
-0.0071073025 0.06985018 -0.103440665 0.044029556 0.33922002 0.059725776 0.056547984 0.10855451
0.114931546 0.051930748 -0.034338206 0.06663363 -0.077731274 -0.02870328 0.07323955 -0.14115645
0.017449055 0.079325885 0.029371647 0.088458516 0.13217008 0.055508833 0.09707863 -0.05396517
0.10351145 0.04977508 0.00445826 -0.07549046 -0.039035104 -0.013807471 0.07361484 0.14672707
-0.05462728 0.11766856 0.14374262 -0.07285511 0.012687707 -0.06811442 -0.16570167 -0.045515783
-0.01704302 0.17362818 0.05954341 0.106323354 0.04826184 0.026753308 0.16466281 0.11541673
0.02101565 0.021879166 0.08066897 0.14877461 -0.007916232 0.11712963 -0.10968407 0.018452436
-0.024012823 0.10933781 0.0966036 0.03991602 0.09623902 -0.025676763 0.16836162 -0.08330447
0.01723665 -0.07307336 0.063463554 0.1593624 -0.0077674463 0.082097776 0.060405344 -0.09087401
0.039377548 -0.0055846972 0.108445615 0.119847685 -0.028823089 0.0076201693 0.06372394 0.05678433
-0.07395631 -0.059536006 0.08568454 0.05874667 -0.0095737185 0.098748446 -0.110880606 0.048370868
-0.082923606 -0.050771493 0.02070942 -0.040690526 0.031544257 -0.05958874 0.0646489 0.060309842
-0.006048575 -0.044099253 0.067305975 0.06893178 -0.062917106 0.054407638 -0.11460532 -0.10058492
0.07518022 -0.030529859 -0.046509326 -0.027395317 -0.068165645 0.073289014 -0.15179944 0.096768826
0.027959257 -0.04682684 -0.07886625 0.007816079 -0.06838242 -0.036169127 0.029860828 -0.005763346
0.010996936 -0.036337093 -0.06363653 0.09666483 -0.12456069 -0.0585396 0.09733718 0.09377277
0.092274755 -0.11368036 -0.022251755 -0.07012784 -0.060263142 0.10028853 0.09842203 0.056628413
0.042408444 -0.1547842 0.034012243 -0.0021917615 -0.048999753 -0.055729866 0.04884644 -0.11915692
0.036823526 0.10496451 0.08293094 -0.0715081 0.097007915 -0.045600917 0.03448466 -0.121227145
-0.0836266 -0.029562013 -0.122162595 -0.028436601 -0.07288126 -0.08917251 -0.09532747 -0.011459768

net.2.bias f4 [32]
00000000: 8c4c 3c3e 74a3 403e b961 00be 7952 e0bc
00000010: 372a ecbd d2da c5bd 58aa 5bbd 49fa 243e
00000020: c2e6 0bbd d8f7 bebd dd25 013e 74db 18bd
00000030: 2d94 cf3c 55fe 09bd 1260 ddbd 15a3 3dbb
00000040: 46cb dfbd 1211 5abd 1ff0 593e a68d c0bd
00000050: 1f1a 5dbd 0bfe 9bbc 886e 213e 95d3 54bd
00000060: fbf9 8ebc 796a 9ebd 89bd fdbc 9517 cdbd
00000070: 494c 33bd 6b53 46be 8087 cbbd 07ff 253e
0.18388575 0.18812352 -0.12537278 -0.027383076 -0.11531489 -0.09660877 -0.05362925 0.16111101
-0.034155615 -0.09324616 0.126121 -0.03731866 0.02533921 -0.033689816 -0.108093396 -0.0028936316
-0.10927443 -0.053238936 0.21283005 -0.09402017 -0.05397999 -0.019042036 0.1576482 -0.051959593
-0.017453184 -0.07735152 -0.030974166 -0.100142635 -0.043773923 -0.19367759 -0.09937954 0.16210566

net.4.weight f4 [1, 32]
00000000: ba3c fa3d b3c7 0d3e 2366 c1bb 6ae3 bebd
00000010: 0112 29bc 382e a2bc be52 32be db70 f93d
00000020: 6701 05bd 3671 123c 85ab 893d f12f 193c
00000030: 882d fabc 4915 223b bada c03e 1606 32be
00000040: 5528 c63e 9ee1 073e 317d 2c3e b044 0a3c
00000050: 47c1 bcbc 3f1b 72bd c9f4 fb3d f273 8c3c
00000060: c01c 0bbe b7ce c5bd a76b a6bc c8ad 04bd
00000070: 197b cebd 1571 59bc 954d 00bc 6fe7 0b3e
0.12218614 0.1384571 -0.005902068 -0.093207195 -0.010319234 -0.01979743 -0.17414376 0.121797286
-0.03247204 0.008938124 0.06722168 0.009349809 -0.03053929 0.0024731925 0.37666875 -0.17385134
0.38702646 0.1326966 0.16844632 0.008439228 -0.02304138 -0.059108015 0.123025484 0.01714513
-0.13585186 -0.09658568 -0.020315005 -0.032392293 -0.10082073 -0.01327159 -0.007830997 0.13662504
