Trading_Model/trading_model_AUDUSD.pth (torch, 16650 bytes, 5 tensors)

net.0.weight f4 [64, 20]
000000 4a 0c ef bc 12 c8 90 be 1f b3 ee 3d 8e f9 a1 be
       -0.029180665 -0.28277642 0.116552584 -0.31635708
000010 8c 86 06 be 54 f7 5a bd f1 5c 4a bc 80 a0 b8 3d
       -0.13137263 -0.053458527 -0.0123512605 0.09014988
000020 23 8d 81 3d fe b5 ce bc 02 fd 17 bd 22 65 39 be
       0.06325748 -0.025233265 -0.03710652 -0.18104985
000030 d0 08 8a be 08 0f 12 3e f1 f8 8f be 2a 16 4c be
       -0.26959848 0.14263546 -0.28119615 -0.1993033
000040 18 a7 f5 3d 38 94 0a be 35 56 8b bc ed da 9b bb
       0.11994761 -0.13533103 -0.01700888 -0.0047563226
000050 1a d8 55 be 28 4d ce bd 40 82 73 bd 86 e2 db bd
       -0.20883217 -0.1007331 -0.059450388 -0.10736565
000060 5c 9e 7c bd e4 4c 99 bd e8 89 03 3e 68 ce 1b 3e
       -0.06167446 -0.07485369 0.12845576 0.15215456
000070 f6 67 5a 3e 12 3a 2c be 66 c1 21 be 90 90 a7 3c
       0.2132872 -0.16819027 -0.15796432 0.020454675
000080 7c fe 05 bd 30 73 0d 3e 6c 42 91 bd e0 ca e3 3d
       -0.0327134 0.13813472 -0.07092747 0.1112268
000090 c0 dd d2 3c 9d bc e6 bd 5c e0 27 bd 50 42 37 be
       0.025740504 -0.11266444 -0.04098545 -0.1789639
0000a0 19 04 61 be a4 e4 33 be 10 bd 3b be 4a 68 e9 bd
       -0.2197422 -0.17567688 -0.1833384 -0.11396845
0000b0 a3 6d 4f 3d 45 c8 6e be e0 5f 4b be 26 03 d1 bc
       0.050641667 -0.23318584 -0.19860792 -0.025514197
0000c0 ed d2 ab 3d 4d b5 56 3c 11 a1 b6 3b ac 4f b0 3d
       0.0838984 0.013104749 0.0055734 0.08608946
0000d0 88 fa a4 bd 43 f4 42 bc 2e 0e 7c be 01 71 aa 3d
       -0.080555975 -0.011899057 -0.24614784 0.08322335
0000e0 ee 69 41 be f7 56 e7 bb 17 1e 18 be 70 3d e1 bd
       -0.18888065 -0.0070599276 -0.14855228 -0.109980464
0000f0 b0 83 70 3c e0 3c dc bd e8 57 40 3d 40 29 6c 3d
       0.014679834 -0.107537985 0.046958834 0.057656527
000100 a5 79 45 be 73 48 11 be d8 cc 27 be 42 07 c8 bd
       -0.19284685 -0.14187793 -0.16386735 -0.09767009
000110 f0 3f 88 bd 20 af 7a bd a0 e9 27 3d 70 bc 5b 3d
       -0.0665282 -0.06120217 0.040994287 0.053646505
000120 84 7d 40 be 14 08 63 bd 60 02 e4 3c 9c 08 b7 3d
       -0.1879788 -0.055427626 0.027833164 0.08937189
000130 26 c0 0e be 5e 3b 50 3e 5b 40 58 be 3e d2 45 3e
       -0.13940486 0.20335147 -0.211183 0.19318482
000140 34 1c 49 bd 36 a6 23 3e ac a7 0e be 11 51 57 be
       -0.049099162 0.15981373 -0.13931149 -0.21027018
000150 90 f8 b5 3d a0 7f a9 bb 6a 75 a2 bd f0 6a 92 3d
       0.088853 -0.005172685 -0.07932551 0.07149303
000160 9b b0 60 be b8 4e d3 3c 04 a3 f4 3d 8c 1c 07 be
       -0.2194237 0.025794372 0.11945155 -0.13194484
000170 22 bd 8d bd b0 6a 52 3e 08 5a 95 bc 14 1f 99 bd
       -0.0692084 0.2054851 -0.018231407 -0.07476631
000180 80 23 3c be 79 35 48 be f6 68 45 be 1a 3e 18 3e
       -0.18372917 -0.19551648 -0.1927832 0.1486744
000190 70 b6 a0 bd c1 03 26 bd a7 b1 25 be 05 f1 8e be
       -0.07847297 -0.040530924 -0.1618105 -0.27918258
0001a0 f6 49 0b be 56 76 6f be 3c de 90 bd e8 21 03 3d
       -0.13602433 -0.23384985 -0.07073638 0.032014757
0001b0 d6 d8 04 3e 6e 46 b0 bd ac 69 9a be 52 53 ad 3d
       0.12973341 -0.086071834 -0.30158746 0.08463158
0001c0 64 38 84 3d 7b 62 23 3e c2 fe 11 be 99 26 df bd
       0.06456068 0.15955536 -0.14257339 -0.10896034
0001d0 32 ab 4a be ed 5a 1c 3c a5 a0 2a be 0e 23 8b be
       -0.19791868 0.009543163 -0.16662844 -0.27175182
0001e0 16 db 6d be c8 52 05 3d da b9 d2 3c 1c e5 1c be
       -0.23228106 0.03254965 0.025723387 -0.15321773
0001f0 01 84 c5 bd 37 bf f1 3d 6a 83 69 be 33 2c 53 3d
       -0.09644318 0.118040495 -0.22804037 0.051555824
000200 45 5b 0c 3e 4a 99 03 be 7e 59 82 be 06 84 9a 3d
       0.13706692 -0.12851444 -0.25458902 0.07544713
000210 56 af a8 bd bd a6 56 be 94 cc de 3d 1e fe 31 bd
       -0.08236568 -0.20962043 0.10878864 -0.043455236
000220 25 8e fc bc 63 fa 24 bd 05 d1 93 bc 96 95 b3 be
       -0.030829499 -0.04027785 -0.018044004 -0.35075063
000230 f4 cf 63 be 7d e0 dc 3d 33 92 0b bc a5 3e 30 bd
       -0.22247297 0.10785005 -0.008518743 -0.043028492
000240 a6 6e a2 3d 55 be 89 be 9f 3b 47 be 4f 37 2b bd
       0.07931261 -0.26903024 -0.19456337 -0.041800793
000250 5c 6c 2e 3e a9 45 da bd f5 96 81 3c b7 fb 80 3d
       0.17033523 -0.10657818 0.015819052 0.06298011
000260 54 74 a6 bd f4 53 47 be 68 c4 37 be eb fd 0d bd
       -0.081276566 -0.1946562 -0.17946017 -0.034665983
000270 aa e9 68 bd d9 2f 27 be 2e 6b 71 3d 4e d9 74 bc
       -0.056863464 -0.16326846 0.058940105 -0.014944388
000280 3d b2 7e bd f5 e2 b5 3d fc de b2 bd f1 eb 16 3e
       -0.0621817 0.08881179 -0.08733937 0.14738442
000290 07 eb 21 bd 1c e6 75 be 87 07 7c be 72 e7 41 be
       -0.03953078 -0.24013561 -0.24612246 -0.18935946
0002a0 50 2e 6b be 01 46 1e be 92 c4 0f 3e f1 35 24 be
       -0.22966886 -0.15456392 0.1403983 -0.16036202
0002b0 09 7a 5d 3d 04 7e 31 be 62 b6 c2 3d 80 3a ae 3c
       0.05407146 -0.17333227 0.09507443 0.02126813
0002c0 87 74 1e be b5 d5 5e be 76 60 d7 3c c2 26 0d be
       -0.15474139 -0.2176121 0.026291113 -0.13784316
0002d0 87 66 40 be 77 64 8f be e5 7c 49 3d b7 44 53 be
       -0.18789111 -0.28006336 0.049191374 -0.20631681
0002e0 d3 40 5f bb f6 42 4d bd 35 87 02 3d 0c 07 88 be
       -0.0034065738 -0.050112687 0.031867225 -0.26567876
0002f0 6f bd 65 be bf bb 5a be fb b6 dc bc 85 0c 91 bc
       -0.22435544 -0.21360682 -0.02694272 -0.017706165
000300 cb 03 2f be ce c0 cf bd 45 aa cd 3c 97 d1 22 be
       -0.1709129 -0.101441965 0.025105605 -0.15900265
000310 a6 f3 8b be 2c 4f 23 bc fb 20 58 bd d5 8f ea bd
       -0.27334327 -0.0099676065 -0.052765828 -0.11453215
000320 12 69 0e 3e 93 27 9e bd 9c 48 21 3d 93 e5 17 3e
       0.13907269 -0.07722392 0.039375886 0.1483367
000330 01 e1 41 3d 0e 93 65 3d 7b 50 05 3c 25 99 48 3d
       0.04733372 0.056048445 0.008136864 0.048974175
000340 58 e7 9f bd db ce 90 be 5c a7 5b be f3 06 60 3d
       -0.07807797 -0.28282818 -0.21450561 0.054694127
000350 20 ba a8 3d a6 91 16 3e c0 59 20 be 57 d5 bd 3d
       0.082386255 0.14703998 -0.15659237 0.09269207
000360 b2 38 00 3e 8a 77 f7 bd fb 17 f5 3d 98 3c c3 bc
       0.12521628 -0.12083347 0.119674645 -0.023832604
000370 c6 9f c9 bc ba d7 62 c0 c7 2c 05 c0 c3 b6 32 bd
       -0.024612319 -3.544417 -2.080858 -0.043631326
000380 20 ae 03 be 7a c3 3d 3d c0 01 ac bc 2a 9b 64 3d
       -0.12859392 0.046329 -0.020996928 0.05581204
000390 18 89 74 bf 12 b0 1a 3e e4 45 17 bd 1e 43 ed bd
       -0.9552169 0.15106228 -0.036931887 -0.11585067
0003a0 77 f5 13 3e 05 d8 42 3e c5 40 77 bf 7b 8a 52 3d
       0.14449106 0.19027717 -0.96583205 0.051401597
0003b0 9a fb 69 3e 32 a4 ab 3e 00 cf 0e 3d 28 f1 28 bd
       0.22849885 0.3352371 0.03486538 -0.04124561
0003c0 09 fc 17 bd 25 0f 97 be a2 70 0e 3e 71 ca 5e be
       -0.037105594 -0.29503742 0.13910154 -0.21756913
0003d0 f4 a7 0d bd 50 fd be 3d 37 df 8f bd 0f 96 6f be
       -0.034584 0.09325659 -0.07024997 -0.23397087
0003e0 0d ca f3 bc ac 3b 00 3e 4e 29 f1 bd 37 08 6f 3d
       -0.029759431 0.12522763 -0.11775456 0.058357444
0003f0 66 fe c1 bd 94 0c 25 3e a9 49 8b be cc 30 8c be
       -0.09472351 0.1611808 -0.27204636 -0.2738098

net.0.bias f4 [64]
000000 f6 45 6a bc 34 84 25 be 7d fc 0e 3e bc a2 37 be
       -0.014298907 -0.16163713 0.13963504 -0.17933172
000010 dc 65 e1 bd 7d 2c 37 3c ae 1b 3f 3d e0 ec 18 bd
       -0.11005756 0.01118004 0.046657257 -0.037335277
000020 34 69 de 3a 69 68 1e 3e 79 2c 7b be ff 01 43 3e
       0.0016968609 0.15469517 -0.24528684 0.1904373
000030 9c 12 b1 bd 27 12 82 3d 67 85 a9 3d 7c d4 11 be
       -0.086461276 0.063511185 0.082773976 -0.14241213
000040 2b ad 57 be 0c fe 1c be 3b 5b 61 be d7 0a cf bd
       -0.21062152 -0.15331286 -0.22007458 -0.101094894
000050 bc 9d ab bd c9 ef 0b 3e c5 6f 43 be 89 f8 83 3d
       -0.08379695 0.1366569 -0.19085605 0.06443889
000060 21 5d 2a be c8 09 af 3d a3 da 46 be dc 04 46 bd
       -0.16637088 0.085467875 -0.19419341 -0.048344478
000070 f9 9f 9f bd 35 2d 5a be 91 2b 21 be 9b f2 94 3d
       -0.07794184 -0.21306308 -0.15739276 0.07272836
000080 d5 3d 86 3c 8c 2c ca bd 7c 85 4d 3e 91 d9 4d 3e
       0.016386906 -0.09871778 0.20070451 0.20102526
000090 38 b7 9d 3c 77 1e 81 bd 6c 71 5b be 68 b4 36 be
       0.019252405 -0.06304639 -0.21429986 -0.17842257
0000a0 59 c8 74 bc 59 39 78 3e 18 2d 86 3d 65 f8 15 3d
       -0.014940345 0.24240626 0.0655157 0.03661384
0000b0 73 f8 36 bd c3 df 47 3e e3 f7 42 3e c4 b3 ca 3d
       -0.044670533 0.19518952 0.19039874 0.09897569
0000c0 ab a9 e0 bd 70 23 67 3b d1 48 da 3d 17 f4 f2 3d
       -0.109698616 0.0035268925 0.1065842 0.11862963
0000d0 c7 d6 36 3d b2 42 21 3d b2 72 99 3e 56 13 41 3e
       0.04463842 0.039370246 0.29970318 0.18855032
0000e0 b3 cc 0d 3e 1a bb 33 3e 67 11 9c bc 4b 7e 75 3e
       0.13847618 0.17551842 -0.019051267 0.23973958
0000f0 98 12 c5 3d cc f9 c5 3d a8 58 d7 3c a8 48 97 3e
       0.09622687 0.096667856 0.026287392 0.2954762

net.2.weight f4 [32, 64]
000000 1a 6d 97 3d 90 39 08 3d cd 5c 17 3d 8a 1a b4 3d
       0.07393856 0.03325802 0.036953736 0.087941244
000010 5e 14 9f 3d 39 6e 42 bb 7f a2 df 3d c8 e4 9d 3d
       0.077675566 -0.0029667749 0.109196655 0.07709652
000020 67 b9 49 3d 5b 8d d2 bd ea cc d9 bc 78 59 00 3d
       0.04924908 -0.10280868 -0.026586968 0.031335324
000030 17 7e 6a bd e4 54 32 bd 61 2f 00 3e d4 b4 e5 3d
       -0.057249155 -0.04353799 0.12518074 0.11216131
000040 26 53 ad 3d ba e8 98 bd 2a 0f f6 3d 7b 16 b8 bd
       0.08463125 -0.07466264 0.12014611 -0.08988663
000050 96 29 de 3d 0c cc 8a bd 75 be a1 3d f4 a8 c7 3d
       0.10847776 -0.067772 0.07897655 0.09749022
000060 6e 79 ca 3d 27 3b 13 3e a0 02 19 bd 38 b2 25 3d
       0.09886442 0.14378034 -0.03735602 0.040453166
000070 b2 a7 e9 3d e7 3c 6e bd 0a f7 d1 3b 70 01 03 bc
       0.114089385 -0.05816355 0.006407623 -0.007995948
000080 52 00 25 3d d0 bd a7 3d 0d b0 0d bc 2c b7 fd bd
       0.04028351 0.08190501 -0.008647931 -0.12388453
000090 c7 77 82 bd 11 23 70 3d 34 d5 c4 3d 47 65 c5 bd
       -0.06370502 0.058627192 0.09610978 -0.09638458
0000a0 ea 9b 16 bd 11 49 00 bc 63 e7 e5 bd 6c f3 60 bd
       -0.036769785 -0.00782992 -0.11225774 -0.054919645
0000b0 3a f6 ba bd 9f f0 12 bd b7 a4 6e 3e 4b 7d 3f 3d
       -0.09128995 -0.035874005 0.23305021 0.046750348
0000c0 42 65 b1 bd 6a 81 0f 3d e2 7e 2e 3c 2c f7 52 3d
       -0.086618915 0.03503553 0.010650368 0.051505253
0000d0 eb 81 df bc 83 85 ff bc 5f 9c 22 b9 f2 13 07 3d
       -0.02728363 -0.031191593 -0.00015507777 0.032978006
0000e0 c6 08 af 3d 20 25 8e bd fe 6a f0 3b b9 fb d7 3c
       0.08546595 -0.06940675 0.007336973 0.026365148
0000f0 21 e4 8f 3d 24 4c 2b 3d c3 ad a6 bd 27 f1 0c be
       0.07025934 0.04182066 -0.08138611 -0.13763867
000100 75 5a 04 3e 90 ae 9c bd 81 9f 2e 3d 02 1f d1 bd
       0.12925132 -0.07650483 0.042632584 -0.102109924
000110 a8 6c 06 bd 54 b9 6a bc 18 2f cd bd 8d b7 11 3c
       -0.032818466 -0.014326412 -0.10018748 0.00889386
000120 63 5d 18 3d cd 24 1a bd 9e 32 61 3d fb 50 69 3d
       0.037198436 -0.037632752 0.054979913 0.056961995
000130 62 9d 9e 3d 0d 72 3a 3d 1a d7 ac bd c5 b0 9a b9
       0.07744862 0.045518924 -0.08439465 -0.00029504873
000140 dd d9 a2 3c 45 7f 8f ba 84 5e 18 bd 79 c0 f5 bd
       0.019879276 -0.0010947963 -0.037199512 -0.11999602
000150 60 27 f6 3d dc 9c c1 3d 30 8f 3e be fe 02 2d bd
       0.12019229 0.09453747 -0.18609309 -0.04223918
000160 88 59 86 3c af e8 1c 3d 92 8a ef bd 44 e7 50 3d
       0.016400114 0.038307842 -0.11696352 0.051001802
000170 67 28 b0 bd 60 32 cb 3d 57 6c 62 3d 2f be 2f 3e
       -0.08601456 0.09921718 0.055279102 0.17162393
000180 6c e0 f2 bb 9b b1 8a bc b2 31 50 3e 38 ad ea bd
       -0.007412007 -0.016930392 0.20331457 -0.1145882
000190 a2 3d 57 bd d1 0d 6d bd f8 89 f1 3d 4c 2a e8 3b
       -0.052549012 -0.057874504 0.117938936 0.0070851203
0001a0 25 b0 97 3d d7 a1 8b be 04 61 bb 3d 82 d0 5b bc
       0.07406644 -0.27271912 0.09149364 -0.013416411
0001b0 c6 27 cb 3d 28 81 07 bc 17 5c 2b 3f 2e b4 a2 3b
       0.099196956 -0.008270539 0.6693739 0.0049653267
0001c0 68 b5 c5 bc bf 8e d0 bd ce f8 44 bd 1f c0 58 3d
       -0.024134353 -0.10183477 -0.04808884 0.052917596
0001d0 04 3c d5 3c 31 26 d7 3d 0d 3f 40 3d 6e d4 cc 3c
       0.026029594 0.10505331 0.04693513 0.025003638
0001e0 1a 61 88 bd 21 d7 b8 bd 34 ed 10 bb e8 6f 01 be
       -0.06659146 -0.090254076 -0.002211404 -0.12640345
0001f0 a8 b5 0b be 05 fd 20 bc d0 53 5c bd a8 49 2b 3d
       -0.13643515 -0.00982595 -0.053790867 0.04181829
000200 c6 29 6e bd a0 4c 32 3d 79 b6 e8 3c fc 57 3a bd
       -0.058145307 0.043530107 0.028407322 -0.045494065
000210 d0 0c 35 bd 81 58 d2 bc c7 13 80 3d 74 16 bb 3d
       -0.044201672 -0.025676968 0.06253772 0.09135142
000220 cd 1d 90 bd 20 3b c4 3d 06 64 a8 3c a0 22 5d 3d
       -0.07036934 0.0958159 0.020555507 0.0539881
000230 a8 bc e0 3d 66 02 82 bd 52 14 39 3d b9 fe 46 3c
       0.10973483 -0.06348114 0.045185395 0.012145692
000240 d5 58 91 bd bc 3a ab 3c 88 86 cb 3c 27 a7 ec 38
       -0.070970215 0.02090203 0.024844423 0.000112844915
000250 5c aa 4c 3d f3 b2 e8 bd f5 8f b3 bd 54 71 b5 bd
       0.049967155 -0.11362257 -0.08767692 -0.08859506
000260 ee 61 17 3d df 32 d7 bd 0c 74 0f bd 34 ac 9a bd
       0.036958627 -0.1050775 -0.03502278 -0.075523764
000270 ae 0a 76 3d 76 70 bb 3d d2 f5 54 bd 1c 4d 71 3d
       0.06006878 0.091523096 -0.051992245 0.058911428
000280 d4 7c 2c bc 3c ec 7b bd 65 8a d4 bd 56 99 af 3d
       -0.010527808 -0.061504588 -0.10377959 0.085741684
000290 cc 92 89 bc 59 df 16 bd 60 66 80 3d 35 90 f2 bd
       -0.016793631 -0.036834095 0.062695265 -0.118439116
0002a0 96 a3 88 3d da bc b2 3d e7 6a a7 bd 5e 0b 37 3c
       0.066718265 0.08727427 -0.08174687 0.011172144
0002b0 8f a6 3f bc ac 88 8d bd be c6 e4 bd b0 b9 53 bd
       -0.0116974255 -0.06910834 -0.111707196 -0.051690757
0002c0 28 ea ff bd 91 45 a2 3d 62 3d b6 3d fc bf aa 3d
       -0.12495834 0.07923425 0.088984266 0.08337399
0002d0 95 fd b9 bd 4c 0d bc bd 7d f1 72 3c e6 6b 07 bd
       -0.0908157 -0.09182224 0.014828083 -0.033061884
0002e0 69 04 de bd 64 81 f2 3c 88 74 f6 bd 93 e7 89 bd
       -0.10840685 0.029602714 -0.12033945 -0.067336224
0002f0 5d a8 82 bd 33 03 54 bd 70 3c dd bd 79 57 90 3d
       -0.06379769 -0.051760864 -0.10802543 0.07047934
000300 4d 45 52 3c 96 39 a6 3d 08 75 6e bd 70 94 54 bd
       0.012833905 0.081164524 -0.05821708 -0.051899374
000310 c0 5d 09 3c 3b 54 38 be 77 bd 02 3d 01 fb 06 3d
       0.008384168 -0.18000881 0.03191897 0.03295422
000320 b3 24 01 bd d7 fa 3a bd c4 76 4f bd 16 fe 1b 3e
       -0.03152914 -0.045649376 -0.050650373 0.15233645
000330 a5 9b b4 bd 7d fb 48 bd 26 92 b1 3d 6d 4f a1 3d
       -0.08818749 -0.049067963 0.08670454 0.078764774
000340 f7 2a ec bc b5 4d 3f 3d fc 72 7c 3d e0 7a 03 3e
       -0.028829081 0.046704967 0.061633095 0.12839842
000350 78 e8 7b bd 10 86 21 bf 65 25 3f be 55 09 77 3c
       -0.061500996 -0.6309519 -0.18666609 0.0150779085
000360 d0 1e 46 3d a7 7e 36 bd b8 20 6d 3d b0 0e 88 3c
       0.04836923 -0.04455438 0.05789253 0.016608566
000370 37 63 87 bd 86 37 d3 bd 14 6b a6 3b 6b ae a2 3e
       -0.066107206 -0.10313325 0.0050786827 0.31773695
000380 6b a5 4a bd 81 c9 2e 3d f1 e0 a4 3d f9 9c 34 bf
       -0.04947416 0.042672638 0.08050717 -0.7055202
000390 3d 82 9b 3d 69 6c 97 3d 30 e3 eb 3c d9 56 d2 3d
       0.075932 0.073937245 0.028794855 0.10270471
0003a0 10 f4 dc 3d 5d 6d 23 bf 2a 6f ce 3d 3f 4e 06 3e
       0.10788739 -0.6383875 0.100797966 0.13115786
0003b0 df 63 00 3e 38 7b 29 be 38 27 3c 3f f5 bd 2e 3c
       0.12538098 -0.1655091 0.73497343 0.0106654065
0003c0 78 68 37 bd 47 7c 00 3e be 52 e5 bd 09 05 0a 3e
       -0.044777364 0.12547408 -0.111974224 0.13478483
0003d0 25 e6 03 be 15 1a 3d bd 3e 07 46 3e 77 fa a6 be
       -0.12880762 -0.046167452 0.193387 -0.32612965
0003e0 5f 0d 3b be 54 6c 02 be 2b 2e c1 3d 39 97 49 3c
       -0.1826682 -0.12736636 0.09432634 0.012304121
0003f0 40 4a be be d2 bd f3 bd ac 73 9f bd 11 4e 04 be
       -0.37166023 -0.1190144 -0.077857345 -0.12920405

net.2.bias f4 [32]
000000 4d b7 32 bd c6 6f 3c 3e d9 d7 d3 bd 4c 93 66 3d
       -0.04363184 0.18402013 -0.10343904 0.056292817
000010 24 10 91 bd fa 02 7f 3e 31 19 e1 bc a4 bc 0d bd
       -0.07083157 0.24903479 -0.027477833 -0.03460373
000020 28 20 7f 3e 99 db 31 be fe 1c 12 be 70 83 0a be
       0.2491461 -0.17368926 -0.14268872 -0.13526702
000030 99 ec 3d bd 38 a1 c6 bd a4 1d 0f be 6d 60 72 bd
       -0.046368215 -0.09698719 -0.13976151 -0.05917399
000040 9c e4 b3 bd 5b b8 61 bb 47 ac 57 3e 80 95 73 bc
       -0.08783838 -0.003444216 0.21061812 -0.014867187
000050 81 33 80 bd 2c ff c8 bd 38 57 81 bc 09 fd 1e 3e
       -0.062598236 -0.09814295 -0.01578866 0.15526213
000060 80 6e d0 bd e3 f5 b6 3e 34 65 8d bd 94 93 55 3e
       -0.10177326 0.35734472 -0.069040686 0.20857078
000070 1d 39 6a 3e 5e 77 d3 bc d0 bb 37 3e a0 ab d2 bd
       0.2287335 -0.025813755 0.17942739 -0.10286641

net.4.weight f4 [1, 32]
000000 82 f8 fb 3b 7f b1 c3 3d 66 f4 f0 3b 87 aa 36 3d
       0.0076895365 0.09555339 0.0073533533 0.04459622
000010 8e 29 48 bc 18 63 2a 3e c0 57 81 bd e9 86 80 bc
       -0.012216939 0.16639364 -0.06315565 -0.01568933
000020 be 3e 30 3e 5f 63 99 be e6 54 d5 bd 5f 84 bd 3c
       0.17211434 -0.29958627 -0.10416584 0.023134409
000030 61 ff 5a bb 50 f0 0f be a4 d6 49 bc 76 bf a6 bc
       -0.0033416378 -0.14056516 -0.012319241 -0.020354968
000040 53 b9 02 be d1 4b 11 bc 78 e3 12 3e 45 e7 43 bc
       -0.12766008 -0.008868174 0.14344585 -0.011956994
000050 fd 7a e7 bd dd b2 94 bd d3 02 f7 bd a1 a6 a6 3d
       -0.11302755 -0.07260678 -0.120610856 0.08137251
000060 2d c2 eb 3d 98 ed 85 3e 9a 68 5e 3d 73 f3 12 3e
       0.115116455 0.26157832 0.054298975 0.14350681
000070 39 e4 26 3e 4a 0e 8a bd de cc ec 3d 55 51 46 bc
       0.16297998 -0.06741007 0.11562513 -0.012104352
