Trading_Model/trading_model_NAS100.pth (torch, 22282 bytes, 5 tensors)

net.0.weight f4 [64, 42]
00000000: 5717 5bbe e7e6 88bc fde4 88be 15f0 063d
00000010: 7f04 29be 765e fbbd df6e 2a3d 8874 00be
00000020: 6ea2 b7bd 3f58 0dbe dde0 2fbe ab43 80be
00000030: 2cb4 853d 064b 15be e8c5 e6bd f397 ba3d
00000040: 2c15 23be 45cc ffbd 79e5 19be 0548 fcbd
00000050: 8344 e9b8 a819 ebbd b4f3 c43d 32cd 10be
00000060: dee8 a33d d451 b0bd 5e80 27be 024e 3c3c
00000070: 5702 ca3d 6378 943c 29b2 8b3d 77fe 87bd
00000080: 2799 c13d 0c23 cebd b774 b33d 6a41 cabd
00000090: 8893 413c b8d3 53bd 9102 b9bc 4af2 9dbb
000000a0: e37a 60bd 7ba6 02be 96c4 7bbd 185d 3d3d
000000b0: 78a7 473d 40b8 84bc 808f 4f3b 56f5 bfbd
000000c0: 883d 133d 2965 0abe 9899 dbbd fcee 693d
000000d0: f3c1 b2bd c7c8 12be e640 eebd 6cd5 25bd
000000e0: c504 053e 89db b1bd b035 8d3d 83c3 0d3e
000000f0: c198 c0bd 4ea3 c0bd 426b ccbd a667 b33d
00000100: 80eb ff3a 882e c6bd c727 0e3e 2419 abbd
00000110: 7645 823d bcc7 19be 2747 ccbd 3513 0dbe
00000120: 001c 3c3b 1460 7f3d 806e 1a3c 8052 74bd
00000130: 80e2 b73a 8241 0ebe 334a 033e 4476 28bd
00000140: a6cf c63d 46ce bbbd 1681 b03d dacf 08be
00000150: 7044 9cbd cc82 a7bb a6e2 89bd 345c 21be
00000160: 20d1 a5bd 86bd 40bd 0d52 923d c367 a53d
00000170: 8b8f 0f3d abf7 84bd dcfe 87bd 4317 c9bc
00000180: 3726 3c3c 08f3 c33d e817 343c 3324 02be
00000190: ae8a 56be aa18 453b 7c79 12bc b445 b4bd
000001a0: 75a2 1bbe 7751 0a3d 4df4 17be ff7a be3d
000001b0: 3321 e53d 3500 f43d 8b05 a43d d3ca d33d
000001c0: 8bf3 e23c 1acc 193d b34c 8cbd 8244 f9bd
000001d0: 1635 32be 1e1e 5e3d ef7d e93b 6696 0ebe
000001e0: 1342 12bd 965c 5e3d 18b1 853d dd90 a6bd
000001f0: e737 c0bc 2a99 b73d fea5 55bb f210 bcbd
00000200: 8e3c 22be 5e96 d3bb 18b6 513c 899b cebd
00000210: 9de2 25bd 870b 05be 57bb 0f3d fd7d c73c
00000220: 8e08 ac3d 98c1 efbd a81f 983b 94d8 803c
00000230: 26f3 48be 7a53 4ebe 6546 b93d 7886 23be
00000240: 73a2 323c 17cc 14bc e13f cf3d 7563 d33d
00000250: dd0c debd 4d39 1e3e 930b c8bd 19f4 bbbb
00000260: aa41 afbc a59e 9d3d fe0a ae3c 65e4 c53d
00000270: d744 8c3d 78ff ebbc 5ee4 a73d 52d7 c73d
00000280: 667e 85bd 8f94 363d 10b7 9cbd 97b2 3c3e
00000290: 1d10 5dbd b650 e0bd 8e47 efbd ee73 e1bd
000002a0: c501 3b3c c111 7bbd 5d09 cabd 6698 aebc
000002b0: f126 21be a7f5 b33d 098c 8e3d a5da a03d
000002c0: e050 77ba 43dc 41be 14e5 83bd 5e85 af3d
000002d0: d1b9 883d 8faa 343d 1c16 6239 47ec 0fbd
000002e0: d796 f6bd 2cae 61be 3799 7ebd e57f 593c
000002f0: 460c 18bd fc55 d53b 5859 26bd 998f cb3c
00000300: 9dcd cb3d 0060 0abc eb05 893c c1d3 ffbd
00000310: ac9f 2f3d 40dc 07be 9cf9 79bc d72e d4bb
00000320: 5a46 8ebd 2d26 74bd c708 c9bd 4e8a 26be
00000330: d6e3 b53b 503e eb3d f340 15be 2173 6d3d
00000340: e3f5 e6bd 6d6d 0abe c6b6 a13d 6b4c ad3d
00000350: cb2d 113d 7a76 fabd 5d11 fa3d 856f b63d
00000360: 9e1a fdbc f65d 2dbd 36b1 8a3b 8c17 c3bd
00000370: 0680 3fbd 67d5 a13c f910 8a3d e76f 823c
00000380: 46be d23c 5256 ae3d 2ec3 88bd b6f9 8cbd
00000390: e282 b23d c625 19be eaee c2bd ad6d 22be
000003a0: dce7 653c 388e 393c 5509 e5bd e432 dc3d
000003b0: 62ed 31bc 43b3 14be 2c44 4abd 6a65 ab3c
000003c0: d489 33bd 5cbe 913b 89ed 2dbe 4ff1 d2bd
000003d0: bc11 0abe 8618 04bd 0fcc 7d3d 78a6 8cbc
000003e0: 71fa 8ebd deeb d0bd 80a8 593d a769 883d
000003f0: a8b5 8ebd 276a 6bbd 82a7 5bbd c063 993d
-0.21395622 -0.016711665 -0.26737204 0.032943804 -0.16505621 -0.12273876 0.04160964 -0.12544453
-0.08966528 -0.13803194 -0.17175622 -0.25051627 0.06528506 -0.145794 -0.11268216 0.09111013
-0.15926045 -0.12490133 -0.15028943 -0.12318424 -0.00011123067 -0.11479503 0.09616795 -0.14140776
0.080034 -0.086093575 -0.16357562 0.011493208 0.098637275 0.018123811 0.06821091 -0.06640332
0.094530396 -0.100652784 0.08762496 -0.09875758 0.011814959 -0.051715583 -0.022584232 -0.004820143
-0.054804694 -0.1275882 -0.061466776 0.04623136 0.048743695 -0.016201138 0.0031671226 -0.09372966
0.035947353 -0.13515152 -0.10722655 0.05711268 -0.08728399 -0.14334403 -0.11633472 -0.040486738
0.129901 -0.08684451 0.06895006 0.13844113 -0.094041355 -0.09406148 -0.09981395 0.08760004
0.001952514 -0.09676844 0.13882361 -0.083544046 0.06360905 -0.15017599 -0.09974509 -0.13776858
0.0028703213 0.062347487 0.009425759 -0.05964899 0.0014029294 -0.13892177 0.12821274 -0.041128412
0.097075745 -0.09170203 0.08618371 -0.13360539 -0.07630241 -0.0051120277 -0.06732683 -0.15757829
-0.08096528 -0.047055744 0.07144556 0.080764316 0.035049003 -0.064925514 -0.066404074 -0.024547225
0.0114837205 0.09567839 0.010992028 -0.12709121 -0.2095134 0.0030074515 -0.008940097 -0.08802357
-0.15198691 0.033769097 -0.14839287 0.093008034 0.11187973 0.11914102 0.0800887 0.1034142
0.027704021 0.037548162 -0.06850567 -0.1217127 -0.17403063 0.05422794 0.007125608 -0.1392456
-0.035707545 0.054287516 0.065279186 -0.08133099 -0.023464156 0.089647606 -0.003260016 -0.091829196
-0.15843412 -0.006457134 0.012799762 -0.1008826 -0.04049932 -0.12992679 0.03509077 0.024352068
0.08400069 -0.11706847 0.0046424456 0.015728272 -0.19624004 -0.20149031 0.0904663 -0.15969265
0.010902989 -0.009081862 0.10119606 0.10321704 -0.10842297 0.15451546 -0.097678326 -0.005735886
-0.021393616 0.07696275 0.021245476 0.096627034 0.06849068 -0.02880834 0.081978545 0.09757866
-0.06518249 0.04457527 -0.07652104 0.18427502 -0.053970445 -0.109528944 -0.1168357 -0.1100844
0.011413996 -0.06129623 -0.09865067 -0.021312904 -0.15737511 0.08787089 0.06960303 0.07854203
-0.00094343536 -0.1893168 -0.064401776 0.0857036 0.06676067 0.04410797 0.00021561276 -0.03513744
-0.12040489 -0.22039098 -0.062157836 0.013275121 -0.03712108 0.0065104943 -0.04061255 0.024848746
0.09951327 -0.00844574 0.016726455 -0.12491561 0.042876884 -0.13267612 -0.015257265 -0.0064753103
-0.06947012 -0.05960672 -0.09816127 -0.16263697 0.005550842 0.114864945 -0.14575557 0.057971124
-0.11277368 -0.13518305 0.078961894 0.08461841 0.035444062 -0.12229629 0.12210343 0.089079894
-0.030896481 -0.042325936 0.004232551 -0.095259756 -0.046752952 0.019755078 0.067415185 0.0159225
0.025725495 0.08512558 -0.066778526 -0.06883566 0.0871637 -0.14955816 -0.095182255 -0.1586215
0.01403233 0.0113254115 -0.111834206 0.10751894 -0.010859819 -0.14521508 -0.04938142 0.020922381
-0.043832615 0.0044477414 -0.16985144 -0.10299932 -0.13483328 -0.03224995 0.061962184 -0.017169222
-0.06981362 -0.10201238 0.05313921 0.066607766 -0.06968242 -0.05747428 -0.053626545 0.07489729

net.0.bias f4 [64]
00000000: 5bef 9dbd c08c 9bbb 9e7f a43b bdfd ddbc
00000010: 431e 873d 780e ed3d 430c 00bd 1e39 9ebb
00000020: faac d5bd 5aaf b2bd a9f6 1bbe 4e06 2bbe
00000030: 8c10 473c 1f4e 6bbc 9bb9 593d 02f1 233d
00000040: a39d 7abd 007d 20be 573b e6bd bfcb 86bd
00000050: 497d 15be 4279 123d 0da2 383d 418d 4d3b
00000060: 924e 1f3b e92a b5bd 0205 eb3c b245 c83d
00000070: bd47 8f3d 10b3 dabd 34ab 44bd c08a 02be
00000080: b0f5 873c 949e 06be dd80 e33d 204b 06be
00000090: 4dea d83d 9b8e 943e 0855 773d 3e61 4abd
000000a0: 3530 01be a0e6 93bd 034e b1bc 8ff9 f13d
000000b0: e617 47bd 038a 18be 22d1 10be d540 023e
000000c0: c52a 0ebe e44b 25be b4e4 13be de91 0bbe
000000d0: 7b66 813d 7410 27bd 36e6 d7bd 3ba6 b23c
000000e0: 9132 a2bd 5a22 72bd 48f6 093d 79ba 4bbd
000000f0: b87c 19be f87f bc3c 1043 a03d ed18 6fbd
-0.07711669 -0.0047470033 0.005020096 -0.02709853 0.06597569 0.11575025 -0.031261694 -0.0048285862
-0.10433383 -0.08724852 -0.15230812 -0.16701624 0.012149941 -0.014361887 0.053155523 0.040024765
-0.06118549 -0.15672684 -0.11241787 -0.0658183 -0.14598574 0.03576017 0.04507642 0.0031364711
0.0024308306 -0.08846075 0.028688911 0.09778918 0.06996105 -0.10678685 -0.048014835 -0.12748241
0.016596645 -0.1314643 0.11108563 -0.13114595 0.10591564 0.2901505 0.060383826 -0.049409144
-0.12616046 -0.072217226 -0.021643644 0.11815178 -0.048606776 -0.14896397 -0.14142278 0.12720044
-0.13883503 -0.16142231 -0.14442712 -0.13629863 0.06318375 -0.040787175 -0.10541956 0.02180778
-0.07919801 -0.05911479 0.033682138 -0.04973838 -0.14988983 0.023010239 0.07825291 -0.05837338

net.2.weight f4 [32, 64]
00000000: 2ed8 c93d 20a4 e63b 1ff0 103d f4df c9bb
00000010: 687c d2bc d86a 23bd e083 cabc 8077 5abc
00000020: 00b6 f33a e8ae dabd 4021 a6bd 20e5 cfbd
00000030: 756c cfbd 1e75 82bd f8f2 2fbd f290 afbd
00000040: 927f dcbd e84f 553d 0024 4bbd b3fb b93d
00000050: 2734 6d3c b7e9 203d 8838 72bd 3757 a9bc
00000060: f039 783d 8cdc 00bd 9006 2abc 3716 8a3d
00000070: aa51 b23d 10de 763c 7f07 babd 9c9c 7ebd
00000080: ce7b 993d ba5e d6bd cca7 d8bd 2845 5c3d
00000090: 57a9 90bc bb70 abbd 8b44 06be ec8d edbd
000000a0: e0a8 6e3d ab74 40bd ccaa 6fbd 5008 2bbc
000000b0: 76b3 5a3c 8130 10bd 5664 afbd 380d 2b3d
000000c0: b0f3 81bd 2421 7bbd 28f4 89bc 6a40 c8bd
000000d0: 487e c8bc 9c71 f9bd 6017 b9bc 96d9 05be
000000e0: 5ca6 bd3d 408e c53c 260f c33d 0207 eebd
000000f0: 62cf 81bd 709c acbc 50e1 483c 503c a3bc
00000100: 217e d33d 3889 9fbc 9ef9 debc ff4d 533d
00000110: 90f1 06bd 7b53 bd3d de8f 9f3d 7f11 99ba
00000120: 08fe 90bc 2e40 e1bd 895c 743c fbf5 ae3d
00000130: 3aad 9abd 8eb4 b03c 2e0d 483d bfcf f1bd
00000140: 710d 793c b04a d5bd a9ea b73d 9e77 873d
00000150: c066 aa3d a4b5 6ebd 45ac 97bd 0bb1 15be
00000160: 9061 d9bc df5f 15be 657a d2bc 2427 213d
00000170: d47f e5bd 350f d43d 4f7f 7e3d cab3 e7bb
00000180: 700b 5abd 4072 cd3d c15f 65bd 2a9b 753d
00000190: d760 2bbe 895d 0e3c d7fc dabc 2d8f b0bc
000001a0: 14e5 023d c7df 5fba 7380 02be 7b37 2fbd
000001b0: 4d36 12bd 5219 88bd d834 bebd c842 a9bd
000001c0: 1d92 983c 9870 c6bd 6044 a73b 9cd4 1b3d
000001d0: 0883 05be 0e23 b1bd 705e c0bc e77b c8bd
000001e0: 344f 9c3d a3f0 f6bd 22bc 02bd 222b e3bd
000001f0: befc f03d 7e5f b3bd c720 1c3d 8aab c73d
00000200: 9ae7 07be cc04 37bd 2fb3 903c 18bf b2bd
00000210: 3ad6 443d 6b14 8d3d dcb7 10bd aab7 c5bc
00000220: 3095 243d c6a7 0d3e 55c7 2d3d db90 8a3d
00000230: 755b 0bbe b472 86bd 6873 b8bd 32f8 c7bd
00000240: 491e 91bd d930 a9bd c724 86bd d4aa 23bd
00000250: 313c 37bd 03d9 cebd d205 f8bd af2c c73d
00000260: 8a0f e8bd cf5c 3e3d f130 483d 6c46 57bd
00000270: 2d3a 6cbd b25b a63d 75c1 383e e648 56bd
00000280: 14a3 2ebd 6406 323d bb47 a53d c71e e13d
00000290: f2f2 853d cc05 4f3d 0008 063e 6a69 a8bd
000002a0: 986d 7bbd 39ec 9fbd 8a27 2bbc a1a2 95bd
000002b0: 3db0 30bd 7bcc 64bd 38ca 823d 1eb4 88bd
000002c0: 96eb 933d 8ffe 96bd 4030 7d3b 788c 7dbd
000002d0: 5d76 e63d ecde 323d 30c0 ffbd 9c4f c73d
000002e0: 1180 33bd 200e 38bc 2ada 623d b0d3 c73d
000002f0: d613 c73d 56c3 a3bd bfa7 be3d 4194 ac3d
00000300: 06ec fcbb 2ca4 d9bd 2d00 b8bd ca77 b5bd
00000310: 1ba0 9a3d c847 f03c d088 09bc ca43 be3d
00000320: 3cac e13d bf27 debd 749e c43d b126 a23d
00000330: 781f dd3d 2dbf e7bd 108e 4c3d 39fd 893d
00000340: 5956 a03d 3eb6 973d 93f3 36bc c119 06bd
00000350: 8dcf 863d 0b26 1b3d 2d52 00be 550f 0a3d
00000360: c83c 0c3e 3dd3 10bd 2710 d93d 5899 8e3c
00000370: 8601 69bc eb9d 803d 9be3 d23e 2fa3 6c3d
00000380: e223 c5bd a2b6 f63c 0dcf ca3d a3ad 48bd
00000390: 794a bcbd 252c 9f3d 8134 4dbd 6478 a33c
000003a0: 55fc e8bd 1f36 553d 27d5 073d 40bb 8ebd
000003b0: d5f8 423d 10a1 013e fe47 8b3d a66c eebd
000003c0: 79b2 033e b1c9 f1bd d028 d2bd 258e 0e3d
000003d0: 44cd 49bd a0e3 b9bd 0025 c5bc eba5 89bd
000003e0: dcb1 2f3d f957 903d 1d08 0e3c d423 833e
000003f0: 9a84 ebbd 2011 a4bb 4dd5 e5bd 4a04 edbc
0.09855686 0.007038608 0.035385247 -0.0061607305 -0.025694087 -0.039896816 -0.024721086 -0.013334155
0.0018593669 -0.10677892 -0.08111811 -0.10151124 -0.101281084 -0.063699946 -0.042956322 -0.08572568
-0.107665196 0.052078158 -0.04959488 0.09081211 0.014477766 0.039285388 -0.059135944 -0.02067147
0.06060213 -0.03146033 -0.010377541 0.067425184 0.087069824 0.015067592 -0.09083461 -0.062161073
0.07494317 -0.104672864 -0.1057888 0.05377689 -0.017658873 -0.08371111 -0.13112085 -0.11599335
0.05826652 -0.046986263 -0.058512494 -0.010438994 0.013348451 -0.035202507 -0.085640594 0.041760653
-0.06345308 -0.061310902 -0.016840056 -0.09777911 -0.024474278 -0.121798724 -0.022594154 -0.13071284
0.09260246 0.024115682 0.09524374 -0.116224304 -0.06338383 -0.021070689 0.01226075 -0.01992622
0.103267916 -0.01947461 -0.027218636 0.051588055 -0.032945216 0.09244438 0.07791112 -0.0011678188
-0.017699257 -0.109985694 0.01491464 0.08543011 -0.075525716 0.02157047 0.048840694 -0.118072025
0.015200959 -0.10414636 0.08980305 0.06614612 0.08320379 -0.058278695 -0.07405905 -0.14618318
-0.02653578 -0.14587353 -0.025693128 0.039343968 -0.11206022 0.10354463 0.06213313 -0.007070993
-0.053233564 0.10031557 -0.05599952 0.05996243 -0.1673616 0.008689293 -0.026731892 -0.021552647
0.031956747 -0.00085401203 -0.12744312 -0.04277752 -0.035696317 -0.066454545 -0.09287423 -0.08264691
0.01862436 -0.09689444 0.0051045865 0.038044557 -0.13038266 -0.08649264 -0.023482531 -0.097892575
0.07632294 -0.120576166 -0.0319177 -0.11092211 0.11766957 -0.08758448 0.038117196 0.09749515
-0.13271943 -0.04468231 0.017663566 -0.087278545 0.048055865 0.0688866 -0.035331592 -0.02413543
0.04018134 0.13833532 0.042426426 0.0676591 -0.13609107 -0.06564847 -0.09006387 -0.097641364
-0.070858546 -0.0826127 -0.065499835 -0.039957836 -0.044735137 -0.100999855 -0.12110485 0.097253196
-0.11331089 0.046475228 0.0488748 -0.052557394 -0.05767267 0.08122958 0.18042548 -0.052315615
-0.042635992 0.043463126 0.08070322 0.109921984 0.06540479 0.050542638 0.1308899 -0.08223231
-0.061383814 -0.07808728 -0.010446439 -0.073064096 -0.043136824 -0.05585907 0.063862264 -0.066749796
0.07222669 -0.07372772 0.0038633496 -0.06190154 0.11253045 0.043669626 -0.12487829 0.09731981
-0.043823306 -0.011233836 0.05538384 0.09757173 0.0972058 -0.07996242 0.09309339 0.08426715
-0.007718566 -0.106270164 -0.089844085 -0.088607386 0.07550069 0.029331103 -0.008394435 0.092902735
0.11019179 -0.10847425 0.09600535 0.07917536 0.10797018 -0.11315761 0.04994017 0.067377515
0.078289695 0.07407807 -0.011166471 -0.032739405 0.06582556 0.037878077 -0.12531348 0.033706028
0.13695061 -0.035357703 0.10598784 0.017407104 -0.014221555 0.062801205 0.41189274 0.05777281
-0.09625985 0.030116383 0.09902773 -0.048993718 -0.09193892 0.07772092 -0.0500989 0.019954868
-0.113762535 0.052053567 0.033162262 -0.06969309 0.047600586 0.12659097 0.06800841 -0.11641817
0.1286105 -0.11806048 -0.102616906 0.03480353 -0.049268022 -0.09076619 -0.024065495 -0.067210995
0.04289423 0.070480295 0.008668927 0.25613272 -0.11499901 -0.0050069243 -0.112223245 -0.02893271

net.2.bias f4 [32]
00000000: 6566 04be 6ccb 04be 36cf 4bbd ed8f bd3d
00000010: 02ea 80bd 50fa 0a3d b048 b93e 9531 21bc
00000020: fbe0 e2bd 9db4 a8bd 140e f5bd ac35 24bd
00000030: 83b9 033d 5356 883e a215 6f3c 29a9 633c
00000040: 82bc 883e 2e07 14bc 415c a2bd 8b32 4bbd
00000050: f092 03be a46d 873e 4021 45bd 9c30 c8bd
00000060: b55a 9f3d a434 b53b 29ce a0bd 2aa8 29be
00000070: 7c1d 38be 70fd 8abc 24f7 843e 686d a23e
-0.12929685 -0.12968224 -0.04975816 0.09255967 -0.062946334 0.033930123 0.3618827 -0.009838481
-0.11078068 -0.08237574 -0.11965576 -0.040090248 0.03215934 0.2662836 0.01459256 0.013895311
0.2670632 -0.009034915 -0.07927752 -0.04960875 -0.12849021 0.26450837 -0.048127413 -0.097748965
0.07780973 0.005529957 -0.07851822 -0.16568056 -0.17979997 -0.016966552 0.25969803 0.31724095

net.4.weight f4 [1, 32]
00000000: 8641 2b3e 79c1 cebd 1d06 8abc 0454 163d
00000010: 35ac 57bd 4953 8a3b 3701 473e 17f5 82bc
00000020: 7c2e 363c e30e 9fbc f21c ca3d 492b c83b
00000030: 9259 53bd 2ff6 b53d 7f67 edbd 7daf adbd
00000040: 4bc1 103e b88f 01bc 6b3b 6bbc 3e88 acbc
00000050: c3e1 32bd 9621 1a3e edc5 9ebd 84d2 a03d
00000060: 3801 edbd 68a0 93bd 3419 1b3c be2a 08bb
00000070: aba6 8dbd 1b44 753d 629b ba3d b1e9 163e
0.16724214 -0.10095496 -0.016848618 0.036701217 -0.052654464 0.004221354 0.19434057 -0.015986009
0.011119481 -0.019416278 0.09868802 0.0061086756 -0.051599093 0.088848464 -0.11592006 -0.08480737
0.14136235 -0.0079078 -0.014357428 -0.02106106 -0.043672334 0.15051875 -0.07752595 0.07852653
-0.11572498 -0.072083294 0.009466458 -0.002077743 -0.06916555 0.059879404 0.09111668 0.14737584
