Trading_Model/trading_model_GER40.pth (torch, 22272 bytes, 5 tensors)

net.0.weight f4 [64, 42]
-0.13275093 0.030410498 -0.025175625 0.051947378 -0.0064808833 0.016641183 -0.060822345 -0.020896697
0.06939024 -0.120855674 -0.13160314 -0.16392063 -0.0468144 -0.065939195 0.07654521 0.0271063
-0.09287125 0.0037576004 0.01925531 -0.061063375 -0.19050463 0.06419089 -0.21931185 -0.11577094
-0.06308668 -0.14895311 0.055951897 0.06082606 0.046747126 -0.03688383 0.019847017 -0.12437001
0.02210807 -0.20227179 0.078850366 -0.053366352 -0.16068722 -0.00081836665 -0.032885972 -0.02529837
-0.13334239 0.007503923 -0.09250918 0.0035575465 -0.037291773 -0.024204131 0.08330627 0.10157284
-0.062508866 -0.0243144 0.11337778 -0.11362077 -0.026191233 0.005897601 0.051404253 0.10266128
0.07836605 -0.14611743 0.07570104 -0.139857 -0.09145754 -0.18051472 0.027286297 -0.14279068
-0.053003777 0.029314179 -0.08907316 -0.16292855 -0.13836063 0.08677436 -0.17685276 0.0198703
-0.11978077 -0.1502801 0.08523515 -0.21123934 -0.08178762 -0.07770726 0.046910934 -0.15308587
0.037227195 0.07824327 -0.08286416 -0.07207755 -0.101698115 -0.055787772 -0.09074779 -0.076927096
-0.012426019 0.11284397 0.0621111 -0.09385605 -0.20642169 -0.15032457 -0.0856661 -0.13881831
-0.10516382 0.12962276 0.015947506 0.0569184 -0.17073019 -0.07400693 -0.009379441 0.0621343
0.023325386 0.12668692 0.043268297 -0.023379192 0.012466116 -0.06531056 -0.004408309 0.08372216
-0.10211494 -0.012591782 -0.04289741 -0.04651832 -0.08014287 -0.100477785 0.07407263 0.011643012
-0.11516854 -0.08985882 -0.11662176 -0.0020074795 0.05318361 0.15357536 -0.18787804 0.03833948
-0.10056544 -0.21803613 0.084879555 -0.14312296 -0.18061341 -0.08855626 0.062228296 -0.080600336
-0.07163636 0.065306254 0.009770226 0.15362175 -0.14261307 -0.061528455 -0.16980122 0.017487679
-0.0868174 0.081322804 0.08084492 -0.0045475625 -0.12043401 -0.04586863 -0.1695594 -0.15771282
-0.13010852 -0.12274477 -0.10161582 -0.18717703 0.03642026 -0.030285273 0.040485635 0.024042755
-0.124540426 -0.23554772 -0.14787816 0.02729229 -0.21122892 -0.06551922 -0.052369684 0.12496099
-0.020885378 -0.16326046 -0.085570864 -0.019677632 -0.105356544 -0.15923291 -0.031188065 -0.058641065
-0.0343771 -0.0057248054 0.059708152 0.11451012 0.01794383 0.027508182 0.049287993 0.007607638
-0.03710856 -0.1480856 -0.00067490875 -0.045337196 -0.07754768 -0.10569763 0.07536039 0.04522456
-0.14073674 0.06111523 0.09324795 0.079384394 -0.08056585 0.036691967 0.113756545 -0.0036425877
-0.045941755 0.11217543 -0.04606794 0.05116941 0.009991803 -0.07813342 -0.06061433 -0.15230238
-0.16343842 0.09315825 -0.04296722 -0.015492398 -0.06073361 -0.14622615 -0.18494318 0.09635951
0.04942549 -0.16157056 -0.12518406 -0.08684277 0.056715272 0.059506536 -0.16315985 -0.056186806
-0.038008604 0.14604646 0.044500954 0.094004825 -0.1195558 -0.048417274 0.03362934 -0.07380218
0.08279684 0.102972575 -0.18561737 0.016478123 0.06177148 0.096812785 0.070454925 0.0029296542
-0.12536243 0.093548246 -0.048032273 -0.036255118 -0.13132225 -0.18321358 -0.1264789 -0.047714304
-0.049386743 -0.13601798 -0.16464283 0.0178634 -0.11686651 -0.054382592 -0.12580575 -0.01805167
00000000: dcef 07be 701f f93c 1d3d cebc c6c6 543d
00000010: 975d d4bb 1753 883c da20 79bd 8d2f abbc
00000020: 781c 8e3d 2e83 f7bd f9c2 06be cfda 27be
00000030: 75c0 3fbd 210b 87bd bcc3 9c3d 080e de3c
00000040: 4833 bebd 1342 763b 50bd 9d3c 971d 7abd
00000050: a513 43be 8376 833d 4993 60be 5119 edbd
00000060: 9733 81bd 2a87 18be d12d 653d bf24 793d
00000070: ea79 3f3d 8013 17bd 3696 a23c b4b5 febd
00000080: fc1b b53c 5620 4fbe 4d7c a13d ad96 5abd
00000090: 318b 24be a887 56ba 71b3 06bd 873e cfbc
000000a0: e88a 08be 78e3 f53b 7475 bdbd ba25 693b
000000b0: 42bf 18bd be47 c6bc 7a9c aa3d 6c05 d03d
000000c0: a604 80bd fe2e c7bc 9c32 e83d 02b2 e8bd
000000d0: ff8e d6bc aa40 c13b 448d 523d 1440 d23d
000000e0: 617e a03d cf9f 15be 2609 9b3d ac36 0fbe
000000f0: 174e bbbd dad8 38be 8387 df3c b837 12be
00000100: 7d1a 59bd 4a24 f03c fd6b b6bd bed6 26be
00000110: 69ae 0dbe c1b6 b13d e418 35be 0ac7 a23c
00000120: 9f4f f5bd 07e3 19be c48f ae3d 204f 58be
00000130: 4580 a7bd fc24 9fbd ae25 403d 8bc2 1cbe
00000140: 8b7b 183d 023e a03d afb4 a9bd 659d 93bd
00000150: 1a47 d0bd b881 64bd fad9 b9bd f48b 9dbd
00000160: 8096 4bbc bd1a e73d 3568 7e3d 9a37 c0bd
00000170: 3560 53be afee 19be b571 afbd 6326 0ebe
00000180: 2160 d7bd d4bb 043e 58a4 823c 4523 693d
00000190: e5d3 2ebe f290 97bd 3aac 19bc 8980 7e3d
000001a0: e114 bf3c 37ba 013e 193a 313d b885 bfbc
000001b0: ae3e 4c3c 8bc1 85bd 9373 90bb 8676 ab3d
000001c0: a321 d1bd c34d 4ebc 32b5 2fbd fe89 3ebd
000001d0: f221 a4bd 4cc7 cdbd 64b3 973d 55c2 3e3c
000001e0: 7cdd ebbd e707 b8bd 64d7 eebd eb8f 03bb
000001f0: 0fd7 593d dc42 1d3e 1a63 40be dc09 1d3d
00000200: 41f5 cdbd dd44 5fbe 55d5 ad3d d38e 12be
00000210: b9f2 38be fc5c b5bd 19e3 7e3d ca11 a5bd
00000220: 15b6 92bd 49bf 853d 4c13 203c 054f 1d3e
00000230: 2909 12be 4305 7cbd 5fe0 2dbe 5242 8f3c
00000240: 52cd b1bd 928c a63d 0592 a53d b803 95bb
00000250: 1ba6 f6bd bfe0 3bbd fba0 2dbe 787f 21be
00000260: 2b3b 05be 9c61 fbbd f41b d0bd 56ab 3fbe
00000270: 692d 153d d218 f8bc 44d4 253d 50f5 c43c
00000280: 0d0f ffbd 6c33 71be 5f6d 17be 1594 df3c
00000290: 654c 58be f12e 86bd 9881 56bd 8ceb ff3d
000002a0: d017 abbc c02d 27be c73f afbd fc32 a1bc
000002b0: 2cc5 d7bd f40d 23be 1d7e ffbc 9d31 70bd
000002c0: 01cf 0cbd 2697 bbbb 8990 743d 4884 ea3d
000002d0: f0fe 923c d758 e13c 35e2 493d 7e49 f93b
000002e0: 25ff 17bd c0a3 17be 5cec 30ba 7fb3 39bd
000002f0: 51d1 9ebd 0078 d8bd 8c56 9a3d 633d 393d
00000300: 4b1d 10be f753 7a3d c8f8 be3d 4994 a23d
00000310: b5ff a4bd 514a 163d 31f9 e83d 7bb8 6ebb
00000320: 6c2d 3cbd 3bbc e53d bcb1 3cbd 0497 513d
00000330: a9b4 233c 6a04 a0bd bb46 78bd 28f5 1bbe
00000340: 675c 27be c1c9 be3d 65fe 2fbd d4d3 7dbc
00000350: cec3 78bd 4fbc 15be bf61 3dbe 2358 c53d
00000360: 6272 4a3d c172 25be 4030 00be 9fda b1bd
00000370: 464e 683d 20bd 733d 6013 27be 2324 66bd
00000380: e9ae 1bbd 348d 153e a246 363d 9a85 c03d
00000390: acd9 f4bd 3151 46bd ebbe 093d 9925 97bd
000003a0: 6491 a93d 49e3 d23d 7b12 3ebe 21fd 863c
000003b0: 1704 7d3d c845 c63d ac4a 903d 71ff 3f3b
000003c0: 025f 00be 3996 bf3d 7dbd 44bd 3f80 14bd
000003d0: 5779 06be 579c 3bbe af83 01be 1370 43bd
000003e0: c149 4abd 4c48 0bbe 2198 28be 4456 923c
000003f0: b557 efbd 48c0 5ebd 39d3 00be 19e1 93bc

net.0.bias f4 [64]
-0.016841587 -0.065061055 0.053203076 0.09769739 -0.08088168 0.15204692 -0.070369095 -0.09062068
0.05566122 0.075739585 0.01524474 0.1247568 -0.06369475 -0.10404889 0.02364574 0.03913386
0.01734664 0.0015409704 -0.002493983 -0.10400248 0.015805319 -0.07657022 -0.03695115 -0.05513114
-0.106883146 -0.13112889 -0.14590338 0.10174953 0.097851574 0.012535942 -0.06844609 -0.07016907
0.13164715 -0.09193009 0.0040023173 -0.008819232 0.102906674 0.089590736 0.29928342 0.06513679
-0.12265025 -0.12437529 -0.012967908 0.25212252 0.11357698 0.056198325 -0.048721034 0.008732283
-0.0806127 -0.02228162 -0.13231477 0.046879664 0.15286481 -0.06854601 -0.093211435 -0.14541915
-0.1279541 -0.016854571 -0.037016008 0.08753229 -0.02780701 -0.041612267 -0.022001363 -0.009810903
00000000: 5ef7 89bc bb3e 85bd 78eb 593d 9215 c83d
00000010: 4ba5 a5bd 30b2 1b3e ac1d 90bd 5697 b9bd
00000020: 05fd 633d 5b1d 9b3d 13c5 793c 7e80 ff3d
00000030: 6572 82bd 9617 d5bd b6b4 c13c d44a 203d
00000040: 8a1a 8e3c 63fa c93a 1772 23bb 41ff d4bd
00000050: 287a 813c d9d0 9cbd 175a 17bd 31d1 61bd
00000060: 8de5 dabd a746 06be b267 15be 0f62 d03d
00000070: 6866 c83d 8d63 4d3c 772d 8cbd cdb4 8fbd
00000080: 83ce 063e d845 bcbd df25 833b 8a7e 10bc
00000090: bcc0 d23d 597b b73d ad3b 993e 7066 853d
000000a0: 0e30 fbbd 79b8 febd 5977 54bc 3416 813e
000000b0: 0c9b e83d 3730 663d b58f 47bd d911 0f3c
000000c0: 4518 a5bd f287 b6bc 867d 07be e404 403d
000000d0: 9888 1c3e da61 8cbd a3e5 bebd c2e8 14be
000000e0: 6606 03be 9912 8abc 199e 17bd 2144 b33d
000000f0: 87cb e3bc a071 2abd 343c b4bc e9bd 20bc

net.2.weight f4 [32, 64]
0.011396348 -0.033239573 0.046272576 0.065869994 -0.0213285 0.0003887031 -0.091192186 -0.038098842
0.02549894 0.093713395 0.04746621 -0.06666646 -0.077330984 0.10118009 -0.05036967 0.01379211
0.03133208 0.044102658 0.14816692 -0.0214087 -0.052477065 -0.16620767 -0.08533595 0.0800984
0.018446537 -0.019508732 0.10573293 -0.06544737 0.06503926 -0.041750487 0.056810945 -0.065608025
-0.052629713 -0.10710562 0.095529005 0.13343698 -0.05591248 -0.006222534 -0.05417598 0.0187051
-0.06912774 0.07732535 -0.010151803 0.012492123 -0.061296053 0.077325515 0.10531882 0.10822964
-0.11380475 -0.1349341 0.00019967195 -0.078060485 -0.09247746 0.10323389 -0.07278733 0.009296156
-0.014704264 -0.087693706 -0.04913943 -0.035045248 0.091499396 -0.08729865 -0.044349413 0.13205758
-0.024286197 -0.008752852 -0.0881257 0.021658545 -0.013307214 -0.0054529896 -0.12763776 -0.007943705
-0.085095175 0.029045112 -0.08552045 -0.09875303 0.09189491 -0.011176999 0.036782444 -0.12678531
0.021498304 0.06472684 -0.042365097 0.06716129 -0.09057502 0.06572847 -0.085545756 -0.12107554
-0.129987 -0.08763835 0.10330142 -0.08822043 0.090719216 0.058473792 0.060610108 -0.060378842
0.058612857 0.026818974 -0.07406431 0.02069176 0.030355 0.13742287 -0.07424201 0.09866344
-0.052228205 0.12447477 -0.109508865 0.0036558283 -0.064156264 0.07177803 -0.13304202 0.036931906
-0.056627274 -0.0037148339 -0.030388046 -0.0851423 -0.08951281 0.107107565 0.07593629 0.085206896
0.068380035 0.10406853 -0.06534213 0.10717143 0.01755617 0.042385984 -0.047625232 -0.03923605
-0.05898947 -0.12027873 -0.08264891 -0.07608794 -0.105724484 -0.08153421 -0.10180254 -0.041422263
-0.0351836 0.04699956 0.042553432 0.08467183 0.066698566 0.08575076 -0.053388234 -0.025715884
-0.040440027 -0.025207205 0.21329816 0.052765723 -0.1408647 -0.10697181 -0.113021865 -0.088964425
0.043587025 0.036275707 -0.018117413 0.014324564 0.086750016 0.011732544 0.05446869 -0.13114288
0.10261523 -0.15334603 -0.11228498 -0.0029796914 0.025780104 -0.08845661 -0.08462239 0.16879681
0.046868075 -0.102173425 -0.10260437 -0.09776401 -0.0118520195 0.11382783 -0.0920103 -0.10291186
0.12516063 0.013767714 0.006229124 0.040353466 -0.098423205 0.007035956 -0.073066264 0.091356635
-0.14577514 -0.11811632 -0.052326374 0.12642427 0.15693791 0.07163941 -0.116240375 -0.039273754
0.08416689 0.12233763 -0.04958518 -0.055153605 0.032276664 0.030836506 -0.01647478 0.014432475
0.08086817 -0.045150798 0.0015667165 -0.04837968 -0.06819149 -0.043214183 0.09968664 0.050289016
-0.056113977 -0.023866301 0.07426844 -0.023377683 0.086346656 0.046836734 -0.07257755 0.11061208
0.044952862 0.06198459 -0.11021075 0.046072934 -0.013333941 0.068092786 0.05420451 0.019879395
0.0567974 0.05313747 0.06146646 -0.0619851 0.0012320437 0.07325378 0.28328678 0.06783649
0.03191256 0.010336863 0.092138626 -0.134259 -0.06501278 -0.047651757 -0.06541016 -0.02234105
0.07112376 -0.102841035 0.004758755 -0.032026097 -0.04469593 -0.0039878637 0.053168334 0.0042614853
-0.044023737 0.07878818 -0.031179506 0.10866476 0.08133918 -0.02487654 0.0018771539 -0.05100231
00000000: bfb7 3a3c 3826 08bd 5088 3d3d d9e6 863d
00000010: 1bb9 aebc d9ca cb39 f8c2 babd 880d 1cbd
00000020: 27e3 d03c cfec bf3d ee6b 423d 6d88 88bd
00000030: b55f 9ebd 8237 cf3d 6d50 4ebd 4df8 613c
00000040: 1156 003d fda4 343d 12b9 173e 4c61 afbc
00000050: 31f2 56bd 5832 2abe 9dc4 aebd a10a a43d
00000060: 311d 973c c7d0 9fbc 828a d83d 4509 86bd
00000070: 4e33 853d 8f02 2bbd 98b2 683d 805d 86bd
00000080: 4192 57bd 315a dbbd b6a4 c33d b4a3 083e
00000090: 7c04 65bd 66e6 cbbb a2e7 5dbd 703b 993c
000000a0: d892 8dbd c15c 9e3d bf53 26bc c3ab 4c3c
000000b0: 9211 7bbd d75c 9e3d 65b1 d73d 80a7 dd3d
000000c0: 7712 e9bd 2a2c 0abe 085f 5139 2dde 9fbd
000000d0: d364 bdbd 4a6c d33d 8611 95bd e74e 183c
000000e0: 27ea 70bc c298 b3bd 6d46 49bd 9b8b 0fbd
000000f0: 0964 bb3d a2c9 b2bd bba7 35bd 1a3a 073e
00000100: d9f3 c6bc 1f68 0fbc 3f7b b4bd 436d b13c
00000110: 8006 5abc feae b2bb 79b3 02be 5026 02bc
00000120: 6146 aebd 04f0 ed3c 5825 afbd 073f cabd
00000130: 6633 bc3d bb1f 37bc 30a9 163d 02d4 01be
00000140: 361d b03c 818f 843d 0687 2dbd dc8b 893d
00000150: 657f b9bd a69c 863d 9d32 afbd 74f6 f7bd
00000160: 501b 05be bc7b b3bd b28f d33d eaac b4bd
00000170: ffca b93d 3782 6f3d 4e42 783d ce4f 77bd
00000180: 0914 703d 77b3 db3c 07af 97bd c481 a93c
00000190: 0dab f83c 95b8 0c3e 320c 98bd 0f10 ca3d
000001a0: 3eed 55bd a1ec fe3d 2f46 e0bd 9f96 6f3b
000001b0: 5c64 83bd 5c00 933d 2b3c 08be e945 173d
000001c0: 00f2 67bd 9274 73bb 5af0 f8bc 165f aebd
000001d0: 7e52 b7bd 365b db3d 7c84 9b3d f480 ae3d
000001e0: d50a 8c3d e221 d53d 18d2 85bd b27c db3d
000001f0: f5d1 8f3c ed9c 2d3d ad12 43bd fbb5 20bd
00000200: f19e 71bd b254 f6bd d543 a9bd fed3 9bbd
00000210: 1486 d8bd 68fb a6bd da7d d0bd 64aa 29bd
00000220: ae1c 10bd 9c82 403d 824c 2e3d 6d68 ad3d
00000230: 4299 883d 189e af3d 9fad 5abd 1eaa d2bc
00000240: 71a4 25bd 577f cebc d56a 5a3e df20 583d
00000250: d63e 10be 0914 dbbd 0278 e7bd fb32 b6bd
00000260: 4f88 323d d695 143d f86a 94bc 93b1 6a3c
00000270: fea9 b13d db39 403c 901a 5f3d 524a 06be
00000280: ef27 d23d be06 1dbe abf5 e5bd ed46 43bb
00000290: cc30 d33c bd28 b5bd 814e adbd 12d9 2c3e
000002a0: bdf8 3f3d 4d40 d1bd 3d22 d2bd 7f38 c8bd
000002b0: f92e 42bc 911e e93d e56f bcbd 74c3 d2bd
000002c0: 1c2a 003e fa91 613c ae1d cc3b ad49 253d
000002d0: 1b92 c9bd e08d e63b c4a3 95bd 3019 bb3d
000002e0: 1446 15be f8e6 f1bd 2e54 56bd 5d75 013e
000002f0: 55b4 203e afb7 923d 6f0f eebd 84dd 20bd
00000300: b15f ac3d 278c fa3d d419 4bbd bfe8 61bd
00000310: 8934 043d d79c fc3c 1ef6 86bc 3076 6c3c
00000320: 369e a53d 0bf0 38bd 485a cd3a c529 46bd
00000330: fba7 8bbd 5b01 31bd 8228 cc3d dbfb 4d3d
00000340: c5d7 65bd 4383 c3bc 0d1a 983d 8e82 bfbc
00000350: 84d6 b03d e0d7 3f3d 8aa3 94bd 9688 e23d
00000360: 7e20 383d 8ee3 7d3d 2cb6 e1bd f9b6 3c3d
00000370: 9a76 5abc 3b74 8b3d 8c05 5e3d 1dda a23c
00000380: 64a4 683d ada6 593d 41c4 7b3d 17e4 7dbd
00000390: 877c a13a 1406 963d f70a 913e dced 8a3d
000003a0: bfb6 023d f25b 293c 2db3 bc3d 317b 09be
000003b0: 6c25 85bd 7d2e 43bd c3f5 85bd 9404 b7bc
000003c0: 55a9 913d 529e d2bd 55ef 9b3b cc2d 03bd
000003d0: 1413 37bd a0ac 82bb 0ac7 593d eea3 8b3b
000003e0: 3c52 34bd b35b a13d 2a6c ffbc a18b de3d
000003f0: 2895 a63d e3c9 cbbc d50a f63a cce7 50bd

net.2.bias f4 [32]
0.251441 -0.07512334 -0.040791374 -0.026816444 -0.007825015 0.11314511 0.19993623 0.1520346
-0.008398928 -0.027896719 0.18010592 -0.024355324 -0.10604759 -0.051188007 0.19581628 -0.086449
0.26062816 -0.048723042 -0.036512267 -0.09221822 -0.032257058 -0.003576382 -0.019182453 0.11626132
0.19847721 -0.07230945 -0.028867945 -0.12464832 -0.038174372 0.15577672 0.09065179 -0.009154765
00000000: e0bc 803e 44da 99bd db14 27bd 29ae dbbc
00000010: 7e34 00bc a0b8 e73d 15bc 4c3e f5ae 1b3e
00000020: a89b 09bc a987 e4bc b06d 383e d184 c7bc
00000030: 7b2f d9bd 84aa 51bd 1084 483e 2c0c b1bd
00000040: 0e71 853e d091 47bd e38d 15bd e8dc bcbd
00000050: fa1f 04bd bc61 6abb 8524 9dbc 6a1a ee3d
00000060: 9c3d 4b3e fa16 94bd 787c ecbc 9e47 ffbd
00000070: bb5c 1cbd ef83 1f3e a5a7 b93d defd 15bc

net.4.weight f4 [1, 32]
0.17743431 0.13078481 -0.011955284 -0.018908253 0.013235558 0.039429866 0.17001823 0.0960468
-0.006176057 -0.11265222 0.087297626 -0.072784156 -0.008444223 -0.038763642 0.12683839 0.036816075
0.19300784 0.061978966 -0.029089998 -0.12326095 -0.0022786958 -0.003342373 -0.073920645 0.09715854
0.12724839 -0.019425012 -0.024309658 -0.04150175 0.019710809 0.06950876 0.05222197 -0.12897912
00000000: 57b1 353e 74ec 053e 18e0 43bc 7be5 9abc
00000010: f4d9 583c 3681 213d 4219 2e3e 2fb4 c43d
00000020: 8560 cabb 35b6 e6bd 19c9 b23d dc0f 95bd
00000030: a359 0abc a0c6 1ebd ece1 013e 74cc 163d
00000040: d9a3 453e a8dd 7d3d 264e eebc 3d70 fcbd
00000050: 2c56 15bb b70b 5bbb b563 97bd 0efb c63d
00000060: 674d 023e 3421 9fbc 0c25 c7bc bdfd 29bd
00000070: 9078 a13c 9c5a 8e3d b4e6 553d 1a13 04be
