Trading_Model/trading_model_GBPUSD.pth (torch, 16650 bytes, 5 tensors)

net.0.weight f4 [64, 20]
0	0x3d6ecc0c	0.058300063
1	0x3d8fd72c	0.07023463
2	0xbeba5583	-0.36393365
3	0xbe3ba5c3	-0.18324952
4	0xbe3e4d71	-0.18584229
5	0x3c4d8911	0.012544886
6	0xbe9dfa8a	-0.3085521
7	0xbcf49b09	-0.029859083
8	0xbd870924	-0.0659354
9	0xbe8e4ac3	-0.27791414
10	0xbe1e2e7f	-0.15447424
11	0x3dd0edc1	0.10201598
12	0xbe37e4a3	-0.17958312
13	0xbd19b407	-0.037525203
14	0xbe605837	-0.21908651
15	0x3d69c159	0.057069156
16	0xbe31d015	-0.17364533
17	0x3ca2a716	0.019855063
18	0x3da93782	0.082625404
19	0xbe6dc9c3	-0.23221497
20	0xbdf4a4b3	-0.119454764
21	0x3e506697	0.20351635
22	0xbd15982e	-0.036522083
23	0x3dbd027f	0.09228992
24	0xbe1e5642	-0.15462592
25	0xbd160907	-0.036629703
26	0xbe3d983e	-0.18515107
27	0x3e025c60	0.12730551
28	0xbe0d4c42	-0.13798621
29	0x3d9bab1f	0.07600998
30	0x3d2f15c0	0.04274535
31	0xbdeee253	-0.11664262
32	0xbccac38e	-0.02475145
33	0x3d1b7060	0.037948966
34	0xbe2adb62	-0.1668525
35	0x3e052786	0.13003358
36	0xbd7a34cf	-0.06108552
37	0x3d527835	0.05138417
38	0x3cce260d	0.025164628
39	0xbdd0486c	-0.101700634
40	0xbe097255	-0.1342252
41	0xbe973dd1	-0.2953935
42	0xbd64eacc	-0.055887982
43	0x3d3b8af8	0.045786828
44	0xbd40fffa	-0.04711912
45	0xbda1881f	-0.07887291
46	0xbdac12af	-0.08402001
47	0x3c798c90	0.015231267
48	0xbe4c72d5	-0.1996568
49	0xbe1a6e68	-0.15081179
50	0x3e23355e	0.15938327
51	0xbe41463c	-0.18874449
52	0xbe1e6ed2	-0.15471962
53	0xbe8e8b1e	-0.27840513
54	0x3dc7517e	0.0973234
55	0x3cb10069	0.02160664
56	0x3d0496e5	0.032370467
57	0xbca5b588	-0.020228162
58	0xbd90e231	-0.070743926
59	0xbe960e0a	-0.29307586
60	0xbd8520a1	-0.06500364
61	0x3e72cd7f	0.23711203
62	0x3dd95f7d	0.10613916
63	0x3cd26720	0.02568394
64	0x3d2866d0	0.041113675
65	0xbe314541	-0.17311575
66	0x3d8a8251	0.06763137
67	0xbe872166	-0.26392668
68	0xbf02f4a9	-0.5115457
69	0x3d3294bb	0.04359887
70	0x3d9783e2	0.073982015
71	0xbc58219a	-0.013191605
72	0xbde424de	-0.11139844
73	0xbeccda53	-0.40010318
74	0xbeafb092	-0.343144
75	0x3d314185	0.043275375
76	0xbdd4a8cb	-0.10383757
77	0xbe051a5f	-0.12998341
78	0xbdb5339a	-0.08847733
79	0xbc69b147	-0.014263458
80	0x3e02673a	0.1273469
81	0x3db16445	0.08661703
82	0xbe9e9f15	-0.30980745
83	0xbe0782b3	-0.13233452
84	0xbe603007	-0.21893321
85	0xbe1f4acf	-0.15555881
86	0xbda969a3	-0.08272102
87	0xbe2a7b8f	-0.16648696
88	0x3de91f4c	0.113829225
89	0xbdf926a5	-0.12165574
90	0xbe5fe39d	-0.21864171
91	0xbe8eb6d2	-0.27873856
92	0xbd99c942	-0.0750909
93	0xbdc16c68	-0.09444505
94	0xbde148bf	-0.11000203
95	0xbca20bc7	-0.019781007
96	0x3e064727	0.1311308
97	0x3d782704	0.060584083
98	0xbe0762c2	-0.13221267
99	0xbd8d6cf4	-0.06905547
100	0xbec0409e	-0.375493
101	0xbf35fa0b	-0.7108466
102	0xbf31440f	-0.69244474
103	0x3910bb19	0.0001380261
104	0x3dc8368f	0.09776031
105	0xbdef300c	-0.11679086
106	0xbdf029aa	-0.11726697
107	0x3d804b00	0.06264305
108	0xbf243ed7	-0.64158386
109	0xbba5d6e1	-0.005061016
110	0x3e37fd05	0.17967613
111	0xbe2a1aaf	-0.16611741
112	0xbafa93c3	-0.0019117523
113	0xbe477a58	-0.19480264
114	0xbec1d78f	-0.3785977
115	0xbe7cca98	-0.24686658
116	0xbdf28f54	-0.11843744
117	0xbe5075ed	-0.20357485
118	0xbdbb3a8c	-0.09142026
119	0xbe9170fd	-0.28406516
120	0xbc8b6126	-0.017014097
121	0xbd90c04e	-0.07067929
122	0xbb8d3939	-0.0043098
123	0xbd543281	-0.051805977
124	0xbea50502	-0.32230383
125	0xbe5ad5ee	-0.2137067
126	0xbe77aca1	-0.24186946
127	0xbe98351a	-0.29728013
128	0x3f21305f	0.62964433
129	0x3e50aa4f	0.20377468
130	0x3d997e8d	0.07494841
131	0xbe1721ca	-0.14758983
132	0xbd99bcae	-0.07506691
133	0x3e0e4a24	0.1389547
134	0xbf5fdeb3	-0.8744919
135	0x3f259a70	0.6468878
136	0xbd8527cd	-0.06501732
137	0x3e0d8d88	0.13823521
138	0xbda2f773	-0.079573534
139	0xbe6d62f0	-0.23182273
140	0xbe22a268	-0.15882266
141	0xbde6ccae	-0.11269508
142	0xbe1df432	-0.15425184
143	0x3d461e18	0.048368543
144	0x3e6956e0	0.22787046
145	0xbe19a477	-0.15004145
146	0xbe04afa2	-0.12957624
147	0xbc522d40	-0.012828171
148	0x3cd404db	0.025881222
149	0xbbba023d	-0.0056765364
150	0xbdc226f5	-0.09480087
151	0xbe41ed21	-0.18938114
152	0xbd46dda2	-0.04855121
153	0x3d4b3826	0.049614094
154	0xbd6cad80	-0.05778265
155	0x3cfc9ca0	0.030836403
156	0xbd9c1d97	-0.07622831
157	0xbe575c85	-0.21031387
158	0xbcc186d4	-0.023623861
159	0xbe013fa6	-0.12621936
160	0x3bba63ff	0.00568819
161	0xbd280e8f	-0.04102951
162	0xbd869e71	-0.06573189
163	0xbe19d835	-0.15023883
164	0x3dc269a0	0.094928026
165	0x3d2090d4	0.03920062
166	0x3e1e71dc	0.15473121
167	0xbc3c9583	-0.011510256
168	0xbe8303b1	-0.25588754
169	0x3df3b264	0.1189926
170	0x3da1742a	0.07883485
171	0xbe06cdf1	-0.13164498
172	0xbe824138	-0.25440383
173	0xbd1704c7	-0.03686979
174	0xbdb2e4aa	-0.087350205
175	0x3dbf0f78	0.09329122
176	0xbca1a36b	-0.019731244
177	0x3d5d0e5c	0.053968772
178	0xbe410fe9	-0.18853725
179	0xbe6c3b75	-0.23069556
180	0x3d3f87c8	0.04676035
181	0xbca407e3	-0.020023292
182	0xbe087b42	-0.13328269
183	0xbe820bc9	-0.25399616
184	0xbd38c156	-0.045106255
185	0xbda6d70e	-0.08146487
186	0xbcd9e86b	-0.026600083
187	0x3d83c92b	0.06434854
188	0x3d5d5c64	0.05404319
189	0xbe7f4fd8	-0.24932802
190	0xbc9204b7	-0.017824514
191	0xbdec172f	-0.115278594
192	0x3d6378dd	0.055535186
193	0xbe1a6f51	-0.15081526
194	0xbd391ad8	-0.045191616
195	0xbe088961	-0.13333656
196	0x3d6b53dc	0.05745302
197	0xbe9662a9	-0.29372147
198	0xbde1a05a	-0.11016913
199	0x3c9e20c6	0.019302737
200	0xbca0e27d	-0.019639248
201	0x3dcfa4ee	0.1013888
202	0xbd209ef3	-0.039214086
203	0x3d027c61	0.0318569
204	0xbdff5a98	-0.12468451
205	0xbc38cbad	-0.011279029
206	0x3c391768	0.011297084
207	0xbe82cec4	-0.25548375
208	0xbe6ab9cb	-0.22922437
209	0x3dd17318	0.102270305
210	0x3df40ccc	0.11916503
211	0xbe567f12	-0.20946911
212	0xbdef84fb	-0.11695286
213	0x3ddf083b	0.10890242
214	0xbdb85646	-0.0900083
215	0xbe47e604	-0.19521338
216	0x3e2d3868	0.16916049
217	0xbe9657e3	-0.29363927
218	0xbc755d28	-0.014975823
219	0xbe769a14	-0.24082214
220	0x3da7c4b6	0.081918165
221	0xbdbed4dd	-0.09317944
222	0xbd9d1b1d	-0.07671187
223	0xbe8930c2	-0.26795012
224	0xbccf66bd	-0.025317544
225	0xbe93c61e	-0.2886209
226	0xbe2700a1	-0.16308834
227	0xbe7d4b25	-0.24735697
228	0xbe7fe19e	-0.2498841
229	0xbe5d82c0	-0.21631908
230	0x3cb237ce	0.021755125
231	0xbe64d08e	-0.22345182
232	0xbdce0cdd	-0.10061047
233	0x3ca6bc2b	0.020353397
234	0xbe97b282	-0.29628378
235	0xbdf00179	-0.11719031
236	0xbeb5918e	-0.35462612
237	0xbe2944f8	-0.16530216
238	0xbe053901	-0.13010027
239	0xbda5e9f8	-0.081012666
240	0xbc9dd3b0	-0.01926598
241	0xbe34d626	-0.17659816
242	0xbd51c3f4	-0.051212266
243	0xbe36f819	-0.17868079
244	0x3d114a90	0.0354715
245	0x3ddf5cb8	0.109063566
246	0x3dd58494	0.10425678
247	0xbe300602	-0.17189792
248	0x3d28ba08	0.04119304
249	0x3bc88cc0	0.0061202943
250	0xbd6ce20c	-0.057832763
251	0xbe050a50	-0.12992215
252	0x3de1017c	0.10986611
253	0x3e3e3882	0.18576244
254	0xbe0280bc	-0.12744421
255	0xbe20a0fa	-0.15686408

net.0.bias f4 [64]
0	0x3b502785	0.0031761837
1	0xbe3ed95e	-0.18637607
2	0x3da984f1	0.0827731
3	0xbe3afb02	-0.18259814
4	0xbdf90672	-0.121594325
5	0x3d6b39ca	0.05742816
6	0x3dacc379	0.08435721
7	0x3e0345b8	0.12819564
8	0x3cad02f2	0.021119568
9	0x3de66feb	0.112518154
10	0x3d86df02	0.06585504
11	0x3e4c9059	0.1997694
12	0xbe5b51bf	-0.21417902
13	0x3e28e882	0.16494945
14	0x3df83c6c	0.121208996
15	0xbdc686f3	-0.09693708
16	0x3e7aeff5	0.24505599
17	0x3d6cb2f8	0.057787865
18	0xbe611b0c	-0.21982974
19	0xbcbc551d	-0.022989804
20	0x3e19b3b5	0.15009959
21	0x3cc76035	0.024337867
22	0xbebd69af	-0.36994693
23	0xbdf6b5ba	-0.1204638
24	0xbe68a20a	-0.22718063
25	0x3e91e9d4	0.2849871
26	0x3e552dc5	0.20818241
27	0xbd0c5efc	-0.03427027
28	0x3cd0f347	0.025506629
29	0x3e7a0f99	0.24420013
30	0x3d79ba39	0.06096861
31	0xbe6442f6	-0.22291169
32	0xbe2745aa	-0.16335168
33	0x3df63ee6	0.12023716
34	0xbe0cb2b4	-0.13740045
35	0xbccab58f	-0.024744777
36	0x3e6b6f27	0.2299162
37	0xbd8ad8df	-0.06779646
38	0xbd1e6347	-0.038668897
39	0x3e272694	0.1632331
40	0xbe50a0cd	-0.2037384
41	0xbe0155ad	-0.12630339
42	0xbe099ef1	-0.13439538
43	0x3c56b506	0.013104683
44	0xbd60d5c4	-0.054891363
45	0xbe5c1026	-0.21490535
46	0x3eb5231c	0.3537835
47	0xbe55d122	-0.20880559
48	0xbde4f473	-0.111794375
49	0x3e19a050	0.1500256
50	0x3d05b54f	0.032643612
51	0xbda24287	-0.07922845
52	0xbda16451	-0.07880462
53	0xbe52c13e	-0.20581529
54	0x3e569ba8	0.20957816
55	0x3c0b4ef9	0.008502715
56	0x3c910de2	0.017706815
57	0xbc2343ed	-0.009964925
58	0x3c57cde9	0.013171651
59	0xbdbec3c1	-0.09314681
60	0xbe4e31df	-0.20136212
61	0x3e090fdd	0.13384958
62	0x3b250741	0.0025181326
63	0x3d1cf624	0.038320675

net.2.weight f4 [32, 64]
0	0xbc2e4fd4	-0.01063915
1	0x3dc66efe	0.09689139
2	0xbe0922ba	-0.13392153
3	0xbbd0d83d	-0.006373434
4	0x3bed2f29	0.007238288
5	0x3d13f76c	0.03612463
6	0x3dbd5cd6	0.09246223
7	0xbbff6fd5	-0.007795314
8	0xbd78c334	-0.060733035
9	0x3d4efddb	0.050535064
10	0x3e00a33f	0.12562273
11	0xbcc26874	-0.023731448
12	0x3d817f8a	0.06323154
13	0xbdf94b1c	-0.12172529
14	0xbdd700ea	-0.10498221
15	0xbdae16a7	-0.08500414
16	0xbe066675	-0.13125022
17	0x3d6a7910	0.05724436
18	0xbc50b690	-0.012738839
19	0xbd9a01e4	-0.07519892
20	0xbd1f2eb7	-0.03886291
21	0xbda0c477	-0.07849973
22	0xbd0fe56d	-0.035130907
23	0xbd4c23a0	-0.049838662
24	0xbd5ebf04	-0.054381385
25	0x3cf115be	0.029429313
26	0x3c9225ef	0.017840354
27	0x3d8dc4ad	0.069222786
28	0xbdfef32a	-0.124487236
29	0xbd99160d	-0.07474909
30	0xbd8dfb2a	-0.06932671
31	0xbd8b41f4	-0.06799689
32	0xbd049214	-0.032365873
33	0xbd19e5cd	-0.03757267
34	0xbd2d85f4	-0.042364076
35	0xbb20a000	-0.002450943
36	0x3d154f93	0.03645284
37	0xbd0b14de	-0.033955447
38	0xbd147758	-0.036246628
39	0xbcbc4175	-0.022980431
40	0x3d9393e6	0.07205944
41	0xbcbfe167	-0.02342291
42	0x3da1d750	0.07902396
43	0xbc9052ed	-0.017617667
44	0xbe1692f2	-0.14704493
45	0xbd908351	-0.070562966
46	0xbe398e3f	-0.18120669
47	0x3dcdfd14	0.100580364
48	0xbd26cbf0	-0.040721834
49	0x3d310428	0.043216854
50	0xbde05b54	-0.109549195
51	0x3cb1eaa8	0.021718338
52	0xbd9851db	-0.07437488
53	0x3db74577	0.08948796
54	0xbe2c2e6c	-0.16814584
55	0x3d8935e9	0.06699736
56	0x3d7bdc70	0.061489522
57	0x3d7dcf30	0.061965168
58	0xbcc3d236	-0.023903947
59	0xbbe5d552	-0.007013955
60	0xbe18bc33	-0.14915542
61	0x3d5a1f5b	0.05325256
62	0xbc7c0c54	-0.015383799
63	0xbe168b7b	-0.14701645
64	0x3d95c7ac	0.07313475
65	0xbcebb2a5	-0.028771708
66	0x3db7371d	0.08946059
67	0x3d60d588	0.05489114
68	0x3cd359c3	0.025799638
69	0xbd38f07d	-0.045151222
70	0xbc468bc0	-0.01211828
71	0xbf00a99a	-0.5025879
72	0xbd3ff3e5	-0.046863455
73	0xbe2764d6	-0.1634706
74	0x3dbd0531	0.09229506
75	0x3dbb8743	0.091566585
76	0x3c6ac070	0.014328107
77	0x3d80a994	0.062823445
78	0xbd20c002	-0.039245613
79	0x3c66c9c3	0.01408619
80	0x3d55db85	0.052211303
81	0x3d56b184	0.052415386
82	0x3b62a4c0	0.0034583062
83	0xbd596aed	-0.053080488
84	0xbd19dde1	-0.037565116
85	0xbe0c16dd	-0.13680597
86	0xbe47658d	-0.19472332
87	0x3d6f7602	0.05846215
88	0xbd7b3f0d	-0.061339427
89	0x3d4240c5	0.04742505
90	0xbdc72019	-0.09722919
91	0x3d6f16bc	0.05837129
92	0x3d056fde	0.032577388
93	0x3cc266a1	0.023730578
94	0xbd129f76	-0.035796605
95	0xbcceb8d1	-0.025234612
96	0x3da887ea	0.082290486
97	0x3d0dd143	0.034623396
98	0xbdf6c2fc	-0.12048909
99	0xbc5a8c00	-0.013339043
100	0x3d88ad88	0.066737235
101	0xbe5dd85d	-0.21664567
102	0xba8a3d34	-0.0010546804
103	0xbde06b87	-0.10958009
104	0x3d33c459	0.043888424
105	0xbd3e72c5	-0.04649617
106	0x3c5596ed	0.013036472
107	0x3dba9100	0.09109688
108	0x3d43e4ec	0.04782574
109	0xbe011de5	-0.1260906
110	0xbd429f58	-0.047515243
111	0xbd2d64ac	-0.042332336
112	0x3d5df7af	0.054191288
113	0xbc31602e	-0.010826154
114	0xbd7e7762	-0.06212557
115	0xbe44155a	-0.1914877
116	0x3d405730	0.04695815
117	0x3dc3e40e	0.09564982
118	0xbe11b9a6	-0.14230976
119	0xbe0f3194	-0.13983756
120	0x3d182c71	0.037151758
121	0x3cd68f37	0.026191337
122	0x3cfe21d6	0.031021994
123	0xbe011eeb	-0.1260945
124	0xbda0da09	-0.07854087
125	0xbda7699f	-0.081744425
126	0xbd2bfc79	-0.041988824
127	0x3b0fbbff	0.0021932123
128	0x3c43327f	0.011913895
129	0xbdc28bc7	-0.09499317
130	0x3c8f44f4	0.017488934
131	0xbe47e5d6	-0.19521269
132	0xbd6eceea	-0.058302797
133	0xbdde5b52	-0.10857262
134	0x3d85c459	0.06531591
135	0xbda6b86a	-0.08140643
136	0xbd1a0375	-0.037600953
137	0xbd9fc708	-0.07801634
138	0x3deb77b9	0.11497445
139	0xbc10916e	-0.008823736
140	0x3ca97638	0.020686254
141	0xbda5f653	-0.08103623
142	0xbd798ec8	-0.060927182
143	0xbe952757	-0.29131576
144	0xbda2ee37	-0.07955592
145	0x3cf48a38	0.029851064
146	0x3cfc30c8	0.03078498
147	0x3d0a1c9d	0.033718694
148	0xbe508174	-0.20361882
149	0x3dbde0f1	0.0927142
150	0xbd3d7568	-0.046254545
151	0x3d871314	0.06595436
152	0x3ccb5649	0.024821417
153	0x3df1e13f	0.118105404
154	0xbe176ed3	-0.1478837
155	0xbdfcb693	-0.12339511
156	0x3c5d86f5	0.013520946
157	0xbdaf551a	-0.08561154
158	0x3bb9acf6	0.0056663705
159	0xbd90f08c	-0.07077131
160	0x3d3c33ec	0.045947954
161	0xbd69539c	-0.0569645
162	0x3e314951	0.17313124
163	0xbc343b64	-0.011000488
164	0x3e12b682	0.14327434
165	0xbdca7192	-0.09884943
166	0x3d974512	0.07386221
167	0x3d81a12f	0.063295715
168	0xbdb2b19c	-0.087252825
169	0x3cd59ffe	0.026077267
170	0x3d707893	0.05870874
171	0x3e1ee010	0.1551516
172	0xbe309bd6	-0.17246947
173	0xbe3f06d5	-0.1865495
174	0xba99439d	-0.0011693124
175	0xbd030b10	-0.031992972
176	0x3d5d9dc9	0.054105554
177	0xbe1ee94f	-0.15518688
178	0x3d09dd79	0.03365848
179	0xbd5a89f1	-0.053354207
180	0xbda89fa9	-0.08233578
181	0xbd233b3c	-0.039851412
182	0xbdab6ea7	-0.08370715
183	0xbd34277b	-0.043982964
184	0xbc6e038a	-0.014527211
185	0xbceb8494	-0.028749742
186	0xbd1cc057	-0.038269367
187	0xbd2cda4b	-0.042200368
188	0xbd075952	-0.033044167
189	0xbdc406c5	-0.09571604
190	0xbe6c03ca	-0.2304832
191	0x3d05c394	0.03265722
192	0xbd4bc80b	-0.049751323
193	0x3dbc8a39	0.092060514
194	0xbdd4f342	-0.1039796
195	0xbd8b50b3	-0.068025015
196	0x3d96c37e	0.07361506
197	0xbd629321	-0.055316094
198	0x3ef22240	0.47291756
199	0xbdc9803f	-0.09838914
200	0xbd56e68a	-0.052465953
201	0xbdf97149	-0.121798106
202	0xbca43fb1	-0.020049902
203	0xbd56e62f	-0.052465614
204	0xbdce62b6	-0.10077421
205	0xbdad8ad8	-0.08473748
206	0xbe6743b5	-0.22584422
207	0xbf3762aa	-0.71634924
208	0xbf09c887	-0.53821605
209	0xbd29c749	-0.04144982
210	0xbd82fb1c	-0.063955516
211	0xbd5a834f	-0.053347882
212	0xbdcce4bd	-0.10004566
213	0x3d01f989	0.031732116
214	0xbd4694f4	-0.048481897
215	0xbc9a4871	-0.01883337
216	0xbc55b771	-0.013044224
217	0xbd0a5f70	-0.033782423
218	0xbeadddde	-0.33958334
219	0x3dd0afaa	0.10189755
220	0x3e0a3137	0.13495336
221	0x3dc84875	0.09779445
222	0x3dde65fb	0.10859295
223	0x3d6a7437	0.057239737
224	0xbdc122e0	-0.0943048
225	0x3ddeb1f8	0.108737886
226	0xbdaef7ad	-0.08543334
227	0xbc99ec03	-0.018789297
228	0xbf07c4df	-0.53034776
229	0x3cedea3f	0.029042361
230	0x3e049925	0.12949045
231	0xbde9ea6f	-0.11421668
232	0x3e046883	0.12930493
233	0x3db309b6	0.087420866
234	0x3d4e66d6	0.05039104
235	0xbde5ca1a	-0.112201884
236	0x3ddef770	0.10887039
237	0xbf268951	-0.6505328
238	0xbf228d93	-0.63497275
239	0xbd6a8efc	-0.057265267
240	0xbd233835	-0.039848525
241	0x3d8cf83b	0.06883284
242	0x3d976ba8	0.07393581
243	0x3eb02ea7	0.34410593
244	0x3c99fb51	0.018796595
245	0x3d11250d	0.035435725
246	0xbefefde1	-0.4980307
247	0x3df20f14	0.11819282
248	0xbd8f8df8	-0.070095
249	0xbd09f03f	-0.033676382
250	0xbc2df34f	-0.010617091
251	0x3d023d2b	0.031796616
252	0x3e024308	0.12720883
253	0x3d846741	0.064650066
254	0x3d928160	0.071535826
255	0xbd7a7797	-0.061149206

net.2.bias f4 [32]
0	0xbde19444	-0.110146075
1	0xbd0abb42	-0.03386999
2	0xbd7561b8	-0.059907645
3	0xbdd7e1a5	-0.10541085
4	0xbd944d6d	-0.0724133
5	0x3e1fd1b1	0.15607335
6	0x3e45fb8e	0.19334242
7	0xbd13261a	-0.03592501
8	0x3e9ca689	0.30595806
9	0xbd547ae8	-0.051875025
10	0xbdf6782f	-0.12034642
11	0xbcc5cfec	-0.024146996
12	0xbd9e5e87	-0.077328734
13	0xbe36911f	-0.17828797
14	0xbd6ef83f	-0.058342215
15	0xbe4bee4d	-0.19915123
16	0xbd854466	-0.065071866
17	0x3e5a6ca1	0.21330501
18	0x3de75cfb	0.112970315
19	0xbdfd9ff0	-0.12384021
20	0x3e9f367f	0.31096265
21	0xbd5e7879	-0.05431411
22	0xbe227bcb	-0.15867536
23	0xbc83dca5	-0.016096422
24	0xbcadc319	-0.021211194
25	0xbd84895a	-0.0647151
26	0x3e82b6f2	0.255302
27	0xbcd5ac49	-0.026083129
28	0xbd9e3fb5	-0.07726995
29	0x3e3cf3d7	0.18452393
30	0x3e87ecae	0.2654776
31	0x3e93d8d6	0.2887637

net.4.weight f4 [1, 32]
0	0xbaf5116e	-0.0018697211
1	0xbcba4450	-0.022737652
2	0xbc8d9bf0	-0.01728627
3	0x3eb0164e	0.34392017
4	0xbab97a3e	-0.0014150811
5	0x3d8e11cb	0.069369875
6	0x3dbbc954	0.0916926
7	0xbe246214	-0.16053039
8	0x3e4c7bbe	0.19969079
9	0xbd32fd4b	-0.04369859
10	0xbc839af6	-0.016065102
11	0x3a5f553f	0.00085194776
12	0x3dccae1c	0.09994146
13	0x3bd1f537	0.0064074057
14	0xbdad64ec	-0.08466515
15	0xbce2a938	-0.02766858
16	0xbcbb89d8	-0.022892877
17	0x3e2f9950	0.17148328
18	0x3d7a613b	0.061127882
19	0x3a0aff99	0.0005302369
20	0x3e4ce312	0.20008495
21	0x3d2e28ea	0.042519487
22	0xbc1a8ee5	-0.009433483
23	0xbb1b4042	-0.0023689424
24	0xbd928f46	-0.071562335
25	0x3ab53734	0.0013825656
26	0x3dfea6de	0.12434171
27	0x3c53d6a7	0.012929595
28	0x3d34337d	0.043994416
29	0x3e0fc9bf	0.14041804
30	0x3e0b05ae	0.13576385
31	0x3e488867	0.19583283
