Trading_Model/trading_model_EURCHF.pth (torch, 16650 bytes, 5 tensors)

net.0.weight f4 [64, 20]
00000000: a863 72be ae2b 733c c5c2 283e 5e7a 5dbd
00000010: fdfe 8a3d 1d4a 2c3e 3e8f b5bd c12a 56bd
00000020: 4712 213e 9e7d 4bbe 6747 b9bd 412e 253d
00000030: 9d04 13be 855a cdbd 443e 4e3c 92be 943d
00000040: 213b 2cbd d903 5abe 78e3 8cbd d11a a83c
00000050: 7d63 ed3d c55c 493d 0df8 8d3d c14f fc3d
00000060: ea08 40be 964e bf3d 852a 1e3e 5c05 f93d
00000070: a453 67be dfb1 263c 6aa5 0fbe 1a9a eebc
00000080: 6b8f 92bd 60b7 38bd 153d 04be dc92 693d
00000090: 8140 3ebd 166e 47be 85e1 56be 3ed2 8b3c
000000a0: fba4 85be c65f 57be 6810 39be bec3 aebd
000000b0: e124 2cbe 87af e73d 79cc 45bc 2482 873d
000000c0: 8030 13bd 7bd6 a5bc d58e a43c 05af 5abc
000000d0: 9c95 14be f9df 093e aaf5 a43d 8a57 8bbd
000000e0: c937 96bc 338b 8abe e9bf 663d 78aa dd3d
000000f0: 2439 44bd c8b1 d4bd 2c68 d2bd 6ae0 ecbe
00000100: 3039 1ebe 018b 0dbe 5427 cbbe 0101 04bf
00000110: bf65 0ebd b91e 94bd ddb7 25be a972 043e
00000120: eeac 97be a60c b13d 8d17 753d c795 bebe
00000130: b5a8 63be 0ada 1dbe 4377 f8bd 4a06 803d
00000140: a9df e7bb a8d0 073d 4ce7 c13b 8744 4f3d
00000150: 7e9c 773e cc77 e6bd 1760 363d 4382 033e
00000160: 3dba 373f a326 f63d fd3b 3bbe 7c42 2bbd
00000170: 0561 47be 355d a93e 8d13 da3e 2f15 1cbf
00000180: 0077 913e 7cfe 9e3c 4958 283e 3abe 88bd
00000190: 3fb3 e9be 5f14 b1bc a448 0cbe 6c6f b2be
000001a0: 2ca2 22bf 1866 15bf c25f 42bf 8ae8 88be
000001b0: c904 3a3e 8310 773d fffc 5dbe 33c4 9d3d
000001c0: e4d6 1cbd ba57 0f3d 8916 92be 1a3d bb3e
000001d0: 0efa 79be e50c 28bf 6b11 ac3d 4e22 3cbe
000001e0: c643 fbbd 339e 883c 5851 44be c944 1dbe
000001f0: 7e1c 50be 3b07 d83d 66cb 84bd 1e76 6fbe
00000200: 05a1 8d3e 9949 b8bd 045b 0b3e 0719 743c
00000210: 9a5d 393e 84b3 543a 1ef4 bfbe 5211 e9bd
00000220: f801 b0be fa3f 56be e00e 60bd be58 c3bd
00000230: 6c0a 37be 865b 9abe 8e7a 903d a059 b03d
00000240: b621 a9be f7e0 89be 19f4 1cbd 0c00 583d
00000250: 0600 48be 7a0e 05be 789a f0bd f7db 99bd
00000260: 9370 62be fc21 51be 59ab 55be 696d 403d
00000270: be12 86bd 3987 073e 7439 6abe 97f4 153e
00000280: dbc8 dabd 693d 84be 9fcc 00bd cd07 953d
00000290: 0b6a a8bd fc8e 3c3d 61d7 3ebe 0d66 95bd
000002a0: 7b77 a9be 6135 5dbe 9d58 9dbc 7a15 b6bd
000002b0: c6e4 1dbe e193 1abe 4630 debc e74d 9fbd
000002c0: 253b 6e3d b83e 3bbd cedc b6bc 7e9d 433d
000002d0: ea27 b53d 2066 d4bc 0293 233e 1eb2 24be
000002e0: 2cd5 73bd 83ad 5bbe be4a 9ebc b10d 233e
000002f0: c2fc 67be e1b3 66bd 6dc2 63be b6b1 f63d
00000300: 9236 5dbd f0cb ff3d 0f92 0bbe bff6 8dbd
00000310: 3af4 473b f6a1 30bd 34b6 72be a7b4 f03d
00000320: 9ffa 0d3d facf 18be 178b 2abe 9fca 47be
00000330: 11e2 07be e1da 8dbe 53bc 5cbe eac9 24be
00000340: 242d 5fbe e08f f8bd 376d 8cbe 72bb e7bd
00000350: 5e6e 1cbe 014a 55bd d846 b23d d55f c5bd
00000360: 98b1 29be 137c bb3d 2695 dfbb 2fb8 7cbe
00000370: d841 31bd ba3f 163e f08d a9bc 4810 c9bc
00000380: d449 51be 8026 54bc e0ee 213d c9a6 d8bd
00000390: 2dee 4ebe e4c7 853d dc9e 34be 9a04 623e
000003a0: 743e 0e3e 0e39 4abe 90b2 79bc c86b 143e
000003b0: e8f2 98bd 807f 32be 625f 24be 38b7 c83c
000003c0: 9f0e 053e 7619 63be c7c2 ee3c a6e0 8fbd
000003d0: 5b47 4abe 8781 3a3d 6406 b63d d51c 60be
000003e0: 5a55 0d3e 5e9d ac3c 2047 4ebe ed2d 083e
000003f0: b0d5 703d bf46 cbbd 7e5c 53be 6142 ad3d
-0.23670828 0.014841957 0.16480549 -0.054071777 0.067869164 0.16825147 -0.08865212 -0.052286867
0.15729629 -0.19872138 -0.09046822 0.040327314 -0.14357229 -0.10027031 0.0125880875 0.07262911
-0.042048577 -0.2129053 -0.06879324 0.0205206 0.115912415 0.049160738 0.069320776 0.12319899
-0.187534 0.09341161 0.15445907 0.12159225 -0.225905 0.010174244 -0.14027944 -0.029126216
-0.07156261 -0.045096755 -0.12913926 0.05702482 -0.046448234 -0.19475588 -0.20984466 0.017068025
-0.26102433 -0.21032628 -0.18072665 -0.085334286 -0.16810943 0.11312776 -0.012072676 0.06616619
-0.035934925 -0.020243874 0.020087639 -0.013347392 -0.14510196 0.13464345 0.08054669 -0.06803806
-0.018337147 -0.27059326 0.056335364 0.1082353 -0.047906056 -0.103854716 -0.102737755 -0.46264964
-0.15451503 -0.13822557 -0.39678442 -0.5156403 -0.034765 -0.072324224 -0.1618342 0.12934364
-0.29624122 0.086449906 0.059836913 -0.37223646 -0.22232325 -0.15415207 -0.12132122 0.062511995
-0.007076223 0.033157974 0.0059174653 0.050602462 0.24180791 -0.11253318 0.044525232 0.1284266
0.7176855 0.12019088 -0.18284602 -0.04181145 -0.19470604 0.33078924 0.4259304 -0.60969824
0.28411102 0.019408457 0.16439928 -0.06676908 -0.45644566 -0.021616159 -0.13699585 -0.34850633
-0.63528705 -0.5835891 -0.75927365 -0.26739913 0.18165888 0.06031848 -0.21678542 0.07703438
-0.038290873 0.034995772 -0.28532818 0.36570054 -0.24411795 -0.65644675 0.0840176 -0.18372461
-0.12268786 0.016676998 -0.19171655 -0.1535827 -0.20323369 0.10548254 -0.06484108 -0.23384902
0.2766191 -0.08998413 0.13608938 0.014898545 0.18102112 0.0008113908 -0.37490934 -0.11380257
-0.34376502 -0.20922843 -0.054701686 -0.095384106 -0.1787507 -0.30147952 0.070546255 0.086108446
-0.33033532 -0.26929447 -0.038318727 0.05273442 -0.19531259 -0.12993804 -0.117482126 -0.07512658
-0.22113256 -0.2042312 -0.20866145 0.04697934 -0.065465435 0.13235177 -0.22873479 0.14644085
-0.106828414 -0.25828102 -0.031445142 0.072768785 -0.08223351 0.046034798 -0.18636848 -0.07294855
-0.3309897 -0.21602394 -0.019207293 -0.08890815 -0.15419301 -0.15095474 -0.027122628 -0.077785306
0.058161873 -0.04571411 -0.022322085 0.047757618 0.08845504 -0.025927603 0.15974048 -0.16083571
-0.05952947 -0.21452908 -0.01932275 0.15923192 -0.22655013 -0.05632389 -0.22242136 0.120456144
-0.05400712 0.1249007 -0.13629936 -0.06931829 0.003051056 -0.043123208 -0.23702317 0.11753207
0.03466284 -0.14923087 -0.16654621 -0.19510888 -0.13269831 -0.27706054 -0.21556215 -0.16092649
-0.21794564 -0.12136817 -0.27427074 -0.11315049 -0.15276477 -0.05207253 0.087049186 -0.09637419
-0.16571653 0.09154525 -0.0068232 -0.24679635 -0.043275684 0.14672747 -0.020697564 -0.024543896
-0.2043832 -0.012948632 0.03953445 -0.10578687 -0.20208044 0.06532267 -0.17638725 0.22072068
0.13891011 -0.19748327 -0.0152403265 0.1449424 -0.07468206 -0.1743145 -0.1605201 0.024501428
0.12993859 -0.22177681 0.029145611 -0.0702527 -0.19753782 0.045533683 0.08887938 -0.21885999
0.1380209 0.021071132 -0.2014432 0.1329877 0.05879754 -0.09925603 -0.20640752 0.084599264

net.0.bias f4 [64]
00000000: ba5b 10be 3abf 41be 6912 2dbd fa23 333e
00000010: 9e5e 94be 1b8d cc3e 20d3 503e 7b8f b9bc
00000020: df98 b83d 4dfd 52be c3e8 a53d 14b8 28be
00000030: a734 26be 17f1 2f3e c2ff 55be b65d 8f3e
00000040: 6466 22be c55e 593e 44ab 19bd 642e 82bd
00000050: a191 303e 1dde 243d 2092 0a3a 8cc6 503e
00000060: 6d31 803d 3e74 5f3e ff7b 62bd b226 ea3d
00000070: 8941 7bbd 1d51 983d 3e5a 04be c71c 883e
00000080: 9311 12be b552 5dbd f245 f33d 49be 01be
00000090: e363 48be 404c 88bd 2fc6 753c 6903 1e3e
000000a0: 074d 783e 8463 66be 615a 34be 50fa dcbd
000000b0: 4550 0bbe 9c7d 25bd 29c5 88bd 0c04 353e
000000c0: 4b1f 34bd edcd c13a 2a96 3dbe 702b ce3d
000000d0: 75c4 b3bd 37fe 4dbe 130f 033e 0419 a3bd
000000e0: 0a2c 693e ccff 8dbb e95b dd3d e2e4 7bbe
000000f0: 9a99 0b3c 742b 05be b5ea e33c 4896 2cbe
-0.14097491 -0.18920603 -0.042253885 0.17494193 -0.28978437 0.39951405 0.20393038 -0.022651425
0.09013533 -0.20604439 0.081010364 -0.1647647 -0.16231023 0.17181812 -0.20898345 0.28001183
-0.15859371 0.21227558 -0.037516847 -0.063565046 0.17243053 0.040250886 0.00052860565 0.2038824
0.06259427 0.21821687 -0.055294033 0.11433162 -0.061341796 0.07437346 -0.1292505 0.26584455
-0.14264517 -0.054033954 0.118785754 -0.12670244 -0.19569354 -0.066551685 0.015000864 0.15430988
0.24248134 -0.224989 -0.17612602 -0.10789931 -0.13604839 -0.040402994 -0.0667823 0.17677325
-0.043975156 0.0014786102 -0.18514314 0.10066879 -0.087777056 -0.20116507 0.12798719 -0.07963756
0.22770706 -0.004333472 0.10808546 -0.2459903 0.008520508 -0.13004857 0.027821878 -0.16854203

net.2.weight f4 [32, 64]
00000000: d278 fc3d 3c0f e33d c917 9cbd fc7a b2bc
00000010: 5ee2 06be 1f67 6dbc 2fa8 c33d b544 38bd
00000020: 6358 5dbb 8f86 b23d 1fac a4b9 9876 b13c
00000030: 4924 b93d 6f56 df3d 560f 093e 07b1 3abd
00000040: b58e 453c a91b bc3c 8df9 89bd 8502 ccbd
00000050: 5f82 c63d 601a 8cba 3392 32bd e7fe f5bd
00000060: 7f7a 0bbe 758b 8e3d 3f23 c63d 16e5 13be
00000070: 9aba 2b3d e13f d03d 383b b13c 5dda 8aba
00000080: 2a66 0abc cb6b 173d 4a08 fcbd 7f92 c23d
00000090: 7b46 183c cf63 5dbd 1930 de39 fb71 d73c
000000a0: 4dbd 393d fd6c 5abd 9a5e 82bd 0dbe e83d
000000b0: 9e1a 9dbd 3797 823b a695 873d 6cd4 a33d
000000c0: 7cbd dcbd 9819 8d3d 2237 113e 7c11 cc3d
000000d0: 7853 28bd b9f3 453c cc34 27bd 32f7 873d
000000e0: d9f0 fbbd c850 42bd 19f0 84bd 386d 7c3d
000000f0: 2bb7 e0bd fec7 843d 119d 1ebd ae1a a33c
00000100: 8edf 773d 8078 a13d 4c8b cfba 36d7 fe3c
00000110: 8dc2 fe3c 591f 5bbd e267 893d 8f7f c4bd
00000120: ac1d 0ebd f4d4 c83c 8dca 993d 8059 69bc
00000130: 748d d2bd d750 2a3d 93bb d73c 2d5b ba3b
00000140: 45ac 9e3c 64c4 153d 60bb efbc bd7a 08bd
00000150: d08e 88bc eb1d 0bbe 604d 993b cead f0bd
00000160: b3ad d3bd a677 d7bd a836 f83c 6a8a 4bbd
00000170: 35ce 893c a25a b03d 8ea7 cd3d 64ee 7b3d
00000180: f1b7 ddbd 2ab6 f23a 54ed c63d 6a2a f4bd
00000190: 0749 8bbd 8107 98bd 713c dc3d df54 9e3d
000001a0: a0f6 40bc 05ae 63bd fe73 e33d cfd1 833d
000001b0: ce47 903d 8770 a53d f7ef a53d f49d 1bbe
000001c0: 5a8e 57bd 6ab9 9abb b271 f6bd 2c09 35bd
000001d0: 7b40 9f3d 384d e2bd 64d2 42be d088 b4bc
000001e0: 4611 eabd 9b70 173d c5fe be3c 74c1 8bbd
000001f0: 29c0 5b3d 582e bebc b650 d5bd 3b06 c0bc
00000200: f686 943c ebfc 76bd 537d 8a3d 1ffe 7b3e
00000210: 5fb0 17be c916 813e cc4d 493d 8147 87bd
00000220: e42f ea3b 3b6e 78bd 8b90 333d c07b fa3c
00000230: 0f2e adbd 58ca 0a3e 0e36 9dbd 093d 0a3f
00000240: 2dac 7b3e f804 cfba dae2 be3d 8bbf e13d
00000250: 41d5 d33e c852 8f3c 4fb7 37bd c6ea 95be
00000260: 5f7c bd3d 04d9 b9bd f35e a7bd 3f6e 703a
00000270: b39d 6b3c d16e 9fbd 7cfe fdbc 7d99 843d
00000280: 5917 30bd c224 b8bb 7474 733d 9e42 e7bd
00000290: 1d15 c13d a634 5d3c 03e9 cebd 7de9 183d
000002a0: 7ca9 c5ba d6e9 a23d 5849 bb3d ebe8 34bd
000002b0: 5465 bbbd 68c4 94bd 4fe4 3ebb 75ea ce3b
000002c0: ea8e 9e3d 44cd 9cbb fd5b d8bd e58d f1bc
000002d0: 2593 50be 6306 40bd 2878 aebd 4dfc a53d
000002e0: ac1c 8bbd f2e6 0c3c 2416 4d3d 46a3 b43d
000002f0: 6217 8bbe 4a95 eabd f9ee 023d a57d 3c3d
00000300: ea7a 553d 26b2 a3bc f462 7fbd 8ae0 773d
00000310: 4557 57bc 4f34 3c3e d9ef ccbd d511 a53d
00000320: c843 f13c a23d 48bd e527 143c 6ee8 a0bd
00000330: 9243 a7bd bf35 a2bd 85b8 f13b 374d 113f
00000340: 452c 663e edf6 243e f95c ff3c 30ba 133d
00000350: d8ab d43e 0a1e c83d bf29 233e 01f3 40be
00000360: 4b79 523c dc3e fdb9 68af e33c ae8c 00be
00000370: 65c8 0dbd 3003 f5bd aeba c2bd 85d3 a53c
00000380: 7a89 da3d b2c4 34bb 6378 cbbd 3ad3 bfbd
00000390: c1bc 5bbd 07ce 5cbd 268b 193c 18f2 443d
000003a0: 80dd 183c bdf4 82bd b261 f4bd 4507 85bd
000003b0: aa97 ab3d b32a 62bd 365b f1bd 5101 94bc
000003c0: c6a4 d53d 127c 67bc a34a 903d e04f a83d
000003d0: 4496 1fbe ec57 84bd ce25 1d3e 74c2 e83c
000003e0: 65c4 2dbd a2f5 503d a7ab ad3d ea56 fcbc
000003f0: 7266 29be 008c 8e39 b750 98bd 6b63 ccbd
0.12327732 0.1108689 -0.07621724 -0.02178716 -0.1317229 -0.014489918 0.09553563 -0.0449874
-0.0033774606 0.08717071 -0.00031408758 0.021662995 0.09040124 0.10905158 0.13384756 -0.045578983
0.01205795 0.022962408 -0.06737051 -0.09961418 0.09692835 -0.0010689013 -0.043596458 -0.120115094
-0.13620947 0.06960193 0.096746914 -0.14442858 0.041926004 0.10168434 0.021634683 -0.0010593642
-0.008447209 0.036968034 -0.123062685 0.09500598 0.009294148 -0.054050263 0.00042378975 0.026299467
0.045346547 -0.053326596 -0.063657 0.11364374 -0.076710925 0.0039853114 0.0662034 0.07999501
-0.10778329 0.06889647 0.14181188 0.099642724 -0.041095227 0.012082034 -0.040821835 0.06638946
-0.123017974 -0.04744032 -0.064911075 0.061627597 -0.109724365 0.06483458 -0.03872401 0.019910183
0.060515933 0.07884312 -0.001583436 0.03110848 0.031098628 -0.053496692 0.06709267 -0.09594642
-0.034696266 0.024515606 0.075093366 -0.01424253 -0.10280886 0.041581 0.02633456 0.0056871385
0.019369254 0.036564246 -0.029264152 -0.033320177 -0.01666966 -0.13585632 0.0046784133 -0.117519006
-0.10335865 -0.10520868 0.0302995 -0.04969255 0.01682196 0.08611037 0.10041724 0.061506644
-0.108261 0.0018517424 0.097132355 -0.11922152 -0.06801038 -0.07423306 0.10753716 0.077310316
-0.01177755 -0.05558588 0.11106108 0.06436502 0.07044946 0.080781035 0.0810241 -0.15196973
-0.05262599 -0.00472181 -0.120334044 -0.0441982 0.077759705 -0.110498846 -0.1902557 -0.022037894
-0.11429076 0.036972623 0.023314843 -0.06824008 0.053650055 -0.023215458 -0.10415785 -0.02344047
0.01813076 -0.060299795 0.06762185 0.24608658 -0.14813374 0.25212696 0.04914646 -0.06605435
0.0071468223 -0.060652 0.04383902 0.030576587 -0.084560506 0.1355375 -0.07676326 0.5399938
0.24577399 -0.0015794327 0.09320612 0.11022862 0.41373637 0.017495528 -0.04485255 -0.2928068
0.092522375 -0.090745956 -0.08172407 0.00091717014 0.01438086 -0.077848084 -0.031005137 0.06474588
-0.042991016 -0.0056196162 0.05943723 -0.11292003 0.09427855 0.013501322 -0.10103037 0.037332047
-0.0015080418 0.07954757 0.091448486 -0.04416744 -0.09150186 -0.07264024 -0.0029127782 0.0063145705
0.077421024 -0.0047852118 -0.1056442 -0.029486606 -0.20368631 -0.04688109 -0.08519012 0.08104763
-0.06792578 0.0085999835 0.050069943 0.088202044 -0.27166277 -0.11454256 0.031966183 0.04601826
0.052119173 -0.019982409 -0.06235023 0.06051687 -0.013143365 0.18379329 -0.10006685 0.08060042
0.029451266 -0.048886903 0.009042715 -0.078568324 -0.08167185 -0.079204075 0.007376733 0.56758446
0.22477825 0.1610982 0.031172263 0.036066234 0.41537356 0.097713545 0.15933894 -0.18842699
0.012846301 -0.00048302754 0.027793601 -0.12553665 -0.03461494 -0.119634986 -0.095082626 0.020242462
0.10670753 -0.002758306 -0.09935071 -0.0936646 -0.053646807 -0.05390742 0.0093715545 0.04808244
0.009330153 -0.063943364 -0.119326964 -0.06495527 0.08378537 -0.055216502 -0.11784975 -0.018067034
0.10431819 -0.014128702 0.07045486 0.0821836 -0.15584666 -0.06462082 0.15346453 0.028413035
-0.042423625 0.051015504 0.08480006 -0.030803163 -0.16542986 0.0002718866 -0.0743727 -0.099799

net.2.bias f4 [32]
00000000: b789 cabd d933 29bd 6050 683e da1f 8c3e
00000010: 940d 59bd e696 c5bd 2217 d9bd 97f3 803e
00000020: 8b1c 7dbd 197b a1bd 6fa5 5e3e cd19 64bd
00000030: f54d 5bbd 7810 83bd 172c 463e b82f b0bd
00000040: 1b0b e7bd b81b 12bd a797 dabd b6ab 573e
00000050: c7b5 16bd e039 57bd 2b4b 933e e29f ba3d
00000060: 9c6a 9cbd 89c0 debd d584 efbd 0bd9 edbd
00000070: 2698 b9bc 2fbe bcbc 6267 3cbd 7d9a 883e
-0.09889548 -0.04130921 0.2268691 0.2736805 -0.052991465 -0.09647922 -0.10600115 0.25185844
-0.0617948 -0.07884807 0.21742795 -0.055688668 -0.053541142 -0.063996255 0.19352756 -0.08602852
-0.11281415 -0.035670966 -0.10673457 0.21061596 -0.03679445 -0.05254543 0.28768286 0.091125265
-0.076375216 -0.10876567 -0.116952576 -0.11613663 -0.022655558 -0.023039905 -0.04599703 0.26680365

net.4.weight f4 [1, 32]
00000000: 0f2a 02bd 036d b2bc 5790 f83d 6d1e 453e
00000010: b024 52bd 6b09 bbb9 6069 f73b 5900 163e
00000020: f317 4f3e ec7d 3fbe bfff df3d bf9d c6bc
00000030: 44e1 d3bc d171 c43c 78f5 1c3e 620b 253c
00000040: f481 a5bb f854 de3c 2ce6 1cbe 5fc8 023e
00000050: 6f0a 3abc 0406 debc 373a 4e3e 087b 243d
00000060: 7fe3 03be 1e52 b13a e7f2 66bd 763d e13d
00000070: 7588 afbc 971a b6bd 4da9 ccbc 5628 313e
-0.03177839 -0.021780496 0.12136906 0.19249888 -0.05130452 -0.00035674436 0.0075504035 0.1464857
0.2022398 -0.18700379 0.109374516 -0.024245141 -0.025864251 0.023980053 0.15328014 0.010073515
-0.005050892 0.027140126 -0.15322179 0.12771748 -0.011355027 -0.027102478 0.20139395 0.040156394
-0.12879752 0.0013528501 -0.056383993 0.10998051 -0.021427372 -0.0889179 -0.024983073 0.17300543
