Trading_Model/trading_model_NAS100.pth (torch, 22282 bytes, 5 tensors)

net.0.weight f4 [64, 42]
000000 cf 29 2f bc 2b c7 25 bd f9 44 b9 3d 40 f9 1a be
       -0.01069112 -0.040473145 0.090463586 -0.15134144
000010 2b d7 7c 3d 2e d9 a6 bb be 62 35 3c 4a 92 a8 bd
       0.061728638 -0.005091808 0.011070905 -0.082310274
000020 be c7 af 3d f7 ec 7d bc eb 46 1c be 85 16 a1 3d
       0.0858302 -0.015498391 -0.15261428 0.078656234
000030 bd 21 e5 bc 52 6e c9 bb 73 35 32 bd 1f ac 88 bd
       -0.02797019 -0.0061471844 -0.043508004 -0.066734545
000040 0b 1b 77 3c da ff 87 3b c4 f1 cf bd 1b f4 0b 3e
       0.015082131 0.004150373 -0.10153535 0.13667338
000050 12 de f2 3d 36 75 a1 bd 42 80 fe bd f0 1b f3 bc
       0.11858763 -0.07883684 -0.12426807 -0.029676408
000060 ac 57 0f bd ac a4 69 3d 44 cd 15 3d ed 8c 2b bb
       -0.03499572 0.05704181 0.03657271 -0.0026176528
000070 3e 3c c9 bc d1 1f 8c bd 08 e2 1a be 2e 26 cf 3d
       -0.024564859 -0.06842006 -0.15125287 0.10114704
000080 78 02 d9 bc da 83 e0 bd f9 60 1d 3e 23 11 1d 3e
       -0.026490435 -0.10962649 0.15369023 0.15338568
000090 80 c2 cb ba 80 73 3b 3d a0 5c 19 3c 1c a3 09 3e
       -0.0015545636 0.045764446 0.009360462 0.13441128
0000a0 00 6d a2 ba 57 b2 02 be 99 ba a1 bd 03 fd a0 3d
       -0.0012392104 -0.12763344 -0.07896919 0.07860758
0000b0 a5 ca 8d 3d 6f c6 cf bd fe ff 04 3e f5 f2 ed 3d
       0.06923417 -0.1014527 0.12988278 0.11618606
0000c0 c7 4a de 3d 43 e0 e0 3d 53 40 80 bc d7 0c 36 3c
       0.108541064 0.109802745 -0.015655672 0.01111146
0000d0 c0 fb 17 bc de 50 02 be 9a 0b c3 3a 6d 6f b2 bd
       -0.0092763305 -0.12726161 0.0014880777 -0.08712659
0000e0 31 15 b5 3d 7a a1 f3 3d a7 d0 09 be e4 fd d7 3a
       0.088419326 0.118960336 -0.13458501 0.0016478864
0000f0 42 7a 94 3d 3f 2b b2 3b 2b eb dd bd 9f b8 f8 3c
       0.07249881 0.0054372842 -0.1083587 0.030361472
000100 4d 43 dc bd 8d 39 4f be bc e4 98 bd 37 ee 57 be
       -0.10755024 -0.20236798 -0.074655026 -0.21086966
000110 12 d0 20 3d a9 3f 00 be 7a b3 1d be c6 b9 ef 3c
       0.03926093 -0.12524284 -0.15400496 0.029263388
000120 ff a9 d2 bd 33 1c 42 be 2e ff 09 3d 9b 3e 8a bc
       -0.102863304 -0.1895607 0.033690624 -0.016875556
000130 5e 4b 3d bd 7f 12 c7 3d 79 68 bb bd 3d 28 d5 3d
       -0.046214454 0.09720325 -0.09150786 0.104080655
000140 63 e4 c7 3d 9f 38 fb 3c 6b e3 94 bd c8 aa 42 bd
       0.09760358 0.030666647 -0.07269939 -0.04752615
000150 47 5c a9 bd f5 53 79 bc 03 a0 f4 bc 93 e2 44 bc
       -0.08269554 -0.015217771 -0.029861456 -0.01201691
000160 bd dd 5e bd a5 82 04 bd 44 72 1a be e1 ff 84 bd
       -0.054410685 -0.032351155 -0.15082651 -0.064941175
000170 51 de cb 3d 68 f1 bc 3d e7 41 ad bc 66 0f 73 bd
       0.09954513 0.09225732 -0.021149589 -0.059340857
000180 76 45 0d be ad e9 7c bd 1e 10 37 be 93 7c 95 bd
       -0.13796028 -0.061746288 -0.17877242 -0.07299151
000190 fa 85 6d bd 86 7e 99 bd bd f4 a2 bd 03 5d 26 3d
       -0.057989098 -0.074948356 -0.079568364 0.040616047
0001a0 b3 15 bb bd d8 9d 2d bd f9 f9 c3 bd 40 c4 54 bc
       -0.09134998 -0.04238686 -0.09569163 -0.012986243
0001b0 74 e0 e0 bd ea 64 94 3d 9b a3 a4 bd 5e 0e 8c bd
       -0.10980311 0.0724581 -0.08039018 -0.06838678
0001c0 76 7c d4 bb a7 d4 0d 3e f0 ec a3 3c 84 a7 29 3d
       -0.0064845635 0.13850652 0.020010442 0.04141952
0001d0 e8 37 cb bd 2a 6c 98 bd 3f 31 07 be dc 41 b8 3d
       -0.09922773 -0.07442506 -0.1320238 0.08996937
0001e0 8b 59 87 bd 40 26 23 3d ec 21 e5 bd 38 71 31 3d
       -0.06608876 0.0398314 -0.11188111 0.043320864
0001f0 55 95 0d be 86 f3 f8 3d d5 cc b0 bc e1 87 f2 bd
       -0.13826497 0.121558234 -0.021582047 -0.11842323
000200 f4 0d 15 be 24 a2 4b 3d 13 82 86 3d 67 1c a3 bd
       -0.14556104 0.049715176 0.065677784 -0.07964402
000210 da 7c 01 be 4f 11 0c be 24 86 0d be b8 d9 26 be
       -0.12645283 -0.13678478 -0.13820702 -0.1629399
000220 c1 d6 a5 bd bc d5 38 be 9f 20 bf 3d 93 6f 7a 3c
       -0.08097602 -0.18050283 0.09332394 0.01528539
000230 61 b9 40 be b5 c0 0e be 1f f8 bc bd 9a 25 4f bd
       -0.18820716 -0.139407 -0.09227013 -0.05057297
000240 9c 95 92 3d 6d c3 87 3c 60 6f 11 3e 72 4a 55 3c
       0.07157442 0.016572678 0.14202642 0.013018237
000250 91 ce 38 bd 57 d4 41 3d b4 2f 3b bd 2b 5c ff bd
       -0.045118872 0.047321644 -0.04569979 -0.124687515
000260 0a 4e a0 bc b7 22 0c be de 17 9c bd f6 d6 34 3d
       -0.019568462 -0.13685118 -0.0762174 0.044150315
000270 38 44 d0 3d 52 34 04 be 94 0e 80 3c c3 e0 78 bb
       0.10169262 -0.12910584 0.015631951 -0.0037975765
000280 e4 c7 9d 3c 61 5b c0 bd 1f 54 ec bd 23 67 a0 3d
       0.019260354 -0.09392429 -0.11539482 0.07832172
000290 33 78 8b 3d f6 14 48 3b 18 59 db bc c7 99 69 3d
       0.068100356 0.0030530072 -0.026775882 0.05703142
0002a0 ce 66 b3 bd 0c 45 27 3d 23 1e ec bd f4 a8 be 3d
       -0.08759843 0.040837333 -0.115291856 0.09309569
0002b0 b5 f6 3a be 28 b7 83 bd a6 e8 dc bd 95 cc 7b bd
       -0.18258174 -0.06431419 -0.10786562 -0.0614744
0002c0 dc d7 d7 bd c6 8c 42 3d 30 ed 7c bd ab 6f ba bd
       -0.10539219 0.047497533 -0.061749637 -0.0910333
0002d0 64 4a 1a 3d af 28 24 3d 36 1d fc bd 33 6a cf 3c
       0.0376686 0.04007786 -0.12310259 0.025319194
0002e0 44 78 21 be d9 ee 4a be 7b 9e d9 3c b7 1d b3 bd
       -0.15768534 -0.19817676 0.026564827 -0.08745902
0002f0 97 33 89 bd df 21 d3 3d 9a 65 49 3d 52 e1 1f bd
       -0.06699293 0.10309195 0.04916916 -0.03903324
000300 ae d8 03 3e d2 e7 2b 3d 18 8c 86 bd a9 58 14 be
       0.12875625 0.041969128 -0.065696895 -0.14486946
000310 57 1f 68 3d 5e 10 ec ba af 10 2b bd 26 37 12 bc
       0.056670513 -0.0018010249 -0.041763958 -0.008924281
000320 8d 25 d2 3d 86 c8 20 be 5d 9c 92 bd 35 e3 bc 3d
       0.102610685 -0.15701494 -0.0715873 0.09223024
000330 fc 5b 47 bd ad fb 4a be e9 ec 97 bd e8 f8 dc 3d
       -0.048671708 -0.19822569 -0.07418234 0.107896626
000340 db 85 0d be 28 e4 11 be 28 4a 3a be 06 72 3e be
       -0.13820593 -0.14247191 -0.18192351 -0.18598184
000350 01 68 c4 bd 71 04 45 3b b8 46 44 be 5c 30 2f be
       -0.0959015 0.0030062462 -0.19167602 -0.17108291
000360 23 e8 e4 bd 4e 20 d2 bd a0 7f e5 3d 9a fb 46 be
       -0.11177089 -0.10260068 0.11205983 -0.19431916
000370 ca c6 ff bc a8 9e 08 bc 0e d0 7d 3d 74 2a 27 be
       -0.03122272 -0.008338608 0.061965995 -0.16324788
000380 47 a1 56 be eb 37 4c be 2f aa 32 be 3e 0d 2f be
       -0.2095996 -0.19943206 -0.17447732 -0.17094895
000390 b5 8c 00 3d 55 16 ab bd ff 7b b2 3d ee e0 d5 3c
       0.03138419 -0.08353869 0.08715057 0.026108231
0003a0 4a f6 f3 3c e9 eb 16 3e 35 7e 1f 3e e9 ba ce 3d
       0.029780526 0.1473843 0.15575488 0.10094244
0003b0 ab 46 40 3d 6f 82 98 ba 57 1b 76 3d 86 69 6c bc
       0.046942394 -0.0011635552 0.060084667 -0.014429456
0003c0 13 33 b4 3d 8b ac 15 be 7b f2 40 3d 85 6f 88 3d
       0.08798804 -0.14616601 0.047106247 0.06661896
0003d0 78 aa 69 ba 68 41 69 3d 11 35 32 be cb 49 e6 bc
       -0.00089136465 0.056947142 -0.17403056 -0.02811136
0003e0 c8 23 77 3c f3 c5 d9 3d 9e d1 29 bc c0 bc ea 3c
       0.0150842145 0.10633459 -0.010364918 0.028654456
0003f0 d0 e7 55 bd 94 e1 92 bd 10 8b 17 be 3d c5 a0 3d
       -0.052223027 -0.07171932 -0.14799142 0.0785012

net.0.bias f4 [64]
000000 66 51 b6 bd 22 db da bd 0e f8 a3 3d 8c d2 0d 3e
       -0.08902244 -0.106863275 0.08006297 0.13849849
000010 ef 60 53 3d ae e0 ee bd fc 01 f9 3b 4d 0f 21 3d
       0.051606115 -0.11663948 0.0075991135 0.039321233
000020 2b 50 7e 3b 62 d4 62 bd 4c 56 2b bd 96 3b a5 3d
       0.0038805108 -0.055378325 -0.041830346 0.08068006
000030 47 3b b0 3d 41 ed e0 3d a4 00 22 bd c8 07 4e bd
       0.08605056 0.109827526 -0.039551392 -0.05030039
000040 3e 89 79 bd ed e7 8b bd 29 63 d0 3d d8 c0 f6 3d
       -0.0609219 -0.06831346 0.10175163 0.12048501
000050 7d e7 e8 bd 2c d2 00 3e f1 8c fd bd 3e fa dc bd
       -0.11372278 0.12580174 -0.12380398 -0.107899174
000060 2f 9e fd 3c db 6a 4a bd 20 37 6e bd bb a9 1f be
       0.030959217 -0.04941831 -0.05815804 -0.15592091
000070 be 13 c1 bb 5f 02 c5 3d 1a ab 12 3e 2c ee 16 be
       -0.005892246 0.09619593 0.14323083 -0.14739293
000080 c6 ce ce 3d 5a ba 53 bd fb 55 8f bd 9f 9d 29 bc
       0.10098033 -0.05169139 -0.06998821 -0.010352521
000090 46 54 48 3d 3b b2 e0 bc 18 b6 3d be 39 a0 0d be
       0.048908494 -0.027428737 -0.18526495 -0.13830651
0000a0 a0 d9 ce bb f7 71 00 3e 63 5c 82 3d c2 14 9b bc
       -0.006312564 0.12543474 0.063652776 -0.018930797
0000b0 37 97 0a be 53 9f 91 3d 74 b8 08 be 21 9c ee bc
       -0.13534246 0.07110467 -0.13351613 -0.029127182
0000c0 7f a5 19 be 35 22 21 be 31 bd 20 bd 8f fb e5 3d
       -0.15004538 -0.15735705 -0.039242927 0.112296216
0000d0 fc d0 84 3c 30 44 32 3d 99 6f 5d 39 4f 5c f5 bd
       0.016212933 0.04352206 0.00021117776 -0.11980497
0000e0 9e 5b 04 bc 99 20 37 bc 4b 5a 1d be 54 31 11 be
       -0.008078484 -0.0111772055 -0.15366475 -0.14178973
0000f0 55 ea 45 3e cc c8 21 be c1 b9 01 3e be 58 d7 bd
       0.19327672 -0.15799254 0.12668516 -0.10514973

net.2.weight f4 [32, 64]
000000 a0 84 42 3d ee 13 ac bd 6b 50 2f bd 7f 75 cc 3d
       0.047489762 -0.08402239 -0.042801302 0.09983348
000010 d3 d7 7e 3d 37 61 80 bd 29 4a 9f bd 63 8c 0f be
       0.062217545 -0.06268542 -0.07777817 -0.14018397
000020 9a 2d c4 3d f8 c5 9f bd 27 23 6e bd d3 7d 0e be
       0.0957901 -0.078014314 -0.058138993 -0.13915186
000030 96 61 4c bd 94 3a 26 bd 99 21 09 3d 1e 90 fd bc
       -0.049897753 -0.04058321 0.033479307 -0.03095251
000040 3c 61 28 bd d3 9e 03 be d6 9f ce bd dd 47 c6 bd
       -0.041108355 -0.12853555 -0.1008908 -0.096816756
000050 b0 3a 9a 3c c5 62 b8 bd a8 1a 47 bd 34 cc 98 bd
       0.018826813 -0.09003214 -0.048609406 -0.07460824
000060 02 fc a1 3c 4c 1f b9 3d 74 9c 29 3d 9e 02 b1 bd
       0.019773487 0.090391725 0.04140897 -0.08643077
000070 1a d2 b2 3d ff c0 cc bd d5 b8 f7 3c bb c6 38 3c
       0.0873148 -0.099977486 0.030239502 0.01127785
000080 56 a7 9e 3c b2 a6 9c 3d 21 c4 b7 bd a8 67 a1 3d
       0.019366901 0.07648982 -0.089729555 0.07881099
000090 8b bb b2 3d 09 7f 10 3b 27 ed 85 3d 1c 0f a2 3c
       0.08727177 0.0022048375 0.06539374 0.019782595
0000a0 8f 20 70 bd 6e d4 d4 3b 2d ba fd bd 82 ee 9e 3c
       -0.0586248 0.00649505 -0.12389026 0.019400839
0000b0 a0 b2 cf bd 0c 49 4f bd 4e 09 aa bd 1d 66 74 3c
       -0.10141492 -0.050606772 -0.08302556 0.014916924
0000c0 dc 65 a7 bd d8 d4 d2 3d 92 0a 88 3d 27 da a7 bc
       -0.08173725 0.10294503 0.06642641 -0.020489765
0000d0 d8 f9 36 bd fe 4e ed 3d aa 4d e0 bd f6 5d 7d bd
       -0.044671863 0.11587332 -0.10952313 -0.061857186
0000e0 c0 a6 a5 3d d6 6a 6b bd ff 00 dd 3a 0c 37 aa 3d
       0.08088446 -0.057474934 0.0016861259 0.083112806
0000f0 a5 29 c6 3d 10 3c 5e bc 1f e6 03 bd 00 9c 7d bd
       0.09675912 -0.013564125 -0.032201882 -0.06191635
000100 3a 0e b1 3d 7e ee 85 bc 66 db 9f bd f8 70 95 3d
       0.086452916 -0.016349073 -0.07805519 0.07296938
000110 88 33 8d 3d 4a 94 ce bd 85 46 68 3d ec e7 11 bd
       0.068945944 -0.10086878 0.056707878 -0.03562157
000120 79 9f ec 3c 91 89 f0 bd 78 26 9d bd 6f d6 a0 3c
       0.028884636 -0.11744989 -0.07673353 0.0196335
000130 d0 c9 bd bd dc 8f 6a bd 10 92 7f 3c 3a c6 89 3d
       -0.09267008 -0.0572661 0.015598789 0.06727262
000140 30 1e 40 bd cf 6f b8 3d 5d 38 cc 3c e2 e5 e1 bd
       -0.04690379 0.09005701 0.02492922 -0.11030175
000150 6c 5c 48 bd 7f d3 3f bd 41 3f 3b 3d fb 42 e7 bd
       -0.048916265 -0.046832558 0.04571462 -0.112920724
000160 dc d1 f2 bd a8 bd b4 3c 45 a7 26 3c 9b 27 7e 3d
       -0.11856434 0.022063091 0.010171716 0.06204949
000170 12 94 9f bd bd 4a e1 bd 16 d5 bf bc 95 eb 53 3d
       -0.07791914 -0.11000583 -0.023417037 0.05173834
000180 00 02 e1 3d 2c 90 0a 3d 37 24 27 bd 82 53 63 3d
       0.109867096 0.0338289 -0.04080602 0.05549956
000190 f2 7c 1d bc 43 9a bc 3c 56 b4 fe bd dc da 1c 3b
       -0.009612309 0.023022776 -0.1243674 0.0023934161
0001a0 64 7d b4 3d c3 f6 aa 3d 36 50 6d bd 70 ce 56 3d
       0.08812979 0.08347847 -0.057937823 0.052442968
0001b0 11 57 e3 3d c7 41 9d 3d bc 06 9b bd 95 4e fa bd
       0.11100591 0.07678562 -0.07569644 -0.122220196
0001c0 ee 19 df 3d a0 a0 5c 3d ba 21 5c bd f5 fe a6 3d
       0.108936176 0.05386412 -0.0537431 0.08154098
0001d0 e3 3b 92 3c 20 ab e4 3d b8 67 cc bd f0 d6 de bc
       0.017850822 0.11165452 -0.0998072 -0.0272021
0001e0 e8 05 be bd c0 98 2f 3b 85 1d d0 3d 9c 0c d1 bd
       -0.0927847 0.0026793927 0.101618804 -0.10207483
0001f0 35 dc cf bd 3a c5 81 bd 5f 47 92 bd f0 54 97 bc
       -0.10149423 -0.06336446 -0.07142519 -0.018473119
000200 c7 1a a4 3d 17 75 54 3c 9c a5 03 bd e7 89 4a 3c
       0.0801292 0.0129673695 -0.03214036 0.01236198
000210 47 19 cb 3d c9 88 05 3d ce 0b 3b bd 07 34 f6 bd
       0.09916931 0.03260115 -0.045665555 -0.12021642
000220 ff c8 35 bc eb c7 20 be ab 1f 48 3d 2e f1 cc bd
       -0.0110952845 -0.15701263 0.048858326 -0.10006939
000230 8e 20 c1 bd 95 d5 21 3d e2 f0 7a 3c 31 02 4d be
       -0.094300374 0.03951033 0.01531622 -0.20020367
000240 40 ec b5 bd 1e 7e f2 bd 0f 7d 3c bd ba 98 0a be
       -0.08882952 -0.11840461 -0.046017703 -0.13534823
000250 88 bd 65 bd 07 89 7b bd 43 f3 ef bd 26 10 c8 bd
       -0.056088954 -0.061409976 -0.1171632 -0.09768705
000260 f3 5b 16 bd ff 28 2b 3e 7e 51 bd bd c5 5c 9f 3b
       -0.036708783 0.16714858 -0.09244059 0.004863354
000270 55 fb 11 3e 04 4b d4 bd 77 ba fa bc 70 2c 55 bd
       0.14256032 -0.103658706 -0.030606491 -0.052044332
000280 c1 df 14 3e 24 67 9c 3d a8 31 eb bb 48 84 98 bc
       0.1453848 0.0763686 -0.0071775503 -0.018617764
000290 4d d3 f4 bc 91 7a 62 bd a1 1e fd bd ee 09 53 3d
       -0.029885912 -0.05529267 -0.123593576 0.05152314
0002a0 03 76 85 3c 9c cd 9b bc 29 35 8d 3c d6 1a b2 bd
       0.016291624 -0.01901894 0.017237263 -0.08696525
0002b0 ae 8a aa 3d ea 78 e9 3d 0d 18 3b bc 9f bb a7 bd
       0.08327232 0.11400016 -0.011419308 -0.08190083
0002c0 3c b0 9e 3d fc fc e0 3d 88 b1 48 bd f6 1b 0d bc
       0.07748458 0.10985753 -0.048997432 -0.008612623
0002d0 56 17 04 3d c4 36 47 3d cf 3c 8d 3d 5c 08 83 3d
       0.032248817 0.048636213 0.06896364 0.06398079
0002e0 dd ff 1d 3d 03 ea 44 bc 71 b9 06 3d 03 b3 36 3d
       0.03857409 -0.012018683 0.032891694 0.044604313
0002f0 66 18 af bd 1d e4 b1 bd 04 29 4d bd 40 44 40 bd
       -0.085495755 -0.08686087 -0.050087944 -0.04694009
000300 cf 02 9a bd f4 10 0a 3c 47 39 27 3c df 25 74 bd
       -0.07520067 0.0084268935 0.010206527 -0.05960643
000310 df 1d 8d 3d 40 3a 45 3d d0 c0 c1 3d 9b 8b 66 bc
       0.06890463 0.048151255 0.09460604 -0.0140713705
000320 a4 9c e4 3b e3 f0 23 bc 70 11 d1 bc b2 3e 25 3d
       0.006976681 -0.010006162 -0.02552101 0.040342994
000330 a2 81 1e 3c 6f 91 d7 bd 72 98 da 3c db 12 9f 3d
       0.009674462 -0.10525786 0.02668402 0.07767268
000340 80 e4 3e bb f1 96 13 3d 19 3c c1 3d c0 a0 79 bd
       -0.0029127896 0.03603262 0.09435291 -0.06094432
000350 26 ac 31 3d e7 b0 a4 3d a6 16 d7 3c 56 9b e4 bd
       0.043377064 0.08041554 0.026255917 -0.111624405
000360 bf 59 b6 bd 71 c8 c8 3c 93 70 0a bd 00 ad c0 bd
       -0.089038365 0.02450964 -0.033798765 -0.09407997
000370 3f 04 ba bc 5a ae 63 bd fd f2 3b 3d bb b4 18 3d
       -0.022707103 -0.055586196 0.04588603 0.037281733
000380 90 c8 a2 3e e2 96 cd bd d9 41 3e bd 61 81 01 bd
       0.31793642 -0.10038544 -0.046449516 -0.031617526
000390 e1 9f fe 3d 65 03 e4 bd 65 92 cf bd 95 a5 7d bc
       0.12432838 -0.1113346 -0.101353444 -0.015481372
0003a0 23 fc 18 3e a2 08 0f bd 41 be 26 3d 61 11 d2 3e
       0.14939933 -0.034920342 0.040708784 0.41028884
0003b0 7a de 1d 3d 05 09 9d 3b bf 55 0e 3d 84 26 57 bd
       0.03854225 0.004792335 0.034749743 -0.052526966
0003c0 d8 b4 2c bd 90 ab 9d bd 30 7e 8f bd 1b 29 2b bd
       -0.042164654 -0.076987386 -0.0700649 -0.041787248
0003d0 28 61 ab 3c ea 89 23 3d 6c 15 c3 bd 01 88 b9 bd
       0.020920351 0.039926447 -0.0952557 -0.09059144
0003e0 00 e2 05 3d a0 03 77 3d 6f b8 08 bc b4 a1 09 be
       0.032686234 0.06030619 -0.008344754 -0.13440591
0003f0 bf 95 f3 3d c7 28 91 3d 2c 04 11 3e 0b 9b c8 bc
       0.11893796 0.07087856 0.14161748 -0.024487993

net.2.bias f4 [32]
000000 e6 2a a1 bd 4e 0b 2d bc 4c ad d1 3c 21 b3 c2 3e
       -0.0786951 -0.010561777 0.02559533 0.3802729
000010 f9 40 1d bd bd 61 fe bc 8c a9 28 bd fb f4 45 bd
       -0.03839204 -0.031052465 -0.041177318 -0.048329335
000020 78 34 a4 3d a0 fb 29 bd 3d 5e b0 bd 92 a9 da 3c
       0.0801782 -0.041499734 -0.086117245 0.026692186
000030 9c 1f c6 bd 58 2e 92 bd 27 c7 f5 bd 1b 9b b1 3e
       -0.09673998 -0.071377456 -0.12000876 0.3468865
000040 a8 4b 91 3e 81 f2 d9 bd a9 bb 23 bc b2 96 45 3b
       0.28378034 -0.10641957 -0.009993472 0.0030149636
000050 22 94 0d be 39 69 82 3e 05 14 41 bc 79 8f 17 3d
       -0.1382604 0.25470904 -0.011784558 0.03700206
000060 32 9d f9 bd 15 08 4a bc 27 63 06 be 0b 6d 68 bd
       -0.12188186 -0.0123310285 -0.13123761 -0.056744616
000070 81 a3 dc bd e2 ed 8a bc 37 7f 27 3e f2 ba 09 3b
       -0.107733734 -0.016959134 0.16357122 0.002101597

net.4.weight f4 [1, 32]
000000 f8 fe df 39 57 fc 20 bd 1d 58 45 bb dd 7f 33 3e
       0.0004272384 -0.03930315 -0.0030112334 0.17529245
000010 65 91 63 bc c9 82 0b 3c 26 8a 2d bd 9d 9c 3d 3c
       -0.013889645 0.008515068 -0.042368077 0.011572984
000020 fa 84 df 3c 10 d5 ec 3c d7 af 1a be 0d 5d c3 3c
       0.027285088 0.02891019 -0.1510614 0.023848081
000030 4e e8 5d bd 04 f7 74 bb 7c 9d a1 bd bd 6d 04 3e
       -0.05417662 -0.0037378678 -0.07891366 0.12932487
000040 ca 1f d8 3d 46 d1 04 be 3e d5 92 bb a6 d8 20 3b
       0.10552938 -0.12970456 -0.004480987 0.0024543195
000050 4d ae dd 3d cb 44 35 3e 44 9b 08 be e0 5b 14 bd
       0.10824261 0.17702024 -0.13340479 -0.03622043
000060 51 f7 be bd cb 9a b6 bd a7 12 9c bd 59 a4 1a bb
       -0.093245156 -0.08916243 -0.07620745 -0.0023596494
000070 75 bb 81 bc cb c6 c7 ba ef 2b a5 3d 36 eb e6 bb
       -0.015836457 -0.001524174 0.0806502 -0.0070470823
